simple/simple_cifar_CE.pth (torch, 63861 bytes, 6 tensors)

fc1.weight f4 [128, 48]
000000 e6 ab af bd 6c 4f 58 be dc aa 66 be a4 d6 e7 3d
       -0.08577709 -0.21124047 -0.22526115 0.11320236
000010 23 88 64 bd 80 02 b5 3d 61 d6 ab 3d 10 d7 91 3c
       -0.055793893 0.088383675 0.08390499 0.017802745
000020 82 89 6c bd bd 92 92 3d 30 92 10 be f7 6b bf ba
       -0.057748325 0.07156894 -0.14118266 -0.001460432
000030 b1 9b 85 bf 00 da 26 bf ce 94 3b bf ab fd 6e bf
       -1.0438138 -0.6517639 -0.7327393 -0.93355817
000040 8a 44 a9 bd d7 f9 ec 3d 07 8a e1 3b 60 31 63 bc
       -0.08265026 0.11571091 0.006882909 -0.013866752
000050 a7 3c 9c be ff 83 b3 3e 4f d2 67 3e 00 c2 67 be
       -0.30515024 0.35061643 0.2263882 -0.22632599
000060 bb cb 85 3d e9 58 a4 3d a0 98 cd 3d 32 7e 9d bc
       0.06532999 0.08024771 0.100388765 -0.019225214
000070 53 05 89 3e a0 66 ee 3e ac e5 c3 3e 3f 73 c3 3e
       0.26761875 0.46562672 0.38261163 0.38173863
000080 5b c9 50 3e cc 56 75 3c 9e e7 04 3e 0f 1c fa 3c
       0.20389311 0.014974307 0.1297898 0.030530958
000090 57 19 05 3e 13 00 9b be a0 a3 ad be f6 f0 3f 3c
       0.12997948 -0.30273494 -0.33913898 0.011715164
0000a0 47 03 59 3e 62 30 63 be b0 4c 02 be 74 05 a6 3e
       0.21192656 -0.22186425 -0.12724566 0.32426035
0000b0 52 e3 28 3f dd 0b d9 3e d9 e3 99 3e 75 e3 f3 3e
       0.65971863 0.42391863 0.30056646 0.47634473
0000c0 8b ae ca bd bd bc 17 3e 05 94 d8 3e 15 b7 b5 bc
       -0.09896573 0.14818092 0.4230043 -0.022182027
0000d0 d4 d4 6e 3e 25 ca ef be 85 e1 b8 be f4 b3 ee 3d
       0.23323375 -0.46833912 -0.36109558 0.11655417
0000e0 1d b6 2d 3e 5e 4b 1d 3f a6 e3 f2 3e 20 dd 1b 3d
       0.16964002 0.61443126 0.47439307 0.038052678
0000f0 4c 80 84 be 18 6a fd be 6b 66 0f bf b9 d2 fb be
       -0.25879133 -0.49495006 -0.5601565 -0.49184206
000100 31 c6 96 bc ef 4e 14 3e 59 fb d8 3d 47 40 9a be
       -0.018405052 0.14483236 0.10594816 -0.30127165
000110 02 91 80 3c c8 d3 ba 3d 0c 2c 08 be 7f a7 91 3e
       0.015694145 0.09122425 -0.13298053 0.28448102
000120 ee a2 6d be 07 ef 13 3d 86 83 32 3e b0 54 2d be
       -0.23206684 0.036116626 0.17432985 -0.16926837
000130 33 6a ff 3d d1 5d 7d be f6 a2 fe be 62 5c 22 be
       0.12471428 -0.2474282 -0.49733704 -0.15855554
000140 f0 f2 a0 3e fe a7 97 bd e9 50 14 bd 75 9f 80 3d
       0.31435347 -0.07405089 -0.036209974 0.06280414
000150 df cb 20 3e f4 6c 95 3e 50 ef 49 3e f8 08 c6 3c
       0.1570277 0.29184687 0.19720197 0.024174199
000160 b2 c6 b4 3d 8c ca 07 3f 04 41 ba 3e 19 a7 c5 bd
       0.088269606 0.53043437 0.36377728 -0.09651012
000170 9d ac f8 3e 39 b3 89 be d3 a2 ac be 78 55 d8 3e
       0.48569193 -0.2689455 -0.33717975 0.42252707
000180 e8 cf 92 3d c2 09 bc bd 8d b4 a8 3e 0d b6 44 bd
       0.07168561 -0.09181549 0.3295025 -0.04802518
000190 2d 35 55 3e 7f e5 65 3f f0 3f 79 3f b5 9a 69 be
       0.20821066 0.8980331 0.97363186 -0.22812922
0001a0 65 d6 2d bf 59 0e 46 3e 34 7b 23 3e 4d e1 e3 be
       -0.67905265 0.1934141 0.15964967 -0.44507828
0001b0 d3 4d a6 bd 87 7c db be f6 32 bb be 57 2d 21 be
       -0.081203125 -0.42868444 -0.36562318 -0.15739952
0001c0 6a e2 cc be e2 66 97 be cf 0a 14 3f 97 b6 b3 3c
       -0.4001649 -0.2957068 0.5782899 0.021937652
0001d0 45 d4 d1 bc 6e 06 8b bf 17 4b 3a bf 91 a5 40 be
       -0.025613913 -1.0861337 -0.7277083 -0.18813159
0001e0 d3 f1 85 3d fc 91 83 3e fa 74 2e 3d c3 d3 f2 3d
       0.06540265 0.25697315 0.042592026 0.118567966
0001f0 be 08 0b 3f 67 60 1a 3f c0 64 d8 3e d5 4b cb 3e
       0.54310215 0.6030335 0.42264366 0.39706293
000200 5f c0 18 be b1 a2 71 be 85 d7 22 3e 3a 29 1e 3c
       -0.14917134 -0.23597218 0.15902527 0.009653384
000210 6d fb 8c 3e d7 f6 98 be 75 dc 5f bd de 42 5f 3e
       0.27535573 -0.29875824 -0.054653604 0.21802852
000220 95 fe f0 bd d8 55 ae 3d dd 87 4a be 2f 36 0f be
       -0.11767308 0.08512467 -0.1977839 -0.13985513
000230 e6 e8 61 3e b6 96 83 ba f7 d1 83 be 57 af 2f 3d
       0.220615 -0.0010039422 -0.25746128 0.042891826
000240 39 fd 92 bd 84 de 07 be c9 7b 1a be 14 c0 4f be
       -0.07177205 -0.13268477 -0.15086283 -0.20288116
000250 13 b2 17 3e fb 57 08 3e 3d 11 94 3e 16 6e 14 3f
       0.14814024 0.13314812 0.28919402 0.5798048
000260 f9 a0 09 be f8 df 41 3f ba 4d 1a 3e 71 8a 5e bd
       -0.13440312 0.75732374 0.15068713 -0.054331247
000270 4b b9 f5 be 6a 86 2c bf 83 c4 fd 3c 4c 2b e5 3e
       -0.4799293 -0.673926 0.030977493 0.44759595
000280 ff 9e 86 3e 46 02 d3 3e 9b fd 47 3e d7 48 b5 3e
       0.2629318 0.41212672 0.19530337 0.35407135
000290 cc f4 73 be c2 14 10 bf 58 cd 0a bf 48 c4 12 be
       -0.23823851 -0.56281674 -0.5421958 -0.14332688
0002a0 56 a0 55 be f6 ab 22 bf 0d db a7 bf 52 27 ce be
       -0.20861945 -0.6354364 -1.3113724 -0.40264374
0002b0 86 61 4a 3d 4b 73 48 3d 2f d2 ee 3e 3b 96 2c 3f
       0.04940941 0.048938077 0.46644732 0.67416734
0002c0 46 8e c9 be 4b 16 27 be 7c 24 e9 bc 09 b4 64 bd
       -0.3936636 -0.16317098 -0.02845978 -0.055835757
0002d0 c7 c7 39 be a4 3b 65 3f bc 39 04 3f f8 bd 3e be
       -0.18142615 0.8954413 0.51650596 -0.18627155
0002e0 77 61 35 3f bd 49 53 3f 6f 08 5f be c2 b0 f8 bd
       0.70851845 0.8253439 -0.21780561 -0.12143089
0002f0 60 9c 91 be 48 be 90 bd 73 57 a5 3d 9a 3c 46 3e
       -0.28439617 -0.07067543 0.0807332 0.19359055
000300 9f c0 33 be 34 0c 6b 3e 78 d9 eb 3d 85 f2 ca 3e
       -0.17553948 0.22953874 0.11516088 0.39638153
000310 38 f7 07 bd 6d 3f 85 3e 6c 98 1f bf 9f 13 73 3e
       -0.03319475 0.26024953 -0.6234195 0.23737954
000320 96 86 62 be cf e6 35 3d 51 d3 ab be 17 c0 ce 3e
       -0.22121653 0.04440957 -0.3355966 0.40380928
000330 61 36 9a be ee 92 53 3e 4c 54 9c be 79 9f a0 bd
       -0.30119613 0.20661518 -0.30533063 -0.07842917
000340 6e 1d 3f 3e 1a 77 f8 3d 32 a9 bb be 7a b1 67 3e
       0.1866357 0.12132092 -0.36652523 0.22626296
000350 be 85 26 3e 8f 19 a6 3d e6 13 50 bf 64 a1 c5 3e
       0.16261956 0.08110344 -0.8128036 0.38599694
000360 06 6f 3c 3e ff 27 45 3e c0 02 90 be 56 8a c7 3e
       0.18401727 0.19253539 -0.28127098 0.3897273
000370 e7 b8 39 3d d7 f9 a5 3e 42 19 07 bf 78 b3 cd bd
       0.045342352 0.32417175 -0.52772915 -0.100439966
000380 c3 17 d2 bd ca 83 fb 3e 4f a6 6d be 35 33 90 be
       -0.102584384 0.49123985 -0.23207973 -0.28164068
000390 6c ad af bd 52 ea 53 3f 84 3e 1f bf fc 1d cc bd
       -0.085779995 0.8277942 -0.62204766 -0.099666566
0003a0 07 94 10 bf 4a 0c 53 3f 3c 94 94 be f2 b7 55 be
       -0.5647587 0.82440627 -0.29019344 -0.20870951
0003b0 d5 65 9e 3c cd e1 75 3f 8d 25 06 be 54 cd 49 be
       0.019335667 0.9604767 -0.13100262 -0.19707233
0003c0 08 48 51 3c 73 a0 b9 3d ac 28 bd bc b5 03 47 bd
       0.012773521 0.090638064 -0.023090683 -0.04858752
0003d0 49 b6 3b 3e d9 4c c0 bd c9 31 98 be 40 21 73 bd
       0.18331255 -0.093896575 -0.29725483 -0.05935788
0003e0 fd 73 37 3e 19 4a 77 bf 16 ed 2f bf ed 6a 93 3e
       0.1791534 -0.9659744 -0.6872114 0.28792515
0003f0 41 f9 b0 3e cd ee 24 3f 70 fe 86 3e 93 27 fa 3d
       0.34565166 0.6442688 0.26365995 0.122145794

fc1.bias f4 [128]
000000 c9 ad 2f bd 07 ec 9d be 0b a2 8d be 01 19 cd be
       -0.042890344 -0.30844137 -0.2766269 -0.4005814
000010 9f 8e 62 be 9b 1e 47 bf 8c 4a fe be 3c 21 d6 be
       -0.22124718 -0.77781075 -0.4966625 -0.4182223
000020 91 06 84 be 10 6e 43 bf a2 2e 21 3c a8 41 81 bf
       -0.2578626 -0.7633982 0.009837778 -1.0098162
000030 90 42 42 bd e4 a4 13 bf dc 06 93 3d 8b 05 6d be
       -0.04742676 -0.5767348 0.07179043 -0.23146646
000040 78 14 b9 be bb 87 0c be 7a d8 fe bd 8a 8f c2 be
       -0.3614843 -0.13723652 -0.124436334 -0.38000137
000050 9b 3e b8 be b7 01 b6 bd 1e a8 14 bf 20 6c 43 bf
       -0.35985264 -0.08887046 -0.58069026 -0.7633686
000060 96 cd 72 bf 1c 22 98 be 6b d9 bd 3d 0c 69 d2 bd
       -0.9484495 -0.29713523 0.09269985 -0.10273942
000070 1a c7 97 be 12 46 12 bf 84 4b 04 be 70 fd f1 be
       -0.2964409 -0.5713817 -0.12919432 -0.4726367
000080 b0 df 4e bf 15 49 2c be 9c ee 70 be bd 6a 93 bf
       -0.8081007 -0.16824754 -0.23528522 -1.1516949
000090 c0 ea a4 be 2a d4 39 bf a8 5b 1e bf f4 2d da bd
       -0.3221035 -0.7258936 -0.61858606 -0.10653296
0000a0 06 b9 83 be cc 36 25 bf 97 18 be be 8b 31 13 bf
       -0.257271 -0.6453674 -0.37128136 -0.5749747
0000b0 2a 76 2a bd d8 2e 4b be ec 43 a2 be 9e ed f3 be
       -0.041616596 -0.19842088 -0.31692445 -0.47642225
0000c0 96 30 e7 bd 14 42 e8 3d 73 d8 3f 3e cf e3 09 bf
       -0.11288564 0.113407284 0.18734913 -0.53863233
0000d0 bf 26 c1 be 8e 32 ba be dc 64 0b bf 5f b6 e9 bd
       -0.37724873 -0.36366695 -0.54450774 -0.11411738
0000e0 61 90 03 bf 4e 9e e5 3d 43 5f 00 bf 61 57 df be
       -0.5139218 0.11211835 -0.5014536 -0.43621352
0000f0 78 e1 1c bf 72 fc 02 bf db fd 64 bf 09 09 52 be
       -0.6128154 -0.5116645 -0.8944985 -0.20511259
000100 1c e3 73 be 09 66 02 bf 8d f5 72 bd 39 c5 05 be
       -0.23817104 -0.50936943 -0.059316207 -0.13063516
000110 cd d6 30 bf 2e 86 60 be 16 38 d5 be df a0 03 bf
       -0.6907776 -0.21926185 -0.41644353 -0.51417345
000120 f9 aa 7f bf bd 1d 5e bf 1e 90 3a bf dd 80 e6 be
       -0.9987026 -0.86764127 -0.72876155 -0.4502019
000130 b1 a9 c2 bd 9c f6 61 be c9 b2 8e be a2 27 f9 be
       -0.09505022 -0.2206673 -0.27870777 -0.4866305
000140 96 cf b3 be cd 8d 87 be 68 6f f9 be 60 23 32 3d
       -0.35119313 -0.26475373 -0.4871781 0.043490767
000150 a9 35 87 bf 00 ca 03 bd 6a b5 c4 be cd ac 48 be
       -1.0563251 -0.032175064 -0.38419658 -0.19597168
000160 fa 43 f9 bd 1a 74 ce be cd cc 60 be 7e 43 2c be
       -0.121711686 -0.40322953 -0.21953125 -0.16822621
000170 f6 4b ee be 5a 0b c7 bd 40 74 c8 be cd 0d e5 be
       -0.4654233 -0.09718962 -0.39151192 -0.44737092
000180 98 3f 90 bd e5 bc 0b bf 72 3a d5 be e4 ee df be
       -0.070433795 -0.54585105 -0.41646153 -0.43736947
000190 9d b3 d0 be f1 63 12 bf 8b 51 08 bf 73 45 f3 be
       -0.40762034 -0.5718375 -0.53249425 -0.47513923
0001a0 1c 68 f2 be 29 09 f0 be 6f a0 80 be b9 41 a7 be
       -0.47345054 -0.4688199 -0.251224 -0.3266733
0001b0 70 8b b9 be 77 19 70 bf 9e 41 ef be 1c df 1b bf
       -0.36239195 -0.93788856 -0.4672975 -0.6088731
0001c0 04 ec 6c bd 3b 4b c4 be 12 92 59 3e f4 ea f0 be
       -0.05784227 -0.38338646 0.21247128 -0.47054255
0001d0 a5 22 e2 be 90 7e 6f be c0 c6 9f ba e2 32 01 bf
       -0.44167057 -0.23388124 -0.001218997 -0.50468266
0001e0 5a 01 13 bf ee e5 ee be 5f 13 22 bd af b9 9d be
       -0.5742394 -0.46659797 -0.039569255 -0.30805728
0001f0 60 bb c5 b9 ca 70 b5 be 41 e5 a2 bd 08 15 15 bf
       -0.00037714373 -0.35437614 -0.07953883 -0.58235216

fc2.weight f4 [64, 128]
000000 9a 13 5c bc 36 cb 9a bc c7 17 c2 be 78 0a c4 bd
       -0.013432408 -0.018895727 -0.37908766 -0.09572309
000010 db 3f 04 be e2 bb 8e 3d 5e 3b 3f 3e 1f 4f 32 bf
       -0.12914984 0.069694296 0.1867499 -0.6965198
000020 44 fc e5 be e2 4b 03 3e 2f 02 af bd 8d 61 2d 3e
       -0.44919026 0.12821916 -0.08545338 0.16931744
000030 fb 24 91 3e 9e 6d 61 bd 79 13 63 3e be 14 4a 3e
       0.28348526 -0.05503618 0.22175397 0.19734475
000040 34 88 c3 bd 34 6e 32 be d0 e9 06 3e fc 75 00 3e
       -0.09547463 -0.17424852 0.1317513 0.12545007
000050 6c 19 3d 3e 8f 1d 1e be 15 ce 3d bf ac 15 ba bc
       0.18466729 -0.15440963 -0.7414258 -0.022715412
000060 3c fd ec be 45 17 82 3e 24 cb a2 be cb 20 b3 3d
       -0.46286952 0.25408378 -0.3179561 0.08746489
000070 23 16 b3 3e 76 14 42 3e 98 8c d3 bd 51 0b a0 3e
       0.34977826 0.18953118 -0.103295505 0.31258634
000080 1f 4a 1a be 10 84 82 bf 12 83 8d bd 93 b7 0c bf
       -0.15067337 -1.0196552 -0.06909765 -0.5496761
000090 25 b8 13 bf 1e ec 4b 3c 56 9a b7 bc 38 aa ba bd
       -0.5770286 0.012446431 -0.02241246 -0.09114498
0000a0 ab 64 5e 3e f4 ea 15 3f 74 bb 10 be 19 c2 f8 3e
       0.2171809 0.58561635 -0.14134008 0.48585585
0000b0 44 b9 a7 bd 0f d1 33 bf 8e ea 09 be 56 6b 1a be
       -0.081896335 -0.70240873 -0.13468382 -0.15080008
0000c0 49 1a b7 3e b4 a7 a5 3e fe 0d 09 3e e0 54 0d be
       0.3576224 0.3235451 0.13384244 -0.13801908
0000d0 f1 8e 49 3e 78 2d 4f bf ae 9f 21 3e 75 64 09 3e
       0.19683434 -0.80928755 0.15783569 0.13417228
0000e0 4c 87 b8 3b f1 df 36 bc 77 80 7b be ad 53 30 3e
       0.005631363 -0.01116179 -0.24560724 0.1721942
0000f0 b5 d4 65 3e 88 14 17 be 19 5f af 3e bd ce 1f 3e
       0.22444423 -0.14753926 0.3425224 0.15606208
000100 4c 0a 0c be 61 60 48 3e 17 ca ac 3e d1 1c 8c bc
       -0.13675803 0.19568016 0.33747932 -0.017103584
000110 d2 38 c0 be 69 3f 60 be 6e ab 5d be 11 96 e8 be
       -0.3754335 -0.21899189 -0.21647426 -0.45426992
000120 ab 15 e5 be a2 00 e2 be aa f6 76 bf 44 7b 74 3d
       -0.44743094 -0.44141108 -0.9647013 0.059687868
000130 a8 79 5a 3e 96 df d6 be 11 44 40 3f 3f 53 c6 3e
       0.2133547 -0.41967458 0.7510386 0.38735387
000140 13 3e 21 be 3f ad b5 be cc 50 11 bf 09 46 57 3e
       -0.15746336 -0.3548374 -0.5676391 0.2102281
000150 62 b5 26 bc 28 5b 70 3e 52 06 19 be 28 3e 4a bf
       -0.010175081 0.23472273 -0.14943817 -0.7900109
000160 34 49 6f bf fd ea 74 3d f1 59 bf bd 36 9f 8c 3d
       -0.93471074 0.059794415 -0.09343327 0.068663046
000170 a4 b9 d4 bd 65 c9 81 be 75 61 d1 be 3c d9 ff be
       -0.10386971 -0.25348964 -0.40894666 -0.49970424
000180 b7 ce b2 be 90 81 1a 3e d7 e4 64 3e 6f c4 56 bf
       -0.34923336 0.15088487 0.2235292 -0.83893484
000190 16 62 f3 be b7 57 3b bf 92 86 65 3e 7d 60 3d 3e
       -0.4753577 -0.7318072 0.22414616 0.18493839
0001a0 48 fa 14 be c4 81 0c 3e 75 e1 9e 3d 3e ba 9d 3e
       -0.145486 0.13721377 0.07757846 0.30806154
0001b0 dd 42 46 bf 99 8d a3 3e 02 ed c3 be 08 ba 5d be
       -0.77445775 0.31943968 -0.3826676 -0.21652997
0001c0 e5 3e 77 bd bd bc 7e 3e 76 b7 98 3e f8 68 a0 be
       -0.060362715 0.24876685 0.2982747 -0.31330085
0001d0 ab 18 39 bf c3 65 b0 be 6b 23 e6 bc 73 af a2 be
       -0.72303265 -0.34452638 -0.02809306 -0.31774482
0001e0 38 62 b0 be 29 76 11 3e b7 43 8c bf 5d ca b7 3d
       -0.34449935 0.14205231 -1.0958165 0.089741446
0001f0 e2 31 66 3e 39 46 af 3e 56 46 1c be 28 1b 11 3e
       0.22479966 0.34233263 -0.15261206 0.14170516
000200 bd 3c 23 bf 2f 76 0a bf 7d 75 ae 3e 70 4f 11 bf
       -0.63764554 -0.54086584 0.3407401 -0.56761837
000210 cb eb 0d bd fa 44 3e be 5d 26 a7 3d 9e e8 c8 3e
       -0.034648698 -0.18581 0.08161614 0.39239973
000220 9f 65 87 3e e1 fb 97 be 0d 3f 8d 3e 3f 54 8d be
       0.26444718 -0.29684356 0.27587166 -0.27603337
000230 98 3b 9c be 2f fc 38 3e ab 40 1c be 82 45 46 be
       -0.30514216 0.1806495 -0.15259044 -0.19362453
000240 5b ef be 3e 59 7e e5 be f0 62 0d be 51 fd bc be
       0.3729199 -0.44822958 -0.13807273 -0.36912015
000250 0b 9e 2d bf 7b 6c 51 3e 4b c2 6d be d4 f1 54 bd
       -0.6781928 0.20451538 -0.23218648 -0.051988438
000260 ae 28 70 3d fa 02 aa bd ac 86 67 be a6 0c de 3c
       0.058632545 -0.08301349 -0.22609967 0.02710564
000270 d5 3b 5a bf 41 ef 23 be e7 ff 98 3d b4 ad 47 bd
       -0.85247546 -0.16009237 0.074706845 -0.04874964
000280 48 1d 57 3e a7 2a 5a be 7e 68 d8 3c 5a 4e 52 be
       0.21007264 -0.21305333 0.026417013 -0.20537701
000290 e3 61 e2 3e d5 d3 cf be 37 02 c8 3d 20 ef 08 3e
       0.44215307 -0.40591303 0.097660474 0.13372469
0002a0 91 b8 b2 3d 86 92 65 3d ab 0d ce 3d 19 7f 23 bf
       0.087266095 0.05604794 0.10061201 -0.6386581
0002b0 e3 f8 9c 3e 57 d1 36 3e 32 8e 2c 3e b9 b6 3e 3e
       0.30658635 0.17853294 0.16851118 0.1862439
0002c0 72 31 35 be f4 ed 48 be 89 cb a2 be 77 70 39 3e
       -0.17694643 -0.19622022 -0.3179591 0.18109308
0002d0 a1 0c 7c 3e c6 91 84 3d b0 19 d7 bc 7a ce d3 be
       0.24614193 0.064731166 -0.026257366 -0.41368467
0002e0 82 22 f8 bd b3 75 94 bf 53 95 63 3e ea 83 51 be
       -0.12115957 -1.1598419 0.22224931 -0.20460477
0002f0 85 c3 2e be 5e fc 30 bf 3a 37 07 3e 5d 1c d3 be
       -0.17066772 -0.6913508 0.13204661 -0.41232577
000300 6c f3 bb 3c d0 93 cd bd f8 63 83 be d3 58 32 bd
       0.022943221 -0.100379586 -0.25662208 -0.04354174
000310 7d b1 eb bd ad 9b f4 3d 0c 1e 91 bd a3 06 db be
       -0.115084626 0.11943755 -0.07085809 -0.427785
000320 c1 62 af 3e 19 96 5d 3e 10 ec ab bd 89 80 98 3d
       0.3425503 0.21639289 -0.08394635 0.07446391
000330 98 32 10 be dc 9b 8a 3e ce 0c 37 bf 3f 44 27 3e
       -0.140818 0.27072036 -0.71503913 0.16334628
000340 82 88 ab 3d 88 ba 1f 3e 2f 92 0e be b8 b9 8d be
       0.08375646 0.155985 -0.13922952 -0.27680755
000350 95 71 8a bb 19 23 4a bc d5 7e 91 3d 28 51 5c be
       -0.004224966 -0.0123374695 0.071042694 -0.21515334
000360 4d 64 8c 3d fa cf 00 3e 8d 9c 05 bc 1a 45 24 3e
       0.06855068 0.12579337 -0.008155 0.16041985
000370 8f d7 8f be c1 91 b4 be f0 d5 87 3e f0 9b 10 be
       -0.28094146 -0.3526745 0.2653041 -0.14121985
000380 cd c8 d4 bd 1e 98 da be 71 28 9e be c8 cd 01 3e
       -0.10389862 -0.4269418 -0.3089023 0.12676156
000390 5d 4b 32 bd 0f 13 82 3d 62 25 98 bd 11 39 af be
       -0.043528903 0.063512914 -0.07429005 -0.34223226
0003a0 3f 72 51 3e f6 60 1f be 6e 39 a7 bd 90 99 ac bd
       0.20453738 -0.15564331 -0.08165251 -0.08427727
0003b0 c8 e8 3b 3c a8 a9 08 be 40 c9 71 be 4e bc 40 3e
       0.011469074 -0.13345969 -0.23611927 0.18821833
0003c0 83 0e d0 3d 6c e0 7d be c6 ef e1 bd 06 d3 c8 3d
       0.10159018 -0.24792641 -0.11032061 0.098058745
0003d0 48 f9 a2 3d a9 7d 9c 3d 6b 74 d2 be 67 e1 35 bd
       0.07957703 0.07641155 -0.41104445 -0.044404414
0003e0 6b 9f b3 3d 55 ab fc 3c 40 ff fb bd 5a 6a 6e bf
       0.08770641 0.030843416 -0.123045444 -0.9313103
0003f0 be 23 2a be b6 c5 df bd 9a fa d9 be d4 cd 3f be
       -0.16615197 -0.10926382 -0.42574006 -0.18730861

fc2.bias f4 [64]
000000 f1 22 ba 3e 18 01 41 3f 3e f7 be bd ca 29 1c 3e
       0.36354783 0.75392294 -0.093245015 0.15250316
000010 c8 db 3b 3f 29 68 58 be 27 84 19 3f 60 a9 6c 3e
       0.73382235 -0.21133484 0.59967273 0.23111486
000020 68 59 02 3f 22 3c d3 3e f4 d8 71 3f b7 90 5c 3f
       0.50917673 0.41256815 0.9447167 0.8615832
000030 82 e6 b6 3e 15 9d 26 bf b3 24 a2 3e 7b fe 26 3e
       0.35722739 -0.6508344 0.31668624 0.16308014
000040 c0 8e bd 3e 87 d5 27 3f f7 ac 8b 3e db 33 d8 bc
       0.37022972 0.6556019 0.272804 -0.026391914
000050 2a 85 97 3d bf be a4 3e 54 e0 6d 3f 4e 98 db 3e
       0.07398446 0.32176778 0.9292042 0.42889637
000060 00 f8 85 3e ce 43 52 3f d4 4a e2 3e 3e 47 a0 3e
       0.2616577 0.8213471 0.44197714 0.31304353
000070 bb a1 d9 3e cf 0f e6 3e 88 2b 10 be c6 37 5f 3f
       0.42506203 0.44933936 -0.14079106 0.8719448
000080 72 2d 30 3f 8b ce 80 3e 1c 2e 11 3f 94 8e b2 3e
       0.68819344 0.2515758 0.5671098 0.34874403
000090 c0 33 4f 3f c9 e9 a1 3e e9 ba 7a 3f 3d 22 52 3f
       0.8093834 0.31623676 0.9794145 0.82083493
0000a0 9c fe f8 3e c6 2f 34 3f 27 d3 90 3e f7 8d 5d 3e
       0.48631752 0.70385396 0.28286096 0.21636187
0000b0 e9 b8 d3 3d 0f 75 3a 3e 1d 29 fb 3d f1 58 df 3b
       0.10338003 0.18208717 0.12263701 0.0068160226
0000c0 3e f8 6b 3e a4 59 4b 3e 6c 79 34 3d f8 7e d3 3e
       0.23043916 0.19858414 0.04406111 0.41307807
0000d0 d1 09 ba 3e b4 45 12 3f ec 69 41 3d 20 78 88 3e
       0.36335614 0.5713761 0.047220156 0.26654148
0000e0 97 fc a6 3e 3b 43 08 bd 23 b3 40 3f 61 0c 2d 3f
       0.32614586 -0.03326724 0.7527334 0.67597014
0000f0 64 82 92 3e 46 32 9a 3e e0 c6 01 3f 95 6d b0 3e
       0.28615105 0.3011648 0.50694084 0.34458604

fc3.weight f4 [10, 64]
000000 54 6f 2b be ab 25 f6 be da 42 af 3c 60 2a ea be
       -0.16741687 -0.48075613 0.021394182 -0.45735455
000010 a4 33 1f bf e0 ac 5c bd 00 b7 73 3d 37 43 e5 3c
       -0.6218817 -0.053875804 0.059500694 0.027986152
000020 aa db 5e 3e 84 26 a8 be 56 22 7a bd 8d 29 00 3e
       0.21763483 -0.32841885 -0.0610679 0.1251585
000030 0d b2 74 be 0c e9 c5 bd 62 c7 97 be 28 a2 96 3d
       -0.23896046 -0.09663591 -0.29644305 0.073551476
000040 21 a1 64 3c 36 53 14 bf 97 47 05 bf be 7b cc be
       0.013954432 -0.5793947 -0.5206236 -0.39938158
000050 1d 97 07 bf b9 3c cb be fd 6a 88 be c9 77 dd bb
       -0.52964956 -0.39694765 -0.26644126 -0.0067586643
000060 f8 6d 46 be 22 fc bf bc 6a e5 69 be 3c a0 46 be
       -0.19377887 -0.023435656 -0.22841421 -0.19397062
000070 f1 9e fd be e7 66 ab bc da 4c 7b be a3 d8 08 bf
       -0.49535325 -0.020923091 -0.24541035 -0.5345556
000080 dc 29 55 be 9a 0a 3e be 40 23 af be b9 78 f4 bd
       -0.2081675 -0.18558732 -0.3420658 -0.119370885
000090 5d 82 b7 bd d2 be 93 be 0b d9 1d bf d4 7a 19 3e
       -0.08960412 -0.28856522 -0.61659306 0.14988261
0000a0 a2 c1 57 bd f0 74 ee 3c ed c3 db bd 35 ec 26 bf
       -0.052674897 0.029108495 -0.10730729 -0.65204173
0000b0 81 64 50 bd f1 0e 04 3d 5f 47 dc 3c a8 d5 d9 bc
       -0.050877098 0.03224081 0.026889501 -0.026591137
0000c0 70 c9 61 be d9 c1 76 3d c4 c3 31 be cc cd 95 be
       -0.22049499 0.06024346 -0.17359835 -0.29258573
0000d0 5e 7a ce be e0 da 01 bf f1 6a bf bd 30 47 fa bb
       -0.40327734 -0.507246 -0.09346569 -0.0076378807
0000e0 de d4 c1 be 38 cc 22 bf e2 26 1a bf 6a 7b e0 be
       -0.37857717 -0.63592863 -0.6021558 -0.43844157
0000f0 a5 4d 3f bf 9c 09 81 3d 28 87 d9 bd 4b c0 31 3c
       -0.7472785 0.06300661 -0.10621482 0.010849069
000100 dd 98 d3 3d 9d e8 d2 be ce 03 4d bd 68 45 c3 be
       0.10331891 -0.41193095 -0.050052457 -0.3813889
000110 85 e5 83 bf 3a fb c4 be 9f d4 f7 be bf bd 47 3d
       -1.0304419 -0.3847292 -0.48404405 0.04876494
000120 40 76 2f be 20 3e e5 bb 5d e8 18 bf 95 47 d7 be
       -0.17134953 -0.0069959313 -0.5972956 -0.420468
000130 f6 ae b3 bd 76 2b f6 3d be a8 ec be 16 24 15 bf
       -0.087736055 0.12020008 -0.4622249 -0.5825819
000140 c1 e2 d2 bd 02 d2 5a bf ff cd d5 be 6b ad bb bd
       -0.10297156 -0.85476696 -0.41758725 -0.09163936
000150 46 e1 86 be 4e dc d8 3c 95 20 27 bf e7 5c 42 3d
       -0.26343745 0.026472237 -0.6528409 0.04745188
000160 74 f9 a1 3d b3 a1 18 bf 08 3d e0 be 5f 5a 07 bd
       0.079089075 -0.59621733 -0.43796563 -0.03304517
000170 cb ea 1a 3d 08 5b bb bc f4 8c 88 be e3 65 0e bf
       0.037821572 -0.022870556 -0.2667004 -0.55624217
000180 3e 89 eb be d7 b5 f1 bd 46 9a 29 bf 1e 5e fe be
       -0.46003145 -0.11802261 -0.6625103 -0.4968118
000190 90 18 45 bf bd 62 c9 3a 2b c2 06 bf 3e 9a 32 be
       -0.76990604 0.0015364509 -0.52640027 -0.17441651
0001a0 1c bd 46 be f6 26 43 bf 3e e6 89 be 9b 14 4e be
       -0.19408077 -0.76231325 -0.26933473 -0.20125048
0001b0 18 7b c6 be 9f 24 f9 bd ac 8d 07 bf 17 50 f0 3c
       -0.38765788 -0.12165188 -0.5295055 0.029335065
0001c0 87 ba 3d be 38 07 c1 bc 75 c1 e1 be e8 ea 98 3d
       -0.18528186 -0.023563012 -0.44092909 0.0746668
0001d0 e3 82 99 be 8b 08 c6 be 3a 96 af bd b8 98 9b bd
       -0.2998267 -0.38678393 -0.08573575 -0.07597488
0001e0 09 d3 f9 bc 23 f1 a6 be 31 2d c7 be 5f 16 05 bf
       -0.030496137 -0.32605848 -0.38901666 -0.5198726
0001f0 ad 30 80 be 35 ca 00 bd a8 f2 0e be f1 db 67 be
       -0.25037137 -0.03144284 -0.13959754 -0.22642495
000200 00 94 ba be bb 8b 5b bd 3b 02 da be b2 52 b6 be
       -0.3644104 -0.053600054 -0.42579827 -0.35609967
000210 e2 bf 9b bb 8c 61 ce bd 4f 97 c5 be d5 5d 26 be
       -0.004753099 -0.10077199 -0.38592002 -0.16246732
000220 d3 1c e0 be f6 2e e6 be 25 71 9d be 30 3d 8d 3d
       -0.4377199 -0.44957703 -0.30750385 0.06896436
000230 2a d7 02 be 57 8b db be 50 1a a3 bd f7 95 ee bd
       -0.12777391 -0.42879745 -0.07964003 -0.11649697
000240 39 91 be bd 04 71 16 be 6e 99 44 be d7 47 c3 bd
       -0.09305043 -0.1469155 -0.19199154 -0.09535187
000250 e1 3c 1f bf fc 64 6b be f4 ae 5c bd 21 50 9a 3c
       -0.6220227 -0.22987741 -0.053877786 0.018837037
000260 88 96 b3 be d6 cd ae 3b 0a 16 25 be ae de 9c be
       -0.35075784 0.005334596 -0.16121688 -0.3063864
000270 32 64 a3 be 49 40 9f 3b 78 88 a9 be ff 16 1c be
       -0.3191238 0.0048599583 -0.3311193 -0.15243147
000280 98 fc 7b be 44 e3 29 be e4 a4 9d bd 38 47 60 bd
       -0.24608076 -0.16590601 -0.07697466 -0.05475542
000290 22 6c c4 3d 8f 0e db be 62 aa 85 3c 24 09 2f be
       0.09590937 -0.42784545 0.016316596 -0.1709333
0002a0 29 46 1c be 7f 2c 97 bc 5c 0a 0b bf e6 70 ac be
       -0.15261139 -0.018453835 -0.5431268 -0.33679885
0002b0 ff 9e 92 bd 7b df a2 be 64 c6 94 bc 5c 79 ae bd
       -0.07159232 -0.31811127 -0.018161006 -0.08519241
0002c0 8b 65 e7 3c d6 3a df be 52 e1 67 3c 19 b1 a5 bd
       0.028246662 -0.43599576 0.014152842 -0.08090419
0002d0 5d ca d9 be 64 a7 ad be 6b a8 44 be 76 40 af bc
       -0.42537203 -0.3391677 -0.19204871 -0.021393042
0002e0 c0 17 a4 be 43 af 39 be 7b a1 8e bd 60 10 cc 3d
       -0.3204937 -0.18133263 -0.06964394 0.09964061
0002f0 50 ca ee be ae 5b 02 bf 84 1b 0f bf 08 db b1 bd
       -0.46638727 -0.5092114 -0.5590136 -0.08684355
000300 10 2d ca be 64 34 cc 3b b9 88 81 bd 30 7e 08 be
       -0.39487505 0.0062318314 -0.06324906 -0.13329387
000310 4e 60 09 be 32 8a aa bd 47 8e 13 bf b0 c1 15 be
       -0.13415644 -0.0832714 -0.57638973 -0.14624667
000320 04 25 19 bf 52 4a 66 bf 5d 17 af be 31 8b e0 be
       -0.59822106 -0.89957154 -0.34197512 -0.43856195
000330 e7 4d e4 bd 71 8f 00 bf 3d 04 ec be 1a 0b 83 be
       -0.11147671 -0.50218874 -0.46096984 -0.25594407
000340 52 35 b9 be e9 78 c5 be 0c b6 82 bd dd a4 fd bb
       -0.36173493 -0.3856881 -0.06382379 -0.0077406005
000350 89 11 d1 be de f5 99 bd cb 5d 87 be 96 9b 04 bf
       -0.4083369 -0.075175986 -0.26438746 -0.51799905
000360 c1 9c 04 be 47 06 d4 be 43 c4 c0 bd c1 c4 4d be
       -0.12950422 -0.4141104 -0.09412434 -0.20094587
000370 b6 ea 03 bf 6c 75 ce be e3 f6 c3 be 8d 8a f6 be
       -0.51530015 -0.4032396 -0.38274297 -0.4815258
000380 a3 17 4d 3b 4f d2 61 be 77 85 df bd e4 89 85 bd
       0.0031294606 -0.22052883 -0.10914128 -0.06520441
000390 1a 7c 77 be 12 87 18 bf fb 0a 61 3d 50 39 b0 be
       -0.24168435 -0.595811 0.054942112 -0.34418726
0003a0 e8 f2 df 3d 1a 8f da be fa 51 31 be d9 77 a0 bd
       0.109350026 -0.42687303 -0.17316428 -0.07835359
0003b0 0b b3 58 be 7a 5c f8 be 40 4a b2 bb 84 7a 04 be
       -0.2116205 -0.48508054 -0.00544098 -0.12937361
0003c0 50 73 bb be 39 fc e3 be 60 65 83 be 9f 66 12 bf
       -0.36611414 -0.44528368 -0.2566328 -0.5718784
0003d0 62 96 0a be 74 5b 39 bf 2b 09 72 be 68 93 99 bd
       -0.13533929 -0.7240517 -0.2363631 -0.07498819
0003e0 a8 d6 02 bf 98 c9 1e bf 97 1e a6 3d 7a 0a 0f bd
       -0.5110879 -0.6202636 0.08111303 -0.0349221
0003f0 62 d3 80 be 10 e9 1f bf 48 b9 ab be 0c 84 82 be
       -0.25161272 -0.62465 -0.33539796 -0.2549137

fc3.bias f4 [10]
000000 53 71 99 be 0e 77 07 bd 49 99 c5 be ff 74 48 3e
       -0.29969272 -0.033072524 -0.3859351 0.1957588
000010 e9 aa 1d 3c 8e fb d3 3d fe c6 88 3d 91 19 48 be
       0.009623268 0.103507146 0.0667858 -0.19541003
000020 0b d2 a0 3d 29 c3 01 3d
       0.078525625 0.03168026
