simple/simple_cifar_with_plots.pth (torch, 64021 bytes, 6 tensors)

fc1.weight f4 [128, 48]
0	0x3ef4420f	0.4770665
1	0x3e08d4ea	0.1336247
2	0x3d9379e3	0.072009824
3	0x3e647358	0.22309625
4	0x3e676097	0.2259544
5	0xbea9c884	-0.33160794
6	0xbe922fef	-0.28552195
7	0x3d82242c	0.063545555
8	0x3c7fe2b8	0.015618019
9	0xbe4d7057	-0.20062385
10	0xbe598999	-0.21243896
11	0x3e90a60d	0.28251687
12	0xbe8ac066	-0.27099913
13	0x3f2b3c3d	0.6688879
14	0x3e2fffb8	0.17187393
15	0x3ed5b719	0.41741255
16	0xbe2f7db6	-0.17137799
17	0xbe7892d5	-0.24274762
18	0xbee5fe20	-0.44920444
19	0xbe8aad6a	-0.2708543
20	0xbdefe1d5	-0.11712996
21	0x3f2acb65	0.66716605
22	0x3f463b28	0.77434015
23	0xbecc567b	-0.3990973
24	0xbeacd0e7	-0.3375313
25	0x3f0d2280	0.5513077
26	0x3efe5674	0.49675333
27	0xbf3be7b4	-0.73400426
28	0xbf74fff7	-0.9570307
29	0xbcd89e8e	-0.026442792
30	0x3cdd82a4	0.027039833
31	0xbeb89885	-0.36053863
32	0x3eac375c	0.33635986
33	0xbe92db76	-0.2868306
34	0xbd7dc35b	-0.061953884
35	0x3d727973	0.059197854
36	0xbe302adb	-0.17203848
37	0xbef0e621	-0.47050574
38	0xbea9161a	-0.33024675
39	0xbe8986eb	-0.26860747
40	0xbec0bcb9	-0.37643984
41	0x3f673ec8	0.9033017
42	0x3f2d01d9	0.67580944
43	0xbebf94b2	-0.37418133
44	0xbf48a8b4	-0.7838242
45	0x3f379870	0.71716976
46	0x3e1fae42	0.15593818
47	0xbea07d43	-0.31345567
48	0xba5f6fa0	-0.00085234083
49	0xbe189327	-0.14899884
50	0x3e0669a1	0.13126232
51	0xbe004c3c	-0.12529081
52	0x3e780cc5	0.24223621
53	0xbfa9ddd5	-1.3270823
54	0xbf8687cf	-1.0510195
55	0x3ef47603	0.47746286
56	0xbe081c6a	-0.13292089
57	0xbf3cd28b	-0.73758763
58	0xbf410375	-0.753959
59	0xbd34f0f4	-0.044175103
60	0x3e4b248b	0.19838159
61	0xbbe7aa46	-0.0070698587
62	0x3edaa50a	0.4270404
63	0x3f04d800	0.5189209
64	0x3ddb0bf2	0.10695638
65	0x3d112b16	0.03544148
66	0x3e3c6371	0.18397309
67	0xbe08a9ab	-0.13345973
68	0xbe15bba7	-0.14622365
69	0x3e57eb2b	0.21085803
70	0x3e7f1227	0.24909268
71	0xbdd0134a	-0.10159929
72	0xbe2a20be	-0.16614053
73	0xbe916937	-0.28400585
74	0xbeb7fdbe	-0.35935777
75	0xbef39a63	-0.47578725
76	0xbe0c93e6	-0.13728294
77	0xbe7c37ae	-0.24630615
78	0x3e799a00	0.24375153
79	0xba9d1ed0	-0.0011987332
80	0x3e8a43b7	0.27004787
81	0xbdb267ae	-0.087111816
82	0xbd91d238	-0.07120174
83	0x3d33295f	0.043740626
84	0xbef156d1	-0.47136548
85	0x3fa7da7f	1.3113555
86	0x3fa33358	1.2750044
87	0xbe7c551d	-0.24641843
88	0x3eee4ab8	0.4654138
89	0x3f800a6a	1.0003178
90	0x3f3e4349	0.7432142
91	0x3e2dbf4f	0.1696751
92	0xbeaec250	-0.34132624
93	0xbea27a33	-0.31733856
94	0xbd5be4f3	-0.05368514
95	0xbe9fc719	-0.31206587
96	0x3bb2bdb7	0.0054547447
97	0xbba29b85	-0.004962387
98	0x3e4fce56	0.20293555
99	0xbc52a6de	-0.012857167
100	0x3ef34fd7	0.4752185
101	0x3e9ddb9e	0.30831617
102	0x3ce7f2de	0.02831405
103	0xbcd4d639	-0.025981056
104	0xbe931c22	-0.287324
105	0x3ee69f52	0.45043427
106	0x3f280f6b	0.65648526
107	0xbf0582ae	-0.52152526
108	0xbec2d860	-0.38055706
109	0xbed45e87	-0.4147837
110	0xbf2b5936	-0.66933
111	0xbf0eac03	-0.5573122
112	0x3da6c7d1	0.08143581
113	0x3e87ddfd	0.2653655
114	0x3eb4c0ba	0.3530329
115	0x3eca9afc	0.3957137
116	0x3ed653c1	0.41860774
117	0x3cf518b5	0.029919008
118	0x3cbb9349	0.02289738
119	0x3e699ffd	0.22814937
120	0xbea2a75d	-0.31768313
121	0xbf396f69	-0.72435623
122	0xbeb3e896	-0.35138386
123	0xbeb5da82	-0.3551827
124	0x3f3e9b0a	0.7445532
125	0xbed32ca4	-0.41244996
126	0xbefc85c5	-0.49320808
127	0x3f45aba2	0.77215016
128	0xbedbf001	-0.42956546
129	0xbe655b78	-0.22398174
130	0xbeb9c56d	-0.36283436
131	0xbebf9d8e	-0.37424892
132	0x3d597435	0.05308934
133	0xbc87eeed	-0.01659342
134	0x3c4dd45a	0.012562836
135	0x3e37dce5	0.17955358
136	0xbe40904c	-0.18805045
137	0x3de9ea89	0.11421687
138	0x3e850892	0.259831
139	0xbdf8b7a7	-0.12144404
140	0x3f5121f3	0.8169243
141	0xbebcc373	-0.36867866
142	0xbea7927f	-0.32728955
143	0x3f351de8	0.7074876
144	0x3e86916b	0.2628282
145	0xbe3bd2f2	-0.18342188
146	0xbe233ad0	-0.15940404
147	0x3eaee34e	0.34157795
148	0x3e88f7b6	0.26751488
149	0xbf7833f8	-0.969543
150	0xbf831efc	-1.0243831
151	0x3ef0b9aa	0.4701665
152	0x3efb91bd	0.49134627
153	0x3eaa1056	0.33215588
154	0x3d77ef66	0.060531043
155	0x3cf44705	0.029819021
156	0xbc967c45	-0.018369803
157	0xbf3e7fdf	-0.74413866
158	0xbf08bba7	-0.53411335
159	0x3c03e823	0.008050951
160	0x3d6936f3	0.05693717
161	0xbe7a3e7c	-0.24437898
162	0x3d66c661	0.056341533
163	0x3d96bf8e	0.07360755
164	0xbd8e49e4	-0.06947687
165	0xbe99c237	-0.30030987
166	0xbe6ed9b0	-0.23325229
167	0xbd9bb9c3	-0.076037906
168	0xbe39fcd8	-0.18162858
169	0x3f099896	0.5374845
170	0x3f0bb5fb	0.54574555
171	0xbe866c74	-0.26254618
172	0xbd98c60e	-0.07459651
173	0xbf4d5118	-0.80201864
174	0xbed9ee2e	-0.4256453
175	0xbcc5d8b0	-0.024151176
176	0xbe1ddca7	-0.15416203
177	0xbf1f9468	-0.62335825
178	0xbe575e5e	-0.21032092
179	0x3d318064	0.043335333
180	0xbebcf04e	-0.36902088
181	0xbe6f8dad	-0.23393889
182	0xbd55c87b	-0.052193146
183	0xbdf1a8fd	-0.1179981
184	0x3cce461e	0.025179919
185	0x3f720d36	0.9455141
186	0x3f3b7472	0.73224556
187	0x3eb2b824	0.34906113
188	0x3e7fc097	0.24975811
189	0xbef07ed9	-0.46971777
190	0x3dd127cf	0.10212671
191	0x3f283b17	0.65715164
192	0xbeb8520a	-0.3600009
193	0xbf37e40e	-0.7183236
194	0xbef843cd	-0.48489228
195	0x3cc536b7	0.024073942
196	0x3c87e9be	0.01659095
197	0xbed59653	-0.4171625
198	0x3e5d8888	0.21634114
199	0x3f491a85	0.7855609
200	0x3e937882	0.28802878
201	0xbc968488	-0.018373743
202	0xbe637a3f	-0.22214602
203	0x3bc55836	0.0060224785
204	0x3f132043	0.574711
205	0xbe8f8e02	-0.2803803
206	0xbda38f30	-0.07986295
207	0xbe45df20	-0.19323397
208	0xbe8dbe49	-0.2768424
209	0xbecb27a6	-0.39678687
210	0xbed15fae	-0.4089331
211	0x3c5b3fcb	0.013381909
212	0xbec2ca9c	-0.38045204
213	0xbda989e8	-0.08278257
214	0xbe2c2a77	-0.16813074
215	0x3d85f007	0.06539922
216	0xbd5943b4	-0.053043082
217	0x3e60345a	0.2189497
218	0x3e1ee280	0.1551609
219	0xbe10bb64	-0.14133984
220	0x3d8e442f	0.06946599
221	0xbe42c8be	-0.1902189
222	0xbe2cb4e1	-0.16865875
223	0xbf124485	-0.571358
224	0x3db1b516	0.086771175
225	0x3e4bd4e8	0.19905436
226	0x3e1a70fc	0.15082163
227	0x3d2b53f5	0.041828115
228	0xbecc39a1	-0.39887717
229	0x3f6769ea	0.9039599
230	0x3f79cbb5	0.9757646
231	0xbe019f67	-0.12658463
232	0xbe6486a3	-0.22316985
233	0x3f1e2f4d	0.61790925
234	0x3ea8e662	0.32988268
235	0xbe77d5b4	-0.24202615
236	0x3ee08d0b	0.43857607
237	0x3f1e98e9	0.6195207
238	0x3f0d6e6c	0.55246615
239	0xbe619c6c	-0.22032326
240	0x3bff6d8a	0.0077950405
241	0x3ea99191	0.3311887
242	0x3e587628	0.21138823
243	0xbe64f484	-0.223589
244	0x3ed70930	0.41999197
245	0xbf33942c	-0.7014797
246	0x3f178f99	0.5920349
247	0xbebad345	-0.3648931
248	0x3efd3f8d	0.49462548
249	0xbe0ff411	-0.14057948
250	0xbe846735	-0.2585999
251	0xbe4b4b25	-0.19852884
252	0x3ecee1e4	0.40406716
253	0x3d87a405	0.06623081
254	0xbde62663	-0.112377904
255	0xbe907736	-0.2821595

fc1.bias f4 [128]
0	0xbec82460	-0.39090252
1	0x3d37c5c2	0.04486633
2	0xbed836cc	-0.42229307
3	0xbf1b069a	-0.6055695
4	0xbf9f32b5	-1.243735
5	0xbeb8fe1d	-0.36131373
6	0xbea10d9e	-0.31455702
7	0xbf5a51a8	-0.8528085
8	0xbf1127a8	-0.56701136
9	0xbeca34f8	-0.39493537
10	0xbf2e32c6	-0.68046224
11	0xbf45dd98	-0.7729125
12	0xbf04d14e	-0.51881874
13	0xbe6fb357	-0.23408256
14	0xbcdda1e8	-0.027054742
15	0xbf24e17c	-0.6440656
16	0xbf1d4ab2	-0.614421
17	0xbe441ef1	-0.19152428
18	0xbf1b8db6	-0.6076311
19	0xbf33d927	-0.70253223
20	0xbee89d5e	-0.45432562
21	0xbedb58bc	-0.42841136
22	0xbf0e19b5	-0.55507976
23	0xbe94d593	-0.29069194
24	0xbee033ba	-0.43789464
25	0xbf222228	-0.6333337
26	0xbcc4c6ac	-0.024020515
27	0xbf2b9841	-0.67029196
28	0xbf1384ee	-0.5762471
29	0xbf613633	-0.87973326
30	0xbf11f8d4	-0.57020307
31	0xbed5d604	-0.41764843
32	0x3d9a933b	0.07547613
33	0xbe40aaae	-0.18815109
34	0xbf35748e	-0.70880973
35	0xbf4adec0	-0.7924614
36	0xbeb23510	-0.34806108
37	0xbe8ec07e	-0.27881235
38	0xbe970f6f	-0.29503962
39	0xbf098e6e	-0.53732955
40	0xbe896484	-0.268345
41	0xbf615f12	-0.8803569
42	0xbe283a59	-0.16428508
43	0xbe996094	-0.29956496
44	0xbeebf9dc	-0.46089065
45	0xbf1cd4b1	-0.6126204
46	0xbe98cea1	-0.29845145
47	0xbf27b817	-0.65515274
48	0xbeef33c0	-0.4671917
49	0xbe8dc108	-0.27686334
50	0xbf6db872	-0.92859566
51	0xbc059ce4	-0.008155081
52	0xbf33a32f	-0.70170873
53	0xbd2e8291	-0.042604987
54	0xbe9aa664	-0.3020507
55	0xbed0c2c5	-0.40773597
56	0xbe541f6e	-0.20715114
57	0xbe72900a	-0.23687759
58	0xbf103f22	-0.56346333
59	0xbfaf31f1	-1.3687116
60	0xbf584a0f	-0.84488004
61	0xbd980681	-0.074231155
62	0xbe306490	-0.17225862
63	0xbf236521	-0.63826185
64	0xbe9cc006	-0.30615252
65	0xbef43cdf	-0.4770269
66	0xbed2a346	-0.41140193
67	0xbe828092	-0.25488716
68	0xbe8492f0	-0.25893354
69	0xbf0e2469	-0.5552431
70	0xbf14b0d2	-0.58082306
71	0xbf08f1c7	-0.5349392
72	0xbf1146e1	-0.5674878
73	0xbe9b1a5f	-0.30293557
74	0xbf33678e	-0.70079887
75	0xbe3589b1	-0.17728306
76	0xbfaac8ef	-1.334257
77	0xbf2f4f6f	-0.6848058
78	0xbf467c08	-0.77533007
79	0xbd2d2504	-0.04227163
80	0xbeb459ec	-0.35224855
81	0xbf804c35	-1.0023257
82	0xbdcf6d8d	-0.10128317
83	0xbf6ac563	-0.9170744
84	0xbf051908	-0.5199132
85	0xbdcc981c	-0.0998995
86	0xbe5bc43e	-0.21461579
87	0xbf2876c8	-0.65806246
88	0xbf014ea8	-0.50510645
89	0xbee68177	-0.4502065
90	0xbf2c7340	-0.6736336
91	0x3e2271ac	0.15863675
92	0xbeda01f5	-0.42579618
93	0xbe57caa8	-0.21073401
94	0xbeecd550	-0.46256495
95	0x3e0cf831	0.13766553
96	0x3d603a1c	0.054742917
97	0xbe903459	-0.28164938
98	0xbeb7406e	-0.35791343
99	0xbf773efe	-0.96580493
100	0xbde96834	-0.11396828
101	0xbe84965d	-0.25895968
102	0xbe91c3d2	-0.28469712
103	0xbf82db04	-1.0223088
104	0xbebdb275	-0.37050214
105	0x3e81c789	0.25347546
106	0xbf15662f	-0.58359045
107	0xbeda2d53	-0.42612705
108	0xbf10edd4	-0.56612897
109	0xbebf47c0	-0.37359428
110	0xbf316f2a	-0.6931025
111	0xbfa5fca6	-1.2967727
112	0xbed46779	-0.41485193
113	0xbf0fe5a4	-0.5620978
114	0xbf714438	-0.9424472
115	0xbd355302	-0.044268616
116	0xbf346308	-0.7046361
117	0xbe763958	-0.24045312
118	0xbf3321af	-0.6997327
119	0xbece64c2	-0.40311247
120	0x3d92afc9	0.071624346
121	0xbe829ad4	-0.2550875
122	0xbeddd58f	-0.43326995
123	0xbf5c3342	-0.86015713
124	0xbf000328	-0.50004816
125	0xbe06a58f	-0.13149093
126	0x3cb48b96	0.022039216
127	0x3e69c723	0.22829871

fc2.weight f4 [64, 128]
0	0x3ea2ad89	0.31773022
1	0x3e8ca3f0	0.27468824
2	0x3ec1c9ed	0.3784937
3	0x3e80742c	0.25088632
4	0x3e315523	0.17317633
5	0x3e108bd1	0.14115836
6	0xbeb7510d	-0.35804024
7	0x3d8459e0	0.06462455
8	0xbde15227	-0.110019974
9	0xbf80d405	-1.0064703
10	0xbe505845	-0.20346172
11	0xbe827a8b	-0.25484118
12	0x3dde9c22	0.10869624
13	0x3e38b428	0.18037474
14	0x3e98d2b6	0.2984826
15	0xbea0e13a	-0.31421834
16	0x3db5dce0	0.08880019
17	0x3e2dfea6	0.16991672
18	0xbd17bde4	-0.03704633
19	0xbecc2189	-0.39869335
20	0xbe95a97b	-0.29230866
21	0x3ed1d8bd	0.4098567
22	0x3ef1eac0	0.47249413
23	0xbf918ace	-1.1370485
24	0x3cdfd127	0.027321411
25	0x3e9a0b9f	0.3008699
26	0xbe84ec53	-0.2596155
27	0x3cdb2dd7	0.026755257
28	0x3e201d2e	0.15636131
29	0xbf95889e	-1.1682317
30	0x3e24e26b	0.16101997
31	0x3ef773f2	0.48330647
32	0x3eb41888	0.35174966
33	0x3e879731	0.26482537
34	0xbf0aa497	-0.54157394
35	0x3e1930b3	0.14959984
36	0xbfa5e13f	-1.2959365
37	0x3db71544	0.08939603
38	0xbe19df8c	-0.15026683
39	0x3f01292b	0.5045344
40	0x3e2ecc1e	0.17070052
41	0x3f111502	0.5667268
42	0xbfa307da	-1.2736771
43	0x3e99367a	0.29924375
44	0xbd20b118	-0.03923139
45	0x3d9476bd	0.0724921
46	0xbad4ed44	-0.0016245027
47	0x3e1c3fb7	0.1525868
48	0xbcdc8879	-0.026920544
49	0xbd8baeea	-0.068204716
50	0x3e92a7bf	0.28643605
51	0xbfc0c61c	-1.5060458
52	0x3de5385a	0.11192389
53	0xbdbba92e	-0.09163128
54	0xbe976e88	-0.29576516
55	0x3e3919d7	0.18076263
56	0xbf1064a5	-0.5640357
57	0x3c8d26f5	0.01723049
58	0x3edd7d74	0.43259776
59	0xbf2a9430	-0.66632366
60	0x3db98c6e	0.09059988
61	0xbf4afd0b	-0.7929236
62	0xbe55abdd	-0.20866342
63	0x3d064159	0.032777164
64	0xbf679060	-0.90454674
65	0x3e082346	0.13294706
66	0xbe051d96	-0.12999567
67	0x3e172bbf	0.14762782
68	0x3d210cbb	0.03931878
69	0x3d87aca0	0.066247225
70	0xbaef70cd	-0.001826787
71	0xbda94f83	-0.08267119
72	0xbf8e1b59	-1.1102096
73	0x3e89ad20	0.26889896
74	0x3e83918a	0.25696975
75	0x3ddc999a	0.10771485
76	0xbc8427b5	-0.016132215
77	0xbf063a11	-0.5243235
78	0xbef3e1bd	-0.47633162
79	0x3ea2a926	0.31769675
80	0xbe5717b9	-0.21005143
81	0x3dd571a2	0.10422064
82	0xbe350b02	-0.1767998
83	0xbc409d86	-0.0117563065
84	0x3edbac2c	0.42904794
85	0x3e479cd7	0.19493423
86	0x3e5c5d39	0.21519937
87	0x3ebeb68f	0.37248656
88	0xbf3805e9	-0.7188402
89	0xbf5fe534	-0.8745911
90	0xbe1bdfec	-0.15222138
91	0xbe9d3198	-0.307019
92	0x3e869f17	0.2629325
93	0xbe6f0801	-0.23342897
94	0xbe9f9714	-0.3116995
95	0xbefb8455	-0.491244
96	0xbe645693	-0.2229865
97	0x3e423526	0.18965587
98	0xbd46faf2	-0.048579164
99	0xbf9c515b	-1.2212328
100	0xbee28607	-0.4424288
101	0xbe81bf39	-0.25341204
102	0xbe957916	-0.29193944
103	0xbe951b9a	-0.2912262
104	0x3f0a975f	0.54137224
105	0xbd7ac597	-0.061223593
106	0x3e1b0b6f	0.1514108
107	0xbdf6cbe2	-0.12050606
108	0xbf272f39	-0.6530643
109	0xbeb0f921	-0.3456507
110	0x3e0af6bc	0.13570684
111	0xbee1699f	-0.44025895
112	0x3d17c579	0.03705356
113	0xbd0706e9	-0.032965574
114	0x3f010227	0.5039391
115	0xbeaf1abc	-0.34200084
116	0xbe2dbeaf	-0.16967271
117	0x3e3c1fcc	0.18371505
118	0x3f3bb7a4	0.7332709
119	0x3ea44eb5	0.320913
120	0x3e5d75b3	0.2162693
121	0x3d266614	0.040624693
122	0x3d83dc15	0.06438462
123	0xbf1b40e7	-0.6064591
124	0x3e030930	0.12796474
125	0xbe77d084	-0.24200636
126	0x3e37e341	0.17957784
127	0x3ce7df74	0.028304793
128	0xbd1f0bd4	-0.03882964
129	0xbfa6c107	-1.3027657
130	0xbe497627	-0.19673978
131	0xbdcca221	-0.09991861
132	0xbddf70c3	-0.109101795
133	0xbefe9f84	-0.49731076
134	0x3e64f8c2	0.22360519
135	0xbe5acab9	-0.21366395
136	0x3dc5ae11	0.09652341
137	0xbf1ea471	-0.6196967
138	0x3e6a65fe	0.2289047
139	0x3f0172a9	0.5056558
140	0x3e2c7187	0.16840182
141	0xbd4291f0	-0.047502458
142	0xbe706caf	-0.2347896
143	0xbf29e01a	-0.66357577
144	0xbeb81763	-0.35955343
145	0xbf3887a8	-0.72081995
146	0x3dff9bcb	0.12480887
147	0xbe4dd957	-0.2010244
148	0x3ca170a2	0.019707028
149	0xbd0b8fac	-0.034072563
150	0xbe016eeb	-0.12639968
151	0x3dfe3beb	0.12413772
152	0x3ee922dd	0.4553441
153	0x3ea84e2d	0.32872143
154	0xbea9586d	-0.33075276
155	0xbbc9f025	-0.0061626607
156	0xbf4e4b31	-0.80583483
157	0xbde5c1cc	-0.112186044
158	0xbf0eb9e3	-0.5575239
159	0x3caa0c8a	0.020757932
160	0xbf315388	-0.69268084
161	0x3e621589	0.22078528
162	0x3e6e28cb	0.23257749
163	0x3d966f30	0.07345426
164	0x3d918dd6	0.07107131
165	0xbec76b0c	-0.38948858
166	0x3e0d5cd7	0.13804947
167	0xbebad901	-0.36493686
168	0xbf36fcd0	-0.7147951
169	0x3e485bea	0.19566312
170	0x3f4f8763	0.8106596
171	0xbc500961	-0.012697549
172	0xbf7c0b40	-0.98454666
173	0xbd056fdf	-0.03257739
174	0x3c6c0ac9	0.014406868
175	0xbd92be92	-0.07165255
176	0xbf8764fc	-1.0577693
177	0xbe9a4350	-0.3012948
178	0xbd8249a1	-0.063617
179	0x3f18ad8c	0.5963981
180	0xbe080a31	-0.13285138
181	0x3eb496aa	0.35271198
182	0xbdfb8116	-0.122804806
183	0x3dcd054d	0.10010777
184	0xbdda0a41	-0.10646487
185	0xbf325743	-0.696644
186	0x3dd5e274	0.10443583
187	0x3c066ee2	0.008205147
188	0xbd2f5a4e	-0.04281073
189	0xba3fb02c	-0.00073123234
190	0xbe2c6c9d	-0.16838308
191	0xbc7416d2	-0.014898019
192	0xbf2352d3	-0.63798255
193	0x3e7bf6fc	0.24605936
194	0xbe87ef2f	-0.2654967
195	0xbeec8249	-0.4619315
196	0xbe0b9033	-0.13629226
197	0x3d56c131	0.052430335
198	0xbed2dd55	-0.41184488
199	0xbecd61bd	-0.4011363
200	0x3e7cbe49	0.24681963
201	0xbf1b9fc3	-0.6079065
202	0xbdabb109	-0.08383376
203	0xbdcd42a9	-0.1002248
204	0x3cd747d5	0.02627937
205	0x3d5597ee	0.052146845
206	0xbe7cf83d	-0.2470407
207	0x3e49b1ef	0.19696783
208	0x3e289e17	0.16466556
209	0x3d9204a1	0.07129789
210	0x3e2a787c	0.16647524
211	0x3e86accf	0.26303717
212	0xbd78acdb	-0.060711723
213	0xbd251054	-0.040298775
214	0x3ec54f5a	0.38537103
215	0xbeabdb5b	-0.33565792
216	0xbd8429bb	-0.06453272
217	0xbe347ac4	-0.17624956
218	0xbf07e660	-0.530859
219	0xbf031fab	-0.51220196
220	0xbcb0eb93	-0.021596706
221	0xbf74b809	-0.95593315
222	0xbf1916a2	-0.5980016
223	0x3eef6f8a	0.46764785
224	0xbee0aa1c	-0.43879783
225	0xbe2c7e8d	-0.1684515
226	0xbdb01909	-0.08598525
227	0x3eb7ed64	0.35923302
228	0x3dc9e7f6	0.09858696
229	0xbe3fd9ed	-0.18735476
230	0xbd459d17	-0.048245516
231	0x3dd05b6c	0.10173687
232	0x3e171cb1	0.14757039
233	0xbd27a3f9	-0.04092786
234	0xbe4410df	-0.19147061
235	0xbd76da88	-0.060267
236	0x3ca12589	0.019671218
237	0xbedca7f2	-0.43096882
238	0xbe258d84	-0.16167265
239	0x3c5566d6	0.013025006
240	0xbee7aa33	-0.4524704
241	0x3e30577c	0.17220873
242	0x3ee2b6a9	0.44279984
243	0xbe655eb1	-0.22399403
244	0x3e231d97	0.15929256
245	0x3e1a88b9	0.15091218
246	0xbe72acab	-0.2369868
247	0x3e140a33	0.14457016
248	0x3f2f2bb4	0.6842606
249	0xbf1af4c3	-0.60529727
250	0xbc852ef3	-0.016257739
251	0xbbf8dc5f	-0.0075946297
252	0x3eb59087	0.35461828
253	0xbd9ee239	-0.07757992
254	0x3d3d7842	0.046257265
255	0xbe3df19a	-0.18549195

fc2.bias f4 [64]
0	0x3d16f399	0.036853407
1	0xbea80662	-0.3281737
2	0x3f170a97	0.59000534
3	0x3da4d07e	0.08047579
4	0x3f2ba817	0.6705336
5	0x3e7c5a17	0.24643742
6	0x3f09f1a9	0.5388437
7	0x3ee30868	0.4434235
8	0x3f58049d	0.8438204
9	0x3f4d6aa4	0.80240846
10	0xbea985b3	-0.33109817
11	0x3f0916c3	0.53550357
12	0x3e260f09	0.16216673
13	0x3edfc826	0.4370739
14	0x3f28c238	0.65921354
15	0x3f3b9cf9	0.73286396
16	0x3f22604e	0.634282
17	0x3f724d9b	0.94649667
18	0x3f2c1565	0.67220145
19	0x3f6b1769	0.91832596
20	0x3f2bd063	0.6711485
21	0x3f34efa3	0.70678157
22	0x3eca9661	0.39567855
23	0x3e931f95	0.28735033
24	0x3f060340	0.5234871
25	0x3f278e36	0.6545137
26	0x3f75f188	0.9607167
27	0xbe7a2c71	-0.24431016
28	0x3f0adf44	0.54246926
29	0xbe9dd1ff	-0.30824277
30	0x3f317837	0.6932406
31	0xbeeefc9f	-0.4667711
32	0x3e9ef67a	0.31047422
33	0x3f41ce55	0.7570546
34	0xbe446f1a	-0.19183007
35	0x3f229636	0.63510454
36	0x3f52ecc0	0.823925
37	0x3f03d87d	0.5150221
38	0x3f2ef8b1	0.6834822
39	0x3e6394c2	0.22224715
40	0x3e743570	0.2384851
41	0x3f39de81	0.7260514
42	0x3ee4fe03	0.44725046
43	0x3f176f72	0.5915443
44	0x3e9aaac9	0.30208424
45	0x3ed7d6bc	0.42156017
46	0xbcbfbab5	-0.023404459
47	0xbe84d3bb	-0.25942788
48	0x3ef6a549	0.48172978
49	0x3f8314fc	1.0240779
50	0x3f0dee96	0.5544218
51	0x3f218842	0.6309854
52	0x3f4e0f70	0.80492306
53	0x3e601bf3	0.21885662
54	0xbe6a5814	-0.22885162
55	0x3f8a3cfc	1.0799861
56	0x3eb21f2f	0.34789416
57	0x3f10efac	0.5661571
58	0x3c28ba2f	0.010298296
59	0x3ec58e05	0.38584915
60	0x3e7e440b	0.24830644
61	0x3f0c8851	0.548955
62	0xbf562cbb	-0.83662003
63	0x3e5659b9	0.20932664

fc3.weight f4 [10, 64]
0	0xbf2d2bf1	-0.67645174
1	0xbeffe1d8	-0.49976993
2	0xbf3d0812	-0.7384044
3	0xbd89102b	-0.06692537
4	0xbd91b185	-0.07113937
5	0xbed1da41	-0.40986827
6	0xbe80ca91	-0.25154546
7	0xbf3b52c8	-0.7317319
8	0xbdaad12b	-0.08340677
9	0xbf13d398	-0.5774474
10	0xbf7cf5f3	-0.9881279
11	0xbf2432c7	-0.6413998
12	0xbe931806	-0.28729266
13	0xbe8449e9	-0.2583764
14	0xbf06a1c4	-0.52590585
15	0xbec93f02	-0.39305884
16	0x3d0ec7fb	0.034858685
17	0xbe3b1ac7	-0.18271933
18	0xbe53e634	-0.20693284
19	0xbd984e4a	-0.074368075
20	0xbef4da9a	-0.4782303
21	0xbf2c899a	-0.67397463
22	0xbdb6a4d6	-0.08918159
23	0xbf352b86	-0.70769536
24	0xbee44475	-0.4458348
25	0xbe0bc447	-0.13649093
26	0xbf1eafb5	-0.6198686
27	0xbf14c5aa	-0.5811411
28	0xbf673890	-0.9032068
29	0xbea3c4fa	-0.3198622
30	0xbe38bf02	-0.18041614
31	0xbdcf59bf	-0.101245396
32	0xbe8298a4	-0.2550708
33	0xbd2b2e06	-0.04179194
34	0xbf4a265f	-0.789648
35	0xbe110d1d	-0.14165159
36	0xbdf3e07b	-0.119080506
37	0xbe002ae0	-0.12516356
38	0x3c3bf604	0.011472229
39	0xbe16bde9	-0.14720882
40	0xbe04f2b1	-0.12983204
41	0xbf3dbe1d	-0.74118215
42	0xbde3043c	-0.11084792
43	0xbde22092	-0.110413685
44	0xbed96668	-0.42460942
45	0xbe642d2a	-0.22282854
46	0xbed783e0	-0.420928
47	0xbda9ac2f	-0.082847945
48	0xbe814dd7	-0.252547
49	0xbe878fa7	-0.26476786
50	0xbea7a572	-0.32743412
51	0xbf39f456	-0.7263845
52	0xbf32bd2a	-0.6981989
53	0xbe3a303a	-0.1818246
54	0xbedb12cf	-0.42787787
55	0xbf05c449	-0.5225263
56	0xbe0b50c4	-0.13605028
57	0xbf3090f0	-0.6897116
58	0xbe430c5e	-0.19047686
59	0xbe4a6299	-0.19764175
60	0xbe26b108	-0.1627847
61	0xbe5c30d4	-0.21503001
62	0xbf1a87c2	-0.603634
63	0xbe0e8c9c	-0.13920826
64	0xbe9cd180	-0.30628586
65	0xbe2e5609	-0.17025007
66	0xbf1751a1	-0.5910893
67	0xbddcf0ad	-0.10788093
68	0xbe14ba07	-0.14524089
69	0xbe1c3152	-0.15253189
70	0xbeedf9e9	-0.4647973
71	0xbe90d2fe	-0.28285974
72	0xbf1d6cf9	-0.61494404
73	0xbf2e4351	-0.68071467
74	0xbf4addde	-0.7924479
75	0xbf3b0393	-0.7305233
76	0xbcb5126c	-0.02210351
77	0xbf07ffab	-0.53124493
78	0xbf3fd0f2	-0.749282
79	0xbe194970	-0.1496942
80	0xbeade9e5	-0.3396751
81	0xbf28730e	-0.6580056
82	0xbf3499a1	-0.7054692
83	0xbf327e6e	-0.69724166
84	0xbed92f80	-0.42419052
85	0xbf3ffefd	-0.74998456
86	0xbf0cad3d	-0.5495184
87	0xbea9f03f	-0.33191106
88	0xbdbcd12d	-0.092195846
89	0xbe35f4fd	-0.17769237
90	0xbf1dadef	-0.61593527
91	0xbf18ab02	-0.5963594
92	0xbf7e13d6	-0.9924902
93	0xbe80d234	-0.25160372
94	0xbf3fd5ae	-0.74935424
95	0xbea9270d	-0.33037606
96	0xbdcdde27	-0.10052138
97	0xbeda4cbe	-0.42636675
98	0xbf9ab293	-1.2085747
99	0xbe495732	-0.19662169
100	0xbe8102e7	-0.25197527
101	0xbd2c3dbe	-0.04205107
102	0xbf49afd8	-0.7878394
103	0xbf0a4227	-0.5400719
104	0xbe2680ef	-0.16260122
105	0xbec8815d	-0.39161196
106	0xbe20ab00	-0.15690231
107	0xbf1ecbdc	-0.62029815
108	0xbd4108f2	-0.04712767
109	0xbe967702	-0.2938767
110	0xbdd6d1de	-0.10489248
111	0xbe0dcb3e	-0.13847062
112	0xbdd3a799	-0.10334701
113	0xbf3e2cfc	-0.7428739
114	0xbee7e135	-0.45289007
115	0xbee56db0	-0.44810247
116	0xbf105297	-0.5637602
117	0xbea06bc7	-0.31332228
118	0xbe3a0e61	-0.18169548
119	0xbf5fcb86	-0.8741993
120	0xbe054cf9	-0.13017644
121	0xbe73fb5b	-0.23826353
122	0xbe5784b6	-0.21046719
123	0xbe029689	-0.12752737
124	0xbf2742f2	-0.65336525
125	0xbe8387dd	-0.25689593
126	0xbea9e8cc	-0.33185422
127	0xbdc40888	-0.0957194
128	0xbf061609	-0.5237737
129	0xbeebe7ed	-0.46075383
130	0xbe41cfb4	-0.18926889
131	0xbe7c3ff5	-0.24633773
132	0xbdc65312	-0.09683813
133	0xbf029e1c	-0.51022506
134	0xbe0c9e2c	-0.13732213
135	0xbe0e4de6	-0.13896903
136	0xbdb12e56	-0.08651416
137	0x3b36fbed	0.0027921156
138	0xbf256c30	-0.64618206
139	0xbe8d8233	-0.27638397
140	0xbece903d	-0.4034442
141	0xbe5c63b3	-0.21522407
142	0xbea22f64	-0.3167678
143	0xbd95606b	-0.07293781
144	0xbf0c3847	-0.5477337
145	0xbef9217f	-0.48658368
146	0xbe2b4a50	-0.16727567
147	0xbdac25e2	-0.08405663
148	0xbeabdb6d	-0.33565846
149	0xbe414040	-0.18872166
150	0xbe37c803	-0.17947392
151	0xbf0b93ce	-0.5452241
152	0xbe04c1b4	-0.12964517
153	0xbe7f5aff	-0.24937056
154	0xbe994435	-0.2993485
155	0xbee2962f	-0.44255206
156	0xbf9d2d8f	-1.2279528
157	0xbe74ba4d	-0.23899193
158	0xbd98fa19	-0.07469577
159	0xbdf8384c	-0.12120113
160	0xbedfb6fb	-0.4369429
161	0xbe92733b	-0.2860354
162	0xbf9e4d8d	-1.2367417
163	0xbf0b9d4f	-0.5453691
164	0xbedc0705	-0.42974105
165	0xbdb4e6e4	-0.088331014
166	0xbe756548	-0.23964417
167	0xbe778ec3	-0.24175553
168	0xbe684fb7	-0.22686659
169	0xbe24b092	-0.16082981
170	0xbee30a3c	-0.44343746
171	0xbd7ad215	-0.061235506
172	0xbf0f705f	-0.5603084
173	0xbeba16da	-0.3634556
174	0xbef89c91	-0.4855695
175	0xbe91bbf0	-0.28463697
176	0xbf0fa7c4	-0.56115365
177	0x3e14f532	0.1454666
178	0xbeb85537	-0.36002514
179	0xbd3c3167	-0.04594555
180	0xbecc4e19	-0.39903334
181	0xbf21f614	-0.6326611
182	0xbe4069de	-0.18790385
183	0xbe166571	-0.14687134
184	0xbe96ea46	-0.2947561
185	0xbe631330	-0.22175288
186	0xbea2f8a9	-0.31830338
187	0xbef941c5	-0.4868299
188	0xbe1533f8	-0.14570606
189	0xbf3625bb	-0.7115132
190	0xbfa0980f	-1.2546405
191	0xbe2e6506	-0.17030725
192	0xbed4f5dc	-0.41593826
193	0xbf4cd023	-0.8000509
194	0xbde7e15a	-0.11322279
195	0xbe56d1ec	-0.20978516
196	0xbf29a420	-0.6626606
197	0xbdfab072	-0.122406855
198	0xbe863af9	-0.26216868
199	0xbdaaedcd	-0.08346138
200	0xbe3b4245	-0.18286999
201	0xbeb28cca	-0.3487304
202	0x3d86e02d	0.06585727
203	0xbe9d4f65	-0.30724636
204	0xbe9fbd57	-0.31199142
205	0xbf17cc42	-0.5929605
206	0xbe26a01e	-0.16272017
207	0xbeeb4262	-0.45949084
208	0xbf4a6a7b	-0.79068726
209	0xbedc0fda	-0.42980844
210	0xbed117e8	-0.40838552
211	0xbee529d4	-0.44758475
212	0xbec00870	-0.37506437
213	0xbe20eb60	-0.15714788
214	0xbec5c49e	-0.3862657
215	0xbe5cc08e	-0.21557829
216	0xbe25f8a9	-0.16208138
217	0xbf067a49	-0.5253034
218	0xbe19df7c	-0.15026659
219	0xbed29d99	-0.41135862
220	0xbfb86636	-1.4406192
221	0xbe604d99	-0.21904601
222	0xbe05315c	-0.1300711
223	0xbd8b939d	-0.068152644
224	0xbe685b8f	-0.22691177
225	0xbf1bfd48	-0.6093335
226	0xbf84a74e	-1.0363557
227	0xbed16e70	-0.4090457
228	0xbed25e8f	-0.41087767
229	0xbee1470c	-0.43999517
230	0xbf3827ab	-0.7193553
231	0xbecb7333	-0.39736328
232	0xbf171a9d	-0.59024984
233	0xbd9663b1	-0.073432334
234	0xbecc1a0e	-0.39863628
235	0xbe21f0a3	-0.15814452
236	0xbf71867e	-0.94345844
237	0xbe86fa30	-0.26362753
238	0xbf1b89b5	-0.60757
239	0xbe4158c6	-0.1888152
240	0xbf179555	-0.5921224
241	0xbef146b9	-0.4712427
242	0xbda69305	-0.081335105
243	0xbec3db42	-0.38253218
244	0xbef28f33	-0.47374877
245	0xbec095b2	-0.37614208
246	0xbe109fb7	-0.14123426
247	0xbf078676	-0.52939546
248	0xbd28c757	-0.04120573
249	0xbed4e56f	-0.41581294
250	0xbf2992b0	-0.6623945
251	0xbea03263	-0.31288442
252	0xbe64291a	-0.22281304
253	0xbe98f017	-0.29870674
254	0xbfc09069	-1.504407
255	0xbe711eb6	-0.23546872

fc3.bias f4 [10]
0	0xbe9eaaff	-0.30989835
1	0x3d979b7a	0.07402702
2	0xbef376d3	-0.47551593
3	0x3e22f780	0.15914726
4	0x3d6eda02	0.058313377
5	0x3d27b820	0.04094708
6	0xbd92db9e	-0.07170795
7	0xbde73d09	-0.112909384
8	0x3ead803a	0.33886892
9	0x3e13976c	0.14413232
