simple/simple_cifar_hinge.pth (torch, 63897 bytes, 6 tensors)

fc1.weight f4 [128, 48]
-0.1507524 0.00316431 -0.32821977 -0.15879823 -0.2891824 0.16861477 0.16576268 -0.21482469
-0.0029249615 -0.077670865 -0.07517335 -0.14857191 -0.13435493 -0.017768865 0.17314503 -0.04039961
0.37485346 0.26190272 0.32813334 0.33086067 0.38712344 -0.8568987 -0.83086115 0.3339974
0.9390192 -0.22733164 -0.23569615 0.8490805 0.27584842 0.33456177 0.11132384 0.21742031
-0.25531223 -0.011438092 0.15097219 -0.41264406 -0.23822497 0.57157975 0.54318905 -0.11994329
-0.5269396 0.1365428 0.25201967 -0.43496847 -0.6926659 0.038903948 0.14037858 -0.53842914
-0.16979004 -0.3225186 -0.24083042 -0.35161522 0.44611567 -0.66104025 -1.0153339 0.11702444
-0.22913961 -0.61342293 -0.18039668 0.22237301 0.73788506 -0.09818878 -0.34558272 -0.026584921
-0.15161332 -0.095797025 0.12517579 0.023016948 0.30468437 0.618844 0.43099913 0.19806793
-0.6232696 0.17175032 0.4656938 -0.111641735 0.045725603 -0.010739215 -0.21908861 -0.16698554
0.20250927 0.12363419 0.28503835 0.34763664 0.113402046 0.21834286 -0.089468084 -0.16609715
-0.259481 0.1561854 0.46960524 0.16836326 -0.022779008 0.13057788 0.055261895 0.03860364
-0.079936385 -0.39113536 -0.4038085 -0.22213662 -0.23378873 -0.07518192 -0.06322444 -0.4000629
-0.050748315 0.7867573 0.7564081 0.031378075 -0.21051991 0.0008569307 -0.13615629 -0.09844095
-0.041297402 0.08818134 0.09051731 -0.1697146 0.031493727 0.48117906 0.44852424 -0.11515145
-0.10235174 0.25044727 0.051663388 -0.025571115 0.23547989 0.13715827 0.22977985 0.44995418
0.09298169 -0.0130536705 0.024080833 0.041580997 0.1450476 -0.45978117 -0.6010437 0.19177935
0.01536393 -0.23229642 -0.40948093 -0.115047865 -0.2528351 -0.36800644 -0.2925446 -0.13379319
-0.37344274 0.60428935 0.7268792 -0.3252578 0.07898711 0.25305262 0.077655785 0.053896647
0.016333831 -0.11503639 0.100037664 0.19570154 -0.1674683 0.022492096 -0.19176169 -0.14170237
-0.364565 0.42727193 0.3677855 -0.24057133 0.16086598 0.04755432 0.04287045 0.24334767
-0.023951706 -0.13822386 0.22081672 0.26609486 -0.27859852 -0.016400866 -0.19270699 -0.096731104
-0.56304455 -0.053893592 0.049195524 -0.50407004 0.0348315 0.19112873 -0.051772054 -0.0058859154
0.15534592 0.44678837 0.460125 -0.07389112 -0.100879006 0.62350357 0.48260656 0.021368768
0.09656854 -0.15739466 -0.17902954 -0.009519672 0.34887886 -0.20976022 -0.44893628 0.07084375
-0.26146263 -0.90982 -0.68884254 -0.15790386 0.36259678 0.40285435 0.29385453 0.040833876
0.010472534 0.051272973 -0.029694116 0.09263723 0.07517535 0.5059162 0.39539957 -0.02877665
-0.40853304 -0.07402164 0.04346993 -0.27141732 0.25637886 0.50112563 0.42335203 -0.16867828
0.05332794 -0.34184784 -0.26209474 0.11214668 -0.13262974 0.76882756 0.67739934 -0.18417497
-0.14976752 0.2495343 0.2120455 0.0037069009 -0.21195635 0.027169066 -0.03820187 -0.05534122
0.4800891 0.10409392 -0.12527202 0.4687038 0.12127106 -0.2006384 -0.56311786 0.05549264
0.016075486 -0.5826905 -0.6211011 0.1042874 0.37836283 -0.044158265 0.073112756 0.33796003
00000000: d65e 1abe 5060 4f3b 6c0c a8be 019c 22be
00000010: b70f 94be 5aa9 2c3e b1bd 293e 01fb 5bbe
00000020: b6b0 3fbb e711 9fbd 7cf4 99bd 3c23 18be
00000030: 5794 09be 0390 91bc ee4c 313e 107a 25bd
00000040: cbec bf3e 1d18 863e 1801 a83e 9266 a93e
00000050: 0b35 c63e b75d 5bbf 51b3 54bf b501 ab3e
00000060: 9063 703f a0c9 68be 555a 71be 575d 593f
00000070: 013c 8d3e ae4b ab3e c1fd e33d 6ea3 5e3e
00000080: 49b8 82be d666 3bbc 7498 1a3e 1546 d3be
00000090: 3ff1 73be 0d53 123f 700e 0b3f d4a4 f5bd
000000a0: 83e5 06bf e0d1 0b3e b908 813e 30b4 debe
000000b0: 8d52 31bf bf59 1f3d 67bf 0f3e 7ed6 09bf
000000c0: 71dd 2dbe 2821 a5be 409c 76be e906 b4be
000000d0: 4669 e43e ef39 29bf 76f6 81bf 82aa ef3d
000000e0: 93a3 6abe 4909 1dbf e8b9 38be c0b5 633e
000000f0: 09e6 3c3f 3317 c9bd 38f0 b0be 9fc8 d9bc
00000100: 8640 1bbe 3b31 c4bd 152e 003e 0a8e bc3c
00000110: 97ff 9b3e 8f6c 1e3f ebab dc3e 52d2 4a3e
00000120: 998e 1fbf 51df 2f3e 6b6f ee3e 6ca4 e4bd
00000130: c54a 3b3d 88f3 2fbc c458 60be 42fe 2abe
00000140: 975e 4f3e ec33 fd3d 8cf0 913e 6efd b13e
00000150: 553f e83d 4595 5f3e 0b3b b7bd 5f15 2abe
00000160: b2da 84be 11ef 1f3e 1970 f03e 6b67 2c3e
00000170: 0b9b babc 35b6 053e 4c5a 623d da1e 1e3d
00000180: b0b5 a3bd e542 c8be fdbf cebe c877 63be
00000190: 5066 6fbe faf8 99bd d17b 81bd 0bd5 ccbe
000001a0: 77dd 4fbd ed68 493f f6a3 413f 4c86 003d
000001b0: 8892 57be a5a3 603a 8e6c 0bbe 699b c9bd
000001c0: 7727 29bd 6b98 b43d 2461 b93d aac9 2dbe
000001d0: 91ff 003d 1a5d f63e f8a4 e53e 86d4 ebbd
000001e0: ca9d d1bd a03a 803e fd9c 533d 847a d1bc
000001f0: a421 713e 3873 0c3e 694b 6b3e 6560 e63e
00000200: 2f6d be3d 10df 55bc 2b45 c53c d650 2a3d
00000210: 5c87 143e 7068 ebbe 00de 19bf ce61 443e
00000220: feb8 7b3c 1ddf 6dbe 7ca7 d1be 379e ebbd
00000230: 9a73 81be 576b bcbe 68c8 95be 1501 09be
00000240: e333 bfbe b5b2 1a3f c114 3a3f 3188 a6be
00000250: fec3 a13d 1d90 813e ff09 9f3d bbc2 5c3d
00000260: 87ce 853c 3398 ebbd 8ce0 cc3d fc65 483e
00000270: cf7c 2bbe 5841 b83c 2d5d 44be 6d1a 11be
00000280: 44a8 babe 63c3 da3e 624e bc3e 5558 76be
00000290: 0dba 243e 52c8 423d ed98 2f3d 2230 793e
000002a0: 5e36 c4bc 8e8a 0dbe c71d 623e 963d 883e
000002b0: 77a4 8ebe 1c5b 86bc fb54 45be f51a c6bd
000002c0: b023 10bf 87bf 5cbd 3f81 493d bc0a 01bf
000002d0: 7aab 0e3d 40b7 433e ef0e 54bd a3de c0bb
000002e0: 0013 1f3e 72c1 e43e 8195 eb3e 3a54 97bd
000002f0: a799 cebd ee9d 1f3f 3518 f73e 8e0d af3c
00000300: bac5 c53d 112c 21be 8553 37be 66f8 1bbc
00000310: 40a0 b23e 62cb 56be fada e5be 8716 913d
00000320: 6ede 85be f7e9 68bf fc57 30bf 8db1 21be
00000330: 49a6 b93e ed42 ce3e 1a74 963e 6c41 273d
00000340: fe94 2b3c 9c03 523d 1341 f3bc 97b8 bd3d
00000350: 89f5 993d b983 013f d071 ca3e 02bd ebbc
00000360: 3e2b d1be a898 97bd 860d 323d 36f7 8abe
00000370: 1744 833e c549 003f 99c1 d83e 00ba 2cbe
00000380: 666e 5a3d ae06 afbe 4831 86be 29ad e53d
00000390: 17d0 07be e2d1 443f 0b6a 2d3f 5d98 3cbe
000003a0: a85c 19be eb85 7f3e 7522 593e 7aef 723b
000003b0: 160b 59be a991 de3c 9079 1cbd 7aad 62bd
000003c0: 3dce f53e 312f d53d 4f47 00be f2f9 ef3e
000003d0: f65c f83d 2774 4dbe 7e28 10bf 404c 633d
000003e0: bdb0 833c 342b 15bf 7b00 1fbf a294 d53d
000003f0: c6b8 c13e 4cdf 34bd 24bc 953d 1909 ad3e

fc1.bias f4 [128]
-0.17862274 -0.0027132586 -1.0583893 -0.59988576 -0.48450646 -0.24755774 -0.46309033 -0.30540276
-0.12136132 -0.019942805 -0.65990025 -0.25381753 -0.3101198 -0.2988667 -0.24566944 -0.59463865
-0.19916686 0.11944443 -0.21750216 0.20182875 -0.18012197 -0.5141197 -0.46302307 -0.09077502
-0.41930574 -0.2825235 -0.35552952 -0.4569424 -0.31639236 0.12073707 -0.46541306 -0.6417123
-0.22216159 -0.48629925 -0.6224194 0.1027375 -0.3282295 -0.59252846 -0.5830372 -0.52278215
-0.26561028 -0.26971853 -0.30502722 -0.47001722 0.015157728 -0.35249126 -0.4006119 -0.29902992
-0.019020796 -0.74360204 -0.29660422 -0.47357392 -0.24341968 -0.23528336 -0.24393965 -0.25421998
-0.34984854 -0.30680367 -0.419828 -0.48523507 -0.026664848 -0.25170675 -0.033376005 -0.26072323
-0.2635026 -0.63832647 -0.33169457 -0.5427408 -0.14331625 -0.031108417 -0.7237044 -0.4605376
-0.5186993 -0.25169814 -0.6524311 -0.20283377 -0.71539503 -0.33577207 -0.20482332 -0.12168099
-0.72078097 -0.8301274 -0.6572338 -0.261072 -0.15689455 -0.7803242 -0.33400875 -0.4155104
-0.15902634 -0.50353867 -0.14131102 0.14015912 -0.17457277 -0.1842268 -0.3446363 -0.7164582
-0.30116493 -0.5834398 0.21733736 -0.3666147 -0.1348548 -0.6678198 -0.29591396 0.016573044
-0.35736993 -0.04108914 -0.26132587 -0.21017295 -0.44228542 -0.021897307 -0.18904182 -0.48256284
0.021617915 -0.7845902 -0.33662015 -0.56663895 -0.62044966 -0.6811831 -0.38478997 -0.27297246
-0.18529934 -0.3278606 0.034139358 -0.5403087 -0.1671725 -0.54214597 -0.26302734 -0.6394802
00000000: e1e8 36be edd0 31bb 4d79 87bf 1d92 19bf
00000010: 3b11 f8be c77f 7dbe 2d1a edbe c05d 9cbe
00000020: 498c f8bd 185f a3bc 39ef 28bf 5ff4 81be
00000030: 06c8 9ebe 0e05 99be c590 7bbe 3d3a 18bf
00000040: 66f2 4bbe 489f f43d e3b8 5ebe 32ac 4e3e
00000050: e571 38be 599d 03bf 5c11 edbe 41e8 b9bd
00000060: 3eaf d6be eca6 90be f707 b6be 5bf4 e9be
00000070: 2efe a1be ff44 f73d 9f4a eebe 4247 24bf
00000080: 547e 63be 37fc f8be e156 1fbf 0a68 d23d
00000090: b20d a8be f2af 17bf ed41 15bf 0dd5 05bf
000000a0: 12fe 87be 8c18 8abe 872c 9cbe 19a6 f0be
000000b0: 1f58 783c bc79 b4be 011d cdbe 731a 99be
000000c0: 80d1 9bbc b45c 3ebf 82dc 97be 4878 f2be
000000d0: 0243 79be 1fee 70be 51cb 79be 1f29 82be
000000e0: 591f b3be 5f15 9dbe b2f3 d6be bb70 f8be
000000f0: 3d70 dabc b5df 80be 47b5 08bd 847d 85be
00000100: d0e9 86be 5d69 23bf dfd3 a9be 10f1 0abf
00000110: 7fc1 12be 14d7 febc b144 39bf 96cb ebbe
00000120: 7ac9 04bf 94de 80be b905 27bf a8b3 4fbe
00000130: 2124 37bf 51ea abbe 34bd 51be e233 f9bd
00000140: 1a85 38bf 3b83 54bf 7940 28bf 3bab 85be
00000150: f7a8 20be 54c3 47bf 3203 abbe c7bd d4be
00000160: cdd7 22be e9e7 00bf d6b3 10be df85 0f3e
00000170: 34c3 32be f3a5 3cbe 2b74 b0be ce69 37bf
00000180: 4a32 9abe 505c 15bf af8d 5e3e ecb4 bbbe
00000190: 6017 0abe 3df6 2abf 0982 97be 31c4 873c
000001a0: 31f9 b6be 164d 28bd 81cc 85be 9437 57be
000001b0: 3c73 e2be fb61 b3bc 2e94 41be 7a12 f7be
000001c0: 0e18 b13c e7da 48bf 7a59 acbe 400f 11bf
000001d0: cad5 1ebf 0462 2ebf 3103 c5be 0cc3 8bbe
000001e0: 1cbf 3dbe 58dd a7be b6d5 0b3d ac51 0abf
000001f0: 452f 2bbe 14ca 0abf 85ab 86be f9b4 23bf

fc2.weight f4 [64, 128]
-0.12692411 0.028135711 -0.12771548 0.036248606 0.20868705 0.034907483 -0.6552976 0.15364672
-0.009809017 0.1271381 -0.038257357 0.15122268 -0.23329543 0.009138157 0.14626367 -0.6127581
-0.11666267 0.06962055 -1.6543669 0.030426214 -0.044992168 -0.39047128 -0.091334045 0.13489753
-0.6260544 -0.66405094 0.07308072 0.20344906 0.05702203 0.23203701 0.09529052 -0.59259903
-0.25552326 -0.53113276 -0.106199294 -0.31274793 -0.5073489 0.042276323 -0.2600196 0.03328295
-0.6390195 -1.0165021 0.053540803 0.19293426 -0.071010575 -0.38808805 0.19047633 -0.21282966
-0.14020209 0.080954306 0.24403556 -0.34190798 -0.3724162 0.08617454 0.043325614 -0.013215996
-0.55723125 -0.4991575 -0.14443183 -0.06971858 0.14191517 -0.12095894 -0.4141711 -0.9129193
-0.056291457 -0.1770337 -0.023513408 0.093894325 0.024013778 -0.16666883 0.008519198 -0.013882918
0.009761983 -0.38118643 -0.32160467 -0.40416005 -0.10494169 -0.106018834 -0.7983837 -0.36202934
0.1579273 -0.004019603 0.123142965 -0.14064364 -0.046529684 0.016697649 0.33588836 -0.0779689
0.014276532 -0.11654555 -0.04378333 -0.13809288 0.10434113 -0.32175514 -0.4708004 -0.07891927
-0.66603583 -0.8303961 0.047122553 -0.0065641454 -0.18456173 0.06279572 -0.0044836844 0.1690473
-0.6652118 -0.052856393 -0.11827534 -0.17263535 -0.037183043 0.00015465292 0.47680575 -0.22990887
0.2997438 0.045893233 0.14224066 -0.54091984 -0.18620089 0.13484657 -0.061363976 -0.17589058
-0.06395441 -0.036988962 0.0034325277 -0.076155074 -0.46769494 0.1662248 -0.44985873 0.048250124
-0.033148956 0.19324265 0.540597 -0.3461822 0.03336783 -0.3042633 0.6258435 0.12831208
-0.050865397 -0.19966155 0.18173945 0.008377936 0.19348675 0.081089914 -0.6205888 -0.13837776
-0.17234774 0.3367014 -0.1095481 0.093069956 0.4824592 0.048612844 -0.05519643 -0.5184143
0.28491956 0.06384595 -0.30900782 -1.2411052 0.4124062 0.088006325 -0.009917357 0.23174791
-0.29635063 0.45725933 -0.02707759 0.35982704 0.00095214264 -0.15759254 -0.96932465 -0.14841457
0.17073755 0.16894536 -0.3935594 0.3116337 -0.33499932 -0.0925756 -0.23727539 -0.12724993
-0.0020155672 0.11218717 0.103850774 0.015793774 -0.42472535 -0.029955398 0.5020639 0.123527385
-0.04756016 -0.17128718 0.09503434 -0.48523197 -0.7637717 -0.3037548 -0.28440338 0.112237975
-0.68820643 -0.4086271 -0.1991059 -0.260188 -0.21506307 -0.21746741 -0.14211087 -0.3128223
0.1427876 -0.40277085 -0.056925204 0.18375862 0.16399294 -0.26223314 -0.39627948 -0.21262516
-0.3585836 -0.062125307 -0.46881256 -0.46760374 0.17418416 -0.5244173 -0.32640335 -0.43118596
0.053640146 -0.46078327 0.090707615 0.14093229 0.096409455 -0.12576298 -0.43938303 -0.077515334
-0.23829061 -0.042402893 -0.05230873 -0.042593118 -0.45347962 0.1199929 0.11630818 -0.26138413
-0.30810308 0.4789552 -0.24819176 -0.0851913 -0.3838736 0.7502567 -0.72863674 -0.70619327
0.20299111 -0.58510923 -0.22974768 -0.17222264 0.05924054 -0.11097944 0.3731104 -0.116359964
-0.27588683 0.13787967 -0.04094469 -0.24118093 -0.103002384 0.0015227462 -0.10510892 -0.23057218
00000000: 65f8 01be dd7c e63c d9c7 02be 6b79 143d
00000010: 0fb2 553e 26fb 0e3d 95c1 27bf 9155 1d3e
00000020: 00b6 20bc 7d30 023e bfb3 1cbd 1eda 1a3e
00000030: ffe4 6ebe 35b8 153c 25c6 153e b7dd 1cbf
00000040: d7ec eebd 3895 8e3d 4bc2 d3bf 6540 f93c
00000050: b549 38bd daeb c7be 580d bbbd 9422 0a3e
00000060: 1a45 20bf 3eff 29bf 58ab 953d f354 503e
00000070: ef8f 693d 1c9b 6d3e ad27 c33d 92b4 17bf
00000080: f2d3 82be 51f8 07bf 047f d9bd 7f20 a0be
00000090: 9ee1 01bf f029 2d3d 4a21 85be b453 083d
000000a0: c896 23bf be1c 82bf 9a4d 5b3d 8f90 453e
000000b0: fe6d 91bd 7ab3 c6be 3a0c 433e 05f0 59be
000000c0: 2391 0fbe 5fcb a53d 75e4 793e 900e afbe
000000d0: 56ad bebe 477c b03d 3376 313d e887 58bc
000000e0: b5a6 0ebf 9291 ffbe f0e5 13be 9dc8 8ebd
000000f0: 3652 113e 52b9 f7bd 3c0e d4be 14b5 69bf
00000100: df91 66bd 5248 35be 319f c0bc ab4b c03d
00000110: 8bb8 c43c 3cab 2abe 1b94 0b3c 2e75 63bc
00000120: b9f0 1f3c de2a c3be 5ea9 a4be 11ee cebe
00000130: abeb d6bd 6720 d9bd e062 4cbf e95b b9be
00000140: b2b7 213e e0b6 83bb 6132 fc3d e304 10be
00000150: e995 3ebd 82c9 883c 8ff9 ab3e 29ae 9fbd
00000160: 1ee8 693c 6faf eebd 2656 33bd 3868 0dbe
00000170: cdb0 d53d 17bd a4be c00c f1be 6da0 a1bd
00000180: 5381 2abf d794 54bf 9403 413d 0b18 d7bb
00000190: c0fd 3cbe 0b9b 803d dfeb 92bb bc1a 2d3e
000001a0: 524b 2abf f27f 58bd 573a f2bd 52c7 30be
000001b0: 3f4d 18bd 542a 2239 e21f f43e 3b6d 6bbe
000001c0: 0578 993e 8bfa 3b3d 89a7 113e b979 0abf
000001d0: 72ab 3ebe 3815 0a3e cb58 7bbd a91c 34be
000001e0: 88fa 82bd bd81 17bd 42f4 603b 31f7 9bbd
000001f0: b675 efbe d536 2a3e e253 e6be eca1 453d
00000200: 33c7 07bd 67e1 453e 9164 0a3f cb3e b1be
00000210: b5ac 083d 66c8 9bbe 4837 203f 3e64 033e
00000220: 3c58 50bd 1474 4cbe e819 3a3e 9c43 093c
00000230: 6421 463e 7812 a63d e8de 1ebf e6b2 0dbe
00000240: ed7b 30be 2064 ac3e c15a e0bd 769b be3d
00000250: e404 f73e 431e 473d a715 62bd cdb6 04bf
00000260: fae0 913e aac1 823d 4636 9ebe 89dc 9ebf
00000270: e826 d33e a93c b43d 697c 22bc 534f 6d3e
00000280: 45bb 97be e51d ea3e d2d1 ddbc 403b b83e
00000290: 3699 793a f05f 21be a925 78bf fdf9 17be
000002a0: d3d5 2e3e 0300 2d3e 9e80 c9be 748e 9f3e
000002b0: 0885 abbe 4798 bdbd 52f8 72be ce4d 02be
000002c0: 9b17 04bb 63c2 e53d b7af d43d f261 813c
000002d0: 9a75 d9be 0665 f5bc 4287 003f edfb fc3d
000002e0: 71ce 42bd e865 2fbe 5da1 c23d 5370 f8be
000002f0: 8b86 43bf c085 9bbe 529d 91be 06dd e53d
00000300: 4c2e 30bf 9237 d1be 6be2 4bbe 5d37 85be
00000310: 7e39 5cbe c7af 5ebe 8385 11be 3f2a a0be
00000320: ea36 123e fb37 cebe 672a 69bd 382b 3c3e
00000330: c4ed 273e 6c43 86be 25e5 cabe 69ba 59be
00000340: 4598 b7be 1b77 7ebd 3308 f0be c269 efbe
00000350: 555d 323e 3640 06bf 571e a7be 68c4 dcbe
00000360: c5b5 5b3d c9eb ebbe eac4 b93d 8e50 103e
00000370: 5272 c53d 03c8 00be d0f6 e0be 5cc0 9ebd
00000380: 7402 74be a8ae 2dbd ae41 56bd 1f76 2ebd
00000390: 7b2e e8be d6be f53d fc32 ee3d 24d4 85be
000003a0: b0bf 9dbe 9e39 f53e fb25 7ebe c778 aebd
000003b0: 158b c4be d310 403f f087 3abf 15c9 34bf
000003c0: e7dc 4f3e b8c9 15bf fa42 6bbe 225b 30be
000003d0: 35a6 723d 3049 e3bd 5408 bf3e 224e eebd
000003e0: 0a41 8dbe 5430 0d3e 9fb5 27bd 22f8 76be
000003f0: eaf2 d2bd e296 c73a 5843 d7bd 1d1b 6cbe

fc2.bias f4 [64]
0.874347 0.44290292 0.1449019 0.6018114 0.7281876 -0.04247058 0.15390666 0.25500873
-0.029609298 0.27823877 0.077210225 0.2584222 0.11789461 0.22025429 0.1624942 0.06822821
0.55975425 0.62961006 0.050335478 0.7874085 0.28595096 -0.111712284 0.38293523 0.12984487
0.14089635 0.31901684 0.7661021 0.53493255 0.45601058 0.2676362 0.67317295 0.7431716
0.4788586 -0.16330463 0.58632416 0.63314104 -0.28486937 0.5520372 0.5328563 0.013965969
0.64947045 0.21650793 0.37642804 0.6103221 0.24590373 0.26448432 0.6389773 0.5472357
0.10520218 0.22675785 0.061626088 0.8023673 -0.15551935 0.46878642 0.31010056 0.72023666
0.43274137 0.85958695 0.31399 0.15708706 0.68286216 0.07023341 -0.097839415 0.26723984
00000000: 34d5 5f3f 2cc4 e23e 2a61 143e 5010 1a3f
00000010: 816a 3a3f a2f5 2dbd b599 1d3e 8190 823e
00000020: 338f f2bc 5075 8e3e 6520 9e3d ea4f 843e
00000030: bb72 f13d 578a 613e e164 263e 3bbb 8b3d
00000040: 0e4c 0f3f 202e 213f 932c 4e3d 9a93 493f
00000050: 2a68 923e 69c9 e4bd 1610 c43e 0ef6 043e
00000060: 2247 103e 2d56 a33e 441f 443f 57f1 083f
00000070: 387a e93e 9d07 893e 1055 2c3f 7e40 3e3f
00000080: f42c f53e 5439 27be 5719 163f 8815 223f
00000090: 66da 91be 4f52 0d3f 4569 083f 85d1 643c
000000a0: b243 263f 41b4 5d3e 2dbb c03e 123e 1c3f
000000b0: 30ce 7b3e 7d6a 873e 0494 233f a417 0c3f
000000c0: 3e74 d73d 3633 683e a36b 7c3d f267 4d3f
000000d0: 7740 1fbe c604 f03e 80c5 9e3e 6e61 383f
000000e0: 4790 dd3e e40d 5c3f 4cc3 a03e 6edb 203e
000000f0: 0ed0 2e3f 89d6 8f3d 0860 c8bd a9d3 883e

fc3.weight f4 [10, 64]
0.16025566 -0.36962047 -0.26120383 0.096668854 0.26991224 -0.2197938 -0.5315602 0.028974492
-0.2209467 -0.52211064 -0.13964088 0.0063421954 0.07649612 -0.4391876 -0.42167246 -0.001935883
-0.45654964 -0.029270988 0.15351276 -0.3052297 -0.2926486 -0.28388655 0.042036027 0.05510931
-0.055538144 -0.047349792 -0.5251461 -0.6455858 -0.015337598 -0.10279974 -0.6646712 -0.24372151
-0.52756196 -0.07099548 -0.34206027 -0.3343256 -0.7915147 -0.46408832 -0.3050202 -0.12772804
0.023288472 0.05700523 0.089227416 0.044596184 -0.37899393 -0.6166931 -0.13775761 -0.016842403
-0.4141782 -0.015397944 -0.6598773 0.023563648 -0.038342807 -0.07354638 -0.004674179 0.15472417
-0.05279193 -0.71223545 -0.36346722 -0.03356741 -0.12742198 -0.04918552 -0.07737045 -0.10507029
-0.42897165 0.09086953 -0.54274446 -0.3039277 -0.3410826 0.037319485 0.039189022 0.062707916
0.05461193 0.1317883 -0.21329209 -0.04036042 0.022303002 -0.01891334 0.19857322 -0.22579235
-0.7078917 -0.5537704 -0.22793978 -0.4235803 0.013017373 -0.030695247 -0.4009373 0.16074704
-0.059245758 -0.37272874 -0.7991211 -0.3604065 -0.02681992 -0.026730318 -0.6483136 -0.7272019
-0.055417378 -0.036641832 -0.45778444 -0.5102061 -0.061980434 -0.129722 -0.7178844 0.08306925
-0.149684 0.049447797 0.055621784 -0.41048843 -0.22751053 -0.12155243 -0.14401795 -0.4887768
-0.24371101 0.15776458 -0.21617435 -0.561248 -0.1701372 0.07439791 -0.5694627 -0.12276896
0.034210004 -0.7828609 -0.38507932 -0.57687634 -0.42628923 -0.036345817 0.060327794 0.09387313
-0.03936327 0.03552525 -0.21658403 -0.11302324 -0.18788561 -0.19757812 -0.023808397 -0.1108981
-0.03136288 -0.33170947 -0.005864135 -0.22501855 -0.121926896 -0.14602113 -0.17319374 0.0030165233
0.024810277 0.16763179 -0.31053463 0.057643604 -0.47474784 0.067779206 -0.07962095 -0.32399395
-0.24365303 0.164957 0.052394338 0.08124904 0.040405996 -0.40535712 -0.08598494 0.14500464
-0.31342098 -0.13229929 -0.13818952 0.023014715 -0.89107627 -0.18547863 0.06472653 -0.39997685
-0.35833794 0.12017506 -0.099061 -0.02442483 -0.14451942 -0.14875804 -0.031191703 -0.22521761
-0.26549658 -0.5296931 -0.49285516 0.26623487 -0.081991814 -0.41914847 -0.021481594 0.09448432
-0.294456 0.15167299 -0.081857234 -0.054991722 -0.6137013 -0.52826154 -0.08438482 -0.3520099
-0.45170096 -0.36106613 -0.13470462 -0.51878613 -0.5905597 -0.23348889 -0.02001126 -0.22305943
-0.11501785 -0.53159195 -0.0055383863 -0.052508805 -0.19211231 -0.33339462 -0.38559052 -0.07342411
-0.5451532 -0.089522645 -0.036805965 -0.020340621 0.051577173 0.0031774328 -0.23291363 -0.70413035
-0.29453537 -0.112867676 0.02030721 -0.023248767 -0.39950645 -0.04102989 -0.2068487 -0.17713472
0.108237036 -0.1134407 -0.016583642 -0.014045694 -0.6829825 -0.11407917 -0.100372314 -0.5159076
-0.5726896 -0.43546999 -0.2683113 -0.07206591 -0.025797952 -0.048480306 -0.32497355 -0.3685872
-0.78748393 -0.51383775 -0.30345067 -0.35886043 -0.06720349 -0.1561003 -0.14250374 -0.12879685
-0.42466342 -0.05406407 -0.0044196416 -0.13642417 -0.30323476 -0.100844175 -0.08828837 -0.20074454
00000000: 0f1a 243e e53e bdbe 82bc 85be 52fa c53d
00000010: f031 8a3e a011 61be 5414 08bf ea5b ed3c
00000020: da3f 62be 0ba9 05bf 05fe 0ebe 31d2 cf3b
00000030: ffa9 9c3d 32dd e0be 74e5 d7be 74bd fdba
00000040: e0c0 e9be b6c9 efbc 7332 1d3e 1147 9cbe
00000050: 0ad6 95be 9459 91be f82d 2c3d 4dba 613d
00000060: f77b 63bd dbf1 41bd fa6f 06bf 1c45 25bf
00000070: 8c4a 7bbc ac88 d2bd e427 2abf 2292 79be
00000080: 4d0e 07bf 1466 91bd 8622 afbe ba2c abbe
00000090: b5a0 4abf fc9c edbe 9c2b 9cbe 24cb 02be
000000a0: 77c7 be3c 517e 693d ddbc b63d 7daa 363d
000000b0: 7e0b c2be 99df 1dbf 5510 0dbe 14f9 89bc
000000c0: 2a0f d4be a847 7cbc b8ed 28bf 8d08 c13c
000000d0: 590d 1dbd 7c9f 96bd db29 99bb 0370 1e3e
000000e0: 5a3c 58bd 1055 36bf 6018 babe fb7d 09bd
000000f0: e87a 02be c176 49bd 6674 9ebd 182f d7bd
00000100: 2ca2 dbbe ce19 ba3d 4df1 0abf 699c 9bbe
00000110: 61a2 aebe 51dc 183d ab84 203d 026d 803d
00000120: c2b0 5f3d 83f3 063e 3e69 5abe f850 25bd
00000130: c9b4 b63c 26f0 9abc c756 4b3e 1c36 67be
00000140: 6438 35bf e6c3 0dbf 0c69 69be 84df d8be
00000150: d246 553c 9974 fbbc a747 cdbe df9a 243e
00000160: aeab 72bd 4dd6 bebe 3393 4cbf 3387 b8be
00000170: 73b5 dbbc 8af9 dabc e1f7 25bf e729 3abf
00000180: 55fd 62bd bf15 16bd b962 eabe de9c 02bf
00000190: 32df 7dbd d8d5 04be 46c7 37bf 3620 aa3d
000001a0: c346 19be c689 4a3d abd3 633d 8a2b d2be
000001b0: 85f8 68be 7bf0 f8bd 7179 13be f440 fabe
000001c0: 618f 79be 0a8d 213e cf5c 5dbe f3ad 0fbf
000001d0: 7238 2ebe ee5d 983d 4fc8 11bf 4b6e fbbd
000001e0: ca1f 0c3d 9269 48bf 1e29 c5be 2bae 13bf
000001f0: 9542 dabe 5adf 14bd 471a 773d 8e40 c03d
00000200: 613b 21bd ed82 113d 34c8 5dbe ba78 e7bd
00000210: 1665 40be eb51 4abe d409 c3bc 8b1e e3bd
00000220: 5d76 00bd d3d5 a9be ee27 c0bb 436b 66be
00000230: cfb4 f9bd 9086 15be b359 31be ddb0 453b
00000240: ec3e cb3c aba7 2b3e 65fe 9ebe b31b 6c3d
00000250: 2612 f3be d3cf 8a3d 4f10 a3bd 89e2 a5be
00000260: 2e80 79be 7dea 283e 729b 563d e665 a63d
00000270: c280 253d f88a cfbe df18 b0bd 197c 143e
00000280: b778 a0be 7779 07be 8e81 0dbe 5b89 bc3c
00000290: 931d 64bf 1cee 3dbe 588f 843d c4c9 ccbe
000002a0: 1278 b7be 581e f63d 7ee0 cabd 9516 c8bc
000002b0: e6fc 13be 0754 18be be85 ffbc 729f 66be
000002c0: 2bef 87be f899 07bf 8357 fcbe f04f 883e
000002d0: 53eb a7bd a19a d6be 2bfa afbc ff80 c13d
000002e0: f0c2 96be 2a50 1b3e c4a4 a7bd 003f 61bd
000002f0: 871b 1dbf 263c 07bf f3d1 acbd a43a b4be
00000300: 5945 e7be a9dd b8be 02f0 09be 2bcf 04bf
00000310: ec2e 17bf b617 6fbe a7ee a3bc b169 64be
00000320: 7b8e ebbd 6916 08bf 5a7b b5bb 7913 57bd
00000330: 17b9 44be b3b2 aabe 1f6c c5be 615f 96bd
00000340: 298f 0bbf a657 b7bd dac1 16bd 60a1 a6bc
00000350: 9642 533d 7a3c 503b e980 6ebe e341 34bf
00000360: 57cd 96be 2b27 e7bd 4e5b a63c 3374 bebc
00000370: 1c8c ccbe f50e 28bd 25d0 53be ce62 35be
00000380: 61ab dd3d 9953 e8bd 6bda 87bc e91f 66bc
00000390: f1d7 2ebf 57a2 e9bd 0090 cdbd 8512 04bf
000003a0: c99b 12bf ecf5 debe 1960 89be 4b97 93bd
000003b0: 3a56 d3bc 4993 46bd ef62 a6be 76b7 bcbe
000003c0: 8c98 49bf df8a 03bf e35d 9bbe 8ebc b7be
000003d0: fca1 89bd c2d8 1fbe 80ec 11be 52e3 03be
000003e0: 7c6d d9be 4972 5dbd a4d2 90bb c7b2 0bbe
000003f0: 9641 9bbe 6487 cebd 88d0 b4bd fa8f 4dbe

fc3.bias f4 [10]
-0.042079378 0.026374705 -0.4199143 0.16623762 0.099644564 -0.008039943 -0.059715107 -0.09684725
0.20556873 0.019922957
00000000: 6d5b 2cbd c40f d83c 02ff d6be 323a 2a3e
00000010: 7312 cc3d f7b9 03bc d497 74bd da57 c6bd
00000020: 9c80 523e 7835 a33c
