simple/simple_cifar_CE_frozen_fc1.pth (torch, 64057 bytes, 6 tensors)

fc1.weight f4 [128, 48]
000000 24 bb e9 3d bd 74 94 bd 28 c4 bc bd 37 10 0c be
       0.11412647 -0.072488286 -0.09217101 -0.1367806
000010 42 57 6a bd 58 b2 49 bd 00 7d c1 3c fe 48 86 3d
       -0.05721212 -0.049242347 0.023619175 0.06556891
000020 a2 63 92 3d 49 95 00 be 13 48 c5 bd f9 d5 00 be
       0.0714791 -0.12556948 -0.09632888 -0.12581624
000030 ce 4f 9c 3d 98 59 a0 3d d0 24 98 3d a8 62 9b bd
       0.07632409 0.07829589 0.074288964 -0.075871766
000040 30 b4 01 3c 1b e5 89 bd c8 7b f8 3c 99 16 8a bd
       0.007916495 -0.067331515 0.030332461 -0.067425914
000050 34 1f 56 3d 74 95 11 3e 99 6a 10 be b9 81 af bd
       0.05227585 0.14217168 -0.14103164 -0.085696645
000060 10 58 48 3c 80 89 e7 3b 5d 70 9e bd 88 7a 1d bd
       0.012228027 0.007065952 -0.07736275 -0.038446933
000070 f4 5d 0a be b6 6a 99 3d 09 3f df bd 0f ca dc bd
       -0.13512403 0.074910566 -0.10900695 -0.10780727
000080 9e 7a 12 3e a0 1d fb bb 9f 92 9c bd 5a 22 8a 3d
       0.14304587 -0.0076634437 -0.07645153 0.06744833
000090 30 21 97 3c 5a f2 e2 bd 38 53 c0 bd 00 6b c3 3d
       0.018448442 -0.11081381 -0.09390873 0.09541893
0000a0 40 42 42 3c cc 35 18 3d b0 63 77 3c 34 26 04 bd
       0.011856616 0.03716068 0.015099451 -0.032262996
0000b0 90 2c 62 3c 8f 25 06 be ea 5c ce 3d e2 62 14 bd
       0.01380457 -0.13100265 0.10076316 -0.036227114
0000c0 44 ab 44 3d 40 a0 06 3c 74 d2 0c bd a8 48 a6 bd
       0.048014894 0.0082169175 -0.03438039 -0.08119327
0000d0 30 6f ba 3d 2c 28 d5 3d 92 c2 ad bd ef 96 d9 bd
       0.091032386 0.10408053 -0.08484377 -0.106244914
0000e0 50 5c 02 3e 2a fb 65 bd 28 80 87 3d 9a 1a 6d bd
       0.12730527 -0.05614773 0.06616241 -0.057886697
0000f0 70 67 de bc f8 3a ce bc b9 82 13 be a0 cc 97 bb
       -0.027148932 -0.025174603 -0.14405335 -0.0046325475
000100 76 da 68 bd c2 6d fb bd 46 fe 12 3e 40 09 43 bc
       -0.056848966 -0.12276794 0.1435481 -0.011904061
000110 b8 b2 e8 3d 9a f7 58 bd d7 57 e7 bd c4 72 80 3d
       0.11362213 -0.052970506 -0.11296051 0.0627189
000120 8a c9 5a bd f8 31 96 3c 48 c2 88 bc b4 99 62 3d
       -0.05341486 0.018334374 -0.016694203 0.055322364
000130 40 b3 65 3c 71 42 07 be ce 05 0e bd 64 8d 17 3d
       0.014019787 -0.13208939 -0.034673505 0.037000075
000140 62 ca 8b 3d 2c f6 04 bd 68 10 de 3d 2c f1 35 bd
       0.06825711 -0.03246133 0.10842973 -0.044419453
000150 90 a8 f0 3d ec d8 b3 3d dc 76 bb 3d d8 ed f3 3c
       0.11750901 0.08781609 0.0915353 0.029776499
000160 f4 b9 83 3d 20 e9 bd bb 9a 23 22 bd be 7d 08 be
       0.06431952 -0.005795613 -0.039584734 -0.13329217
000170 b4 57 eb 3d 10 7c 72 3c 04 62 58 3d a0 5e 85 3d
       0.114913374 0.014800087 0.05282785 0.06512189
000180 b8 e9 e6 3d 30 2c 28 bc 00 3b 70 3a e8 57 07 3d
       0.11275047 -0.010264441 0.0009164065 0.03304282
000190 14 9f 43 3d 68 dd bd bd 00 d0 1f bc 20 2b fb 3c
       0.04775913 -0.092707455 -0.009754181 0.030660212
0001a0 a0 60 9a 3d 48 59 0b bd cd 1a fc bd c8 e6 c7 3d
       0.07537961 -0.034020692 -0.12309799 0.09760815
0001b0 5a c0 13 3e f0 ee d2 3d 2c f4 e9 3d a6 7f a6 bd
       0.14428845 0.1029948 0.11423525 -0.08129816
0001c0 e8 06 b8 3c 04 b2 b2 3d 0c 6c a4 bc a8 6b ac 3c
       0.02246423 0.0872536 -0.020071052 0.021047428
0001d0 80 95 b5 3c 28 61 58 3d 0c fa fd bc 90 e4 70 3d
       0.022166014 0.05282703 -0.03100302 0.058811724
0001e0 38 52 4d bd 22 04 b4 bd 42 64 d2 bd 3b 93 95 bd
       -0.050127238 -0.08789851 -0.10273029 -0.073034726
0001f0 a0 1d e9 3d 1c 17 10 3d 0a 79 05 3e 92 b9 b7 bd
       0.11382604 0.03517829 0.13034454 -0.089709416
000200 98 3a fb 3d d3 e8 e2 bd 28 a3 e0 3d fd a1 87 bd
       0.12267035 -0.11079564 0.109686196 -0.06622694
000210 b4 a5 08 3d 84 c7 1c 3d f4 a9 d9 3d d4 67 59 bd
       0.03336115 0.03827621 0.10628119 -0.053077534
000220 32 1e ca bd d7 30 80 bd d0 d3 03 3d bc 77 11 3d
       -0.098690405 -0.062593155 0.032184422 0.03551458
000230 b8 bd 05 3d cd 57 0e be 40 f8 ff 3d fe 0a 0b 3e
       0.032651633 -0.13900681 0.12498522 0.13578412
000240 cc 6d 0a 3d de fd c4 bd e0 3d 13 3e 34 41 2e 3d
       0.033796117 -0.09618734 0.14379072 0.04254265
000250 ec c1 ae 3d 94 92 a1 3d dc 8a 96 bd fc d7 9f 3d
       0.085330814 0.07889286 -0.07350704 0.078048676
000260 44 35 e7 3d e6 b6 91 bd 2c 0d e2 3d 14 31 91 3d
       0.112894565 -0.07114963 0.110376686 0.07089439
000270 66 f2 d7 bd 02 45 00 be 70 55 82 3d 22 2e fc bd
       -0.10544281 -0.12526324 0.06363952 -0.12313487
000280 16 f8 84 3d aa 21 11 3e 0c 7f 78 bd 4c 86 03 be
       0.06492631 0.14172998 -0.060668036 -0.12844199
000290 00 0f 9c bb 48 f9 85 3c 58 30 df bc 24 e3 cb bc
       -0.0047625303 0.016354218 -0.027244732 -0.024888583
0002a0 28 02 be 3c b0 d0 40 bd 78 e2 88 3d fc f8 a7 3d
       0.023194388 -0.04707402 0.066838205 0.08201787
0002b0 08 db 87 bd 80 1f c9 bd 88 5a a6 3c 76 eb 03 be
       -0.06633574 -0.09820461 0.02030684 -0.1288279
0002c0 dc b4 c3 3d c0 9b c8 3c a0 1e ee bc 7e 88 0d be
       0.095559806 0.02448833 -0.029067338 -0.13821599
0002d0 f2 49 20 bd 00 c4 b1 3a 94 84 df bc 97 77 96 bd
       -0.03913302 0.0013562441 -0.027284898 -0.07347029
0002e0 4e 4d 9a 3d e0 e8 6f bc 7c ae ba bd 00 3d df bd
       0.07534276 -0.014642924 -0.091153115 -0.10900307
0002f0 c0 5b 9d 3b 86 28 aa 3d d8 57 74 3d 9c db 72 3d
       0.004802197 0.083085105 0.059654087 0.059291467
000300 37 1e b5 bd 0b 32 84 bd c0 d4 de bb ee 4e f6 bd
       -0.08843654 -0.064548574 -0.006800264 -0.120267734
000310 78 a3 5b 3d 1c 06 5b bd 84 53 ff 3d f4 d3 0b 3e
       0.053622693 -0.053472623 0.12467101 0.13655072
000320 aa bf 7e bd 00 8a eb 3c 00 72 91 39 60 b6 a4 3b
       -0.062194504 0.028752327 0.00027741492 0.0050266236
000330 a0 ed 24 3c 6a 37 13 3e 98 93 27 3d 68 70 08 3e
       0.01006642 0.14376608 0.04091224 0.1332413
000340 57 43 e0 bd ec d6 ed 3d 72 27 d5 3d 04 06 08 be
       -0.10950344 0.11613259 0.10407914 -0.13283545
000350 d0 8d 62 3c f0 1a 33 bc ce 46 05 bd 4c fb 6f 3d
       0.013827756 -0.010931715 -0.032538228 0.058589265
000360 90 7e 75 bd 5c fb 9d bd 7d 02 03 be f7 f5 c4 bd
       -0.059935153 -0.077139586 -0.12793918 -0.096172266
000370 9b 1a f2 bd 7c 40 05 be 60 55 11 3e e4 d7 c4 3d
       -0.11821481 -0.1301288 0.14192724 0.0961149
000380 08 72 96 3d 1c ec 80 bd 86 e0 0b be 9b 0a 12 be
       0.073459685 -0.06295034 -0.13659868 -0.14261858
000390 8e a2 ba 3d 00 e7 c0 ba 4a 84 ac 3d 64 aa fa bc
       0.09113036 -0.0014717281 0.0842367 -0.030598827
0003a0 66 37 d8 3d 44 1a 61 bd 40 61 ed 3c 4c 8f 67 bd
       0.105574414 -0.05495669 0.028977036 -0.056533143
0003b0 9c 17 dd 3d 18 eb ef bc 28 f6 6f bd e2 36 0d 3e
       0.10795519 -0.029286906 -0.058584362 0.13790467
0003c0 0c ec 03 3e 74 a8 46 3d f2 ef d0 bd 50 af 85 3c
       0.12883013 0.048500493 -0.10202016 0.016318947
0003d0 84 00 69 3d b4 28 fd 3d f4 67 3d bd d2 b0 94 3d
       0.056885257 0.12361279 -0.046241716 0.07260288
0003e0 00 06 86 3b b8 21 b0 3c e0 30 de 3b 64 f5 45 3d
       0.0040900707 0.021500453 0.0067807287 0.048329726
0003f0 74 c2 f7 3d b8 83 d6 3d d8 1a ca 3d e0 74 bc 3d
       0.12097636 0.10474342 0.09868401 0.0920198

fc1.bias f4 [128]
000000 16 26 d5 bd d4 de 4a 3d ae e2 64 bd 03 5b 10 be
       -0.10407655 0.04952891 -0.05588024 -0.14097218
000010 08 08 34 bd 87 c9 dd bd 60 a0 38 3c 42 eb 94 bd
       -0.04395297 -0.10829454 0.011268705 -0.07271434
000020 60 4d 3c 3c 8c c0 ea 3d 1e 26 09 3e 26 23 1b bd
       0.011493057 0.11462507 0.13393447 -0.037875317
000030 bc a3 ae bc 6d e8 c6 bd 60 c0 cc 3d 74 d4 06 3d
       -0.021318309 -0.097123004 0.0999763 0.032917455
000040 42 0a 07 be f8 e4 25 bd dc b8 ca bc 58 9d fb 3c
       -0.13187507 -0.040501565 -0.024746351 0.030714676
000050 79 45 e6 bd 16 01 c1 bd 3c d6 4c 3d c8 3e e3 3d
       -0.112437196 -0.09424035 0.050008997 0.11095959
000060 cc a5 dd 3d 22 6f 96 3d 30 e9 f4 bd e4 e1 7d 3d
       0.10822639 0.07345416 -0.119585395 0.061983004
000070 d4 b2 ea 3d dc 41 cf bd 8c fd a8 3d f0 26 13 3e
       0.1145989 -0.101199836 0.08251485 0.14370322
000080 10 e2 2c 3c 08 22 3b 3d e7 85 10 be f0 ce 6c 3d
       0.010551944 0.04568675 -0.1411358 0.05781454
000090 08 bb 6c 3d 38 f2 49 bd 8e 88 99 3d 68 07 cb 3d
       0.057795554 -0.049303263 0.07496749 0.09913522
0000a0 8c e5 da 3d c0 03 81 3c 5a 6d 14 bd 3e be b9 3d
       0.10688314 0.015748858 -0.0362371 0.09069489
0000b0 78 93 95 3d 6a bd 0b 3e 68 ea f7 3d 48 75 f1 3c
       0.07303518 0.13646474 0.12105256 0.02947487
0000c0 12 df 9e 3d 1d ed 0a be 2b 06 03 be 8b 0a ad bd
       0.07757391 -0.13567014 -0.12795322 -0.084492765
0000d0 1c 0e fa 3d 1c c5 a0 3d 8a 46 41 bd 7c f3 0c 3e
       0.122097224 0.07850096 -0.047186412 0.13764757
0000e0 6a 33 84 bd 5c ee 9c 3d 9a 51 85 bd 5c d2 ce bd
       -0.06455119 0.07662651 -0.06509705 -0.100987166
0000f0 70 f0 b2 3c 7e a6 02 3e 0a fd 98 3d c4 33 f3 bd
       0.021843165 0.12758824 0.07470138 -0.11875108
000100 1c c1 c5 bc 86 7e b6 bd bb 53 08 be 19 f9 fc bd
       -0.024139933 -0.08910851 -0.1331319 -0.12352199
000110 91 af 00 be 60 2b 93 bc 28 29 1a bd f8 0e 0d bd
       -0.12566973 -0.017965019 -0.037636906 -0.034438103
000120 a4 dd bb 3d fc 3a 08 3e 24 00 08 3e 32 9f bc 3d
       0.09173134 0.13303751 0.13281304 0.092100516
000130 a8 65 0d bd b6 b7 57 bd 75 d7 bb bd 38 e2 bc 3d
       -0.034520775 -0.052665435 -0.091719545 0.09222835
000140 20 b2 cc 3d dc b1 00 3e 2a 18 b1 3d 7a 11 81 bd
       0.09994912 0.12567848 0.08647187 -0.063021615
000150 f0 99 b6 bd 23 ea aa bd f9 23 08 be 00 8e 14 3c
       -0.0891608 -0.08345439 -0.13294972 0.009067059
000160 9e 56 95 bd 44 2b f6 3d 38 bd 98 bc 34 72 0f 3e
       -0.072919115 0.12019971 -0.018644914 0.14008409
000170 18 59 8c 3d f0 fe 18 3d 60 13 89 3d 10 81 05 bd
       0.06852931 0.037352502 0.066931486 -0.032593787
000180 34 f0 f0 bd 80 4a 06 3e 98 41 0e 3e 94 5f c9 3d
       -0.11764565 0.13114357 0.1389221 0.09832683
000190 35 c7 f5 bd c6 34 02 3e e4 6a f7 3d 7e a0 ad 3d
       -0.12000886 0.12715444 0.12080935 0.08477877
0001a0 9c 51 3b bd 56 9a b0 3d 3c 31 ec bd e6 bf 82 bd
       -0.045732126 0.08623187 -0.11532828 -0.06384258
0001b0 a6 00 67 bd 00 2d 2b 3b 3c a7 ae 3d cc a1 71 3d
       -0.056397103 0.0026119351 0.08527991 0.058992192
0001c0 2c b6 66 bd b4 9e f2 3d 72 0a 04 3e 80 fb 48 bc
       -0.056326076 0.118466765 0.1289461 -0.0122669935
0001d0 70 dc c4 3c 30 60 a7 bc 78 4b b3 3c 03 22 e8 bd
       0.024030894 -0.020431608 0.021886572 -0.11334612
0001e0 0c 52 81 3d 57 31 92 bd f0 7b 0f 3c 53 0f df bd
       0.06314477 -0.07138317 0.008757576 -0.10891595
0001f0 96 a3 ac bd 88 50 e0 3d 94 01 59 3d 88 13 b2 3c
       -0.08429639 0.1095286 0.05298002 0.021737829

fc2.weight f4 [64, 128]
000000 6a 6b 04 3f 2e 87 bc 3a 23 26 83 be f1 49 4b 3f
       0.517264 0.0014383548 -0.25615034 0.794097
000010 ad d3 08 3f 68 fe 32 3e 4b 99 87 3e 83 88 99 be
       0.5344799 0.17479861 0.2648414 -0.29986963
000020 5c 1b 66 3d 6c cd 67 be 6b b4 0d bd e2 5b d7 be
       0.056178436 -0.22636956 -0.034595888 -0.4206229
000030 c8 83 6a 3f b2 8f 40 3f 1e a1 27 be 8a b1 19 be
       0.9160733 0.7521926 -0.16370055 -0.15009132
000040 a0 92 21 3e 19 5a 81 3f e5 99 38 be c5 cf b9 3e
       0.15778589 1.0105621 -0.18027456 0.36291328
000050 3f 8a b5 3f 9e 94 1c bf 56 da 9a 3e 2a 31 11 bc
       1.4182814 -0.6116427 0.30244702 -0.008861819
000060 3b 49 d6 be db 8d 0d 3f 95 05 d0 3e d6 e1 97 be
       -0.41852745 0.5529458 0.4062926 -0.29664487
000070 7f 41 2c 3e 0b 4b 7d 3f fe 40 ac be 21 4d 04 bf
       0.1682186 0.9894263 -0.33643335 -0.5168019
000080 a9 eb c6 be 3d e4 3e bf 94 3a 65 bd 48 62 9b 3e
       -0.3885167 -0.74567014 -0.055964068 0.3034842
000090 7c 65 27 3e 07 89 69 bf b2 d8 78 bf c5 32 d0 be
       0.16347307 -0.9122471 -0.9720565 -0.40663734
0000a0 92 91 81 bd 40 10 ab 3e 16 de 22 3f 30 0c c2 3d
       -0.063265935 0.33410835 0.63620126 0.09474981
0000b0 9e a1 a3 be a4 b6 ea bd 7d c9 7e bf 82 9b 15 bf
       -0.31959242 -0.11460617 -0.99526197 -0.5844041
0000c0 f4 1c 15 be da 8d 9a bf 76 c4 2a 3d 4c 18 1c be
       -0.14561826 -1.207454 0.041691266 -0.15243644
0000d0 ee 4e 26 3c fd 17 a3 3d ee 93 08 bf 34 f5 c6 bd
       0.010150654 0.0796356 -0.5335072 -0.097147375
0000e0 87 ce 0f 3f 51 f0 91 b9 07 b3 13 3e 4e f7 87 bc
       0.5617451 -0.00027835605 0.14423762 -0.016597416
0000f0 bd 4e 26 3d 67 30 af be 91 b6 57 3c ed 15 35 bf
       0.040602434 -0.34216616 0.013166086 -0.7073658
000100 b0 7f 91 bd 88 25 97 bd c9 28 f9 3e fc c1 a4 bd
       -0.071044326 -0.073802054 0.4866393 -0.08044812
000110 db c9 27 bf 53 36 e8 3e 2c 57 bb 3d 06 e0 f0 bd
       -0.6554238 0.45353946 0.09147486 -0.11761479
000120 c8 5c f3 3c e8 dc 07 3e 44 78 18 be bb 94 83 3e
       0.029707327 0.13267863 -0.14889628 0.2569941
000130 e1 24 7e be 43 56 a8 3e 39 cc a8 be e6 8c 57 be
       -0.24818756 0.32878312 -0.3296831 -0.21049842
000140 2d c5 4d 3d 7d 25 77 bd 27 90 5e bd 36 a1 9e be
       0.05023687 -0.060338486 -0.054336693 -0.3098237
000150 62 0e c5 be d4 3e fb 3e ae 3b d1 3d 30 48 c0 3e
       -0.38487536 0.49071372 0.10216461 0.37555075
000160 36 ed 19 bf 48 12 35 3e 30 0d d7 be 37 d0 31 3f
       -0.6012758 0.17682755 -0.4200225 0.69458336
000170 99 da 66 be b4 3e 6a 3e c4 68 1f be ce e3 83 3e
       -0.22544326 0.22875482 -0.15567309 0.2575974
000180 b9 fe 0a 3f 7e 5e 24 be 78 30 e8 bd af dd 30 bc
       0.54294926 -0.16051671 -0.1133737 -0.010795041
000190 cd 12 a5 be 47 5d 06 3f ed d0 bc bd df cb 13 bf
       -0.32240906 0.5248608 -0.09219537 -0.5773296
0001a0 3c 78 4d 3f dc 79 08 3d 14 b2 bb 3e b2 7d a4 bd
       0.8026159 0.03331934 0.366593 -0.08031787
0001b0 3f 4a 8b bf f2 20 f6 3c 4a a4 31 3e ea 31 0e 3e
       -1.0882033 0.030045006 0.17347828 0.13886228
0001c0 3f 45 c8 3e 15 36 f2 3d 59 29 77 bd 3d 4e 5d be
       0.3911533 0.118267216 -0.060342167 -0.21611877
0001d0 38 f6 d1 3e 7f 27 29 be 4d 38 68 bf ab 0e ad be
       0.41008162 -0.16518973 -0.9071091 -0.33800253
0001e0 79 ae 4f be 5f 7d 05 be 16 7f 80 be 23 2e cc 3c
       -0.202814 -0.13036107 -0.2509696 0.024924343
0001f0 e1 5f 5a bf d1 79 00 3e 6d 80 10 3e bc 58 b9 bd
       -0.8530255 0.1254647 0.1411149 -0.09050128
000200 1e 59 04 bf 96 72 f1 3d e6 07 4e 3d c3 e7 59 bf
       -0.5169848 0.11789434 0.0503005 -0.85119265
000210 2c ce 33 be d8 cb c8 bd 10 7e a7 bf 42 b4 05 c0
       -0.17559117 -0.09804505 -1.3085346 -2.089127
000220 71 50 66 be 42 36 9b 3d cc 47 c4 3d e4 43 c9 3a
       -0.22491623 0.07578708 0.09584007 0.0015355316
000230 be 53 58 be da 18 aa 3f 74 72 a7 bc a9 7b f7 be
       -0.21125695 1.3288834 -0.020440318 -0.48336533
000240 2c 07 56 3e 60 91 ab bf ea ff c3 3e 91 10 e0 bd
       0.20901173 -1.340374 0.38281184 -0.1094066
000250 99 10 8f be 1b fa 16 3f 28 37 b0 be e5 df 50 3e
       -0.2794235 0.5897538 -0.3441708 0.20397909
000260 d8 de a3 3e 46 9c de 3e d3 95 8e be 18 89 da 3e
       0.32005954 0.43478602 -0.27848682 0.4268272
000270 aa 1f e1 3d 6c 63 ce be bf 35 84 be dc 61 21 bc
       0.109923676 -0.40310228 -0.25822255 -0.009849992
000280 3c 34 b0 3d 40 60 b0 bd 80 bf a4 bd 96 81 f2 be
       0.08603713 -0.08612108 -0.08044338 -0.4736449
000290 92 73 e3 be e9 f6 49 3f fe 28 09 bf 7b e5 97 3e
       -0.4442411 0.7889238 -0.53578174 0.29667267
0002a0 cc e7 58 bf 92 f4 76 bd 85 ab dc 3e 25 f7 90 3c
       -0.84728694 -0.060291834 0.4309961 0.017695973
0002b0 3e e8 18 be 42 14 b6 bf 67 d7 ce 3c ab a4 72 bd
       -0.14932343 -1.4224932 0.025249196 -0.05923907
0002c0 cb f1 98 3d 7b b1 4e 3f a7 0a 30 bf 93 b1 06 3e
       0.07467993 0.80739564 -0.68766254 0.13153677
0002d0 47 88 cd 3e 26 d7 b9 be f6 c7 b9 bd 04 54 26 bd
       0.40143034 -0.36296958 -0.09071343 -0.040607467
0002e0 87 0d 30 3d db 5c a4 bf fd 74 75 3f cc 24 29 3f
       0.04298165 -1.2840837 0.95881635 0.6607177
0002f0 f9 8b 6a 3e 61 48 3d bf 06 a4 19 bf b2 6b 32 bf
       0.22904958 -0.73938566 -0.60015905 -0.6969558
000300 82 34 d5 bf fd b8 81 bf 33 47 e2 bf f8 0f 48 bf
       -1.6656649 -1.0134579 -1.7677978 -0.78149366
000310 a8 79 a3 3f 45 0f b2 bf 1d b4 09 bf 25 9c 60 3f
       1.2771502 -1.391091 -0.53790456 0.8773826
000320 54 c2 8f bd a1 93 19 bf 42 81 3a bf 76 59 95 3d
       -0.07019487 -0.5999089 -0.7285348 0.07292454
000330 ea 74 49 bc b6 3c 9f 3e c1 b9 0c 3e 7a b8 18 bf
       -0.012295941 0.31101006 0.13742734 -0.5965649
000340 55 1b 0a bf e2 29 80 be d5 e2 90 be 56 2a 80 3e
       -0.53947955 -0.25031954 -0.2829806 0.250323
000350 be 0d f5 3e 94 44 c9 be be 8e 05 be de f8 35 bd
       0.47862047 -0.39310133 -0.13042733 -0.04442679
000360 05 17 3a 3e 9b de 95 ba 97 f5 5d 3f 8b c6 6c be
       0.18172844 -0.001143414 0.86702865 -0.23122613
000370 74 b0 79 be 3c 44 1a bf 01 11 4d be ba 97 36 bf
       -0.24383718 -0.6026037 -0.20026018 -0.71325266
000380 36 db 52 3d dc 80 24 3f cb 70 80 be 17 f6 04 be
       0.051478587 0.64259124 -0.25086054 -0.12984501
000390 14 f9 48 3d 0d 14 38 bd f6 c6 86 be 61 22 2b be
       0.049065664 -0.044940997 -0.2632367 -0.16712333
0003a0 8b f8 ba 3d 88 f5 88 3d f7 62 23 bf b3 e3 ea bd
       0.09129437 0.06687456 -0.63822883 -0.114692114
0003b0 14 b9 34 3e e0 33 07 be f9 ff fb 3e ca 70 6d be
       0.17648727 -0.13203382 0.4921873 -0.23187557
0003c0 11 b7 18 c0 92 9b 1b 3f 12 5b 57 3d d6 bf 8e bd
       -2.3861735 0.60784256 0.052577086 -0.069701836
0003d0 ec 2e 5f bd 8a 6c 91 bf 89 96 ef bd d3 c8 85 3e
       -0.054488108 -1.1361248 -0.11698634 0.2612978
0003e0 06 e4 20 bd ee 0e 91 3e f3 89 2d 3e d6 9d 1b c0
       -0.03927996 0.28331703 0.16947155 -2.4315085
0003f0 83 43 bb 3d 2d 10 df 3d 83 cf f4 bd a6 e7 07 3e
       0.09143736 0.10891757 -0.11953642 0.1327196

fc2.bias f4 [64]
000000 af 26 a3 3d d3 4a 2f 3e ac 59 4c 3e 08 c8 d4 bd
       0.07966363 0.17118387 0.19956082 -0.103897154
000010 4e 8c 00 3f a9 a5 12 3e ec 00 22 3e e0 d3 c6 3e
       0.5021409 0.14321007 0.15820664 0.38833523
000020 1d 91 ce bd ed 8c 9f 3e 4b 3f 0f 3f fe 15 be 3e
       -0.10086272 0.31162205 0.5595595 0.37126154
000030 38 71 54 3e 0f 4c 8d 3e 31 c5 22 3e e9 de 11 3e
       0.20746315 0.2759709 0.15895535 0.1424519
000040 f8 1e 0b 3f 4e ea 7d 3e cb 54 d7 3d 0b 73 86 3b
       0.5434413 0.24796411 0.1051422 0.0041030697
000050 26 55 f0 bd ee e2 88 be 2a 78 b3 bd 47 c3 04 3e
       -0.11734991 -0.26735634 -0.08763154 0.12965117
000060 46 0b ef 3a 22 f3 fc 3e c5 a7 fb 3e f5 42 f2 3c
       0.0018237613 0.49404246 0.49151435 0.029572943
000070 bc 7f a1 3e de b8 4f 3d 9c 40 fa bc f6 fd d9 3e
       0.31542766 0.050713412 -0.030548386 0.4257657
000080 36 3d 4f 3e 45 b2 9e bc b7 1c 2e 3e 48 d2 88 bd
       0.20238194 -0.019372115 0.17003141 -0.06680733
000090 c6 50 5b bb d4 47 d2 3e 4c f3 eb 3e bc 89 c1 3e
       -0.0033464893 0.41070426 0.46084058 0.37800395
0000a0 90 e9 80 3c f2 8c 9e 3e 06 04 df 3b c4 f3 93 3e
       0.015736371 0.30966908 0.0068058996 0.28896916
0000b0 7c 37 c9 bd ae cb 81 3e 31 d9 30 3b 35 ec f0 3d
       -0.09825036 0.25350708 0.0026984925 0.11763803
0000c0 7b 09 fd 3d 06 8e 46 bd 25 a9 7e 3e 67 95 ae 3e
       0.12355324 -0.048475288 0.24869211 0.3409836
0000d0 6f 79 40 3e 76 a2 cc 3e 68 80 17 3e 18 64 ba 3e
       0.18796323 0.39967698 0.14795077 0.3640449
0000e0 52 cc 75 3e fd 35 c1 bd cd 90 33 3d 2f 12 c3 3e
       0.24003723 -0.094341256 0.043839265 0.3809981
0000f0 3c 27 ae 3d f4 8b 88 bd a8 5a 05 3e 5e fb 09 be
       0.08503577 -0.06667319 0.13022864 -0.13474795

fc3.weight f4 [10, 64]
000000 2b f8 96 be 0e 52 db 3e b2 46 74 3b 0f 96 0c bf
       -0.29486212 0.4283604 0.0037273583 -0.5491647
000010 09 1d e4 3d 0e 11 df be 6d 98 3d bf 52 8d 1a bf
       0.111383505 -0.435677 -0.7406071 -0.6037189
000020 fa 73 aa bd 05 5c 61 bf fa b1 0c 3e 31 b6 81 be
       -0.08322902 -0.88031036 0.13739768 -0.25334314
000030 fc 54 28 bf c3 4e 60 3d 66 04 d9 bd 42 9e 64 bf
       -0.65754676 0.054762613 -0.10596542 -0.8930398
000040 be 54 e8 bd d3 1b ee be 5b 07 93 bf 2c 15 6f 3d
       -0.11344288 -0.46505603 -1.148662 0.0583698
000050 97 62 98 be 17 1c 9b 3d 74 6f 23 bf 43 3b ea be
       -0.29762718 0.07573717 -0.6384194 -0.45748338
000060 31 a8 8b be df a0 33 bc 4b 40 2e 3e 3d 25 2e be
       -0.27276757 -0.010963648 0.17016713 -0.17006393
000070 6d e0 a7 3e 22 9e 23 3b cf de 03 be bd 13 5f be
       0.3278841 0.002496608 -0.12877963 -0.21784873
000080 9a b8 10 bc f7 74 ac 3d b3 b3 fc bb f7 e3 75 be
       -0.008833075 0.08420747 -0.0077118515 -0.24012743
000090 02 84 6a 3c 1f 3f d0 3e 77 a6 cc 3d 11 5c b9 bd
       0.0143137 0.40673158 0.09992688 -0.090507634
0000a0 52 c6 f1 be 48 f8 9b bc ef 2e 0c bf 10 21 18 3e
       -0.4722162 -0.019039288 -0.54759115 0.14856362
0000b0 3a d4 24 bd 61 39 2e bf a3 86 32 bf 28 a9 26 bf
       -0.040241458 -0.68056303 -0.6973669 -0.6510186
0000c0 9f d4 4e be a3 59 02 bf 3e 5f 08 bf 2f e4 da be
       -0.20198296 -0.50918025 -0.5327033 -0.42752215
0000d0 cb 0a 3f bf d8 34 11 3e 97 d0 ba be e5 1f 21 3e
       -0.74625844 0.14180315 -0.36487266 0.15734823
0000e0 ee cb 25 3d df 27 2e 3c 18 f2 31 be ff b4 bf 3d
       0.040477686 0.010629623 -0.17377508 0.09360694
0000f0 e9 3f 0e bf 59 b5 92 3d 95 c2 e0 be 27 68 57 bf
       -0.5556627 0.071634956 -0.43898454 -0.841433
000100 8d 5a 00 bf b3 b8 29 bf 60 eb da bd bd 1a 26 3f
       -0.5013817 -0.66297454 -0.106894255 0.6488455
000110 6e cf 49 bf 55 7b 8f 3e a4 05 e8 bd e0 d1 3b bf
       -0.7883214 0.28023782 -0.11329201 -0.7336712
000120 32 06 f5 bc d8 cc 29 bf 4c 60 43 bf fb 3a a6 3d
       -0.02991018 -0.6632819 -0.7631881 0.081167184
000130 ec 0f 2b bf 68 55 ee 3e 31 1f 18 3e 25 47 c9 be
       -0.6682117 0.46549535 0.14855649 -0.3931209
000140 a8 bc 38 bf 9a fc c4 be 7c 25 41 bf 44 05 59 bf
       -0.72162867 -0.3847397 -0.7544782 -0.8477366
000150 27 cb 48 3c c4 42 41 be 8b 8a c0 bd 30 62 0d 3f
       0.012255467 -0.18873125 -0.09401425 0.5522795
000160 4c 16 45 bf c0 13 37 be 6a a3 5d bd b2 f2 c0 be
       -0.7698715 -0.17878628 -0.054110922 -0.37685162
000170 c1 7c 8f bd a6 15 d4 bd 53 51 0d bd 53 e8 87 bf
       -0.07006217 -0.103556916 -0.034501385 -1.0617775
000180 7d ed c0 be 65 bd 9b bd 14 5c f3 bc 60 d0 83 3d
       -0.3768119 -0.076044835 -0.029706992 0.06436229
000190 8e b9 03 be 44 3b 46 bf 51 7c 93 bf 44 81 8e be
       -0.12863752 -0.7743418 -1.1522313 -0.27832997
0001a0 af 98 62 3e f9 79 c3 3e 2c da ad 3e 0a f5 03 3d
       0.22128557 0.38178995 0.33955514 0.03221611
0001b0 1e e9 9c be 24 d7 4c be 4c a9 36 bf ce 22 2e 3f
       -0.30646604 -0.20003945 -0.71352077 0.6802186
0001c0 e7 89 4e 3e 5b a9 88 bf e0 b0 70 be d6 72 72 bf
       0.20169793 -1.0676683 -0.23504972 -0.94706476
0001d0 04 bc e9 bd 8a 99 27 bf 1b 03 6c bf a0 d6 0f bf
       -0.11412814 -0.65468657 -0.9219224 -0.56186867
0001e0 30 f4 3b bf 89 7d 91 3d 71 8a 46 bc f8 d3 2e 3e
       -0.73419476 0.07104022 -0.012117968 0.17073047
0001f0 81 6d df be 60 db a7 bd 5a d0 a5 bd 39 5f 10 3e
       -0.43638232 -0.08196139 -0.080963805 0.14098825
000200 fc 80 20 bf 78 9f ef be 2c 71 1c be 26 12 ca bf
       -0.62696815 -0.46801353 -0.15277547 -1.5786788
000210 e4 de 72 3c 62 24 09 bf 5d ba 6e 3d a1 9a 3a be
       0.014823649 -0.5357114 0.0582832 -0.18223049
000220 50 be c0 bd 35 2d e6 be 0e a8 02 bc 38 eb 22 be
       -0.09411299 -0.44956365 -0.007974638 -0.15910041
000230 bf 57 00 3e d0 c0 0b bf 9f a5 72 bf e3 78 1c bf
       0.12533472 -0.54591084 -0.9478397 -0.6112196
000240 45 1e 25 be a2 9a f6 3c d0 90 12 bd fb e8 d0 3c
       -0.16124828 0.030103032 -0.035782635 0.025501719
000250 18 61 26 bd 35 a5 a8 bd 38 76 79 bc 60 97 9b bf
       -0.04061994 -0.08234636 -0.015225939 -1.2155571
000260 84 46 ea be 10 89 0f bf 1d 01 8f bf af 4f a6 be
       -0.45756924 -0.56068516 -1.1172215 -0.3248267
000270 33 58 44 bf 84 ba 8a be d4 85 31 3c f8 d2 7e 3e
       -0.7669708 -0.27095425 0.01083513 0.24885166
000280 ea 8c ae 3c 2e b2 bd 3d 2d 34 76 bf 3e 0a 97 be
       0.021307427 0.09262501 -0.96173364 -0.29500002
000290 5d ec 16 be c7 ea 14 3d b1 4d 94 3e e3 45 c6 be
       -0.14738603 0.036356714 0.28965524 -0.38725194
0002a0 39 46 6c bd 28 ee 70 be 8f a4 08 bf 23 e0 05 bd
       -0.057684157 -0.2352835 -0.53376096 -0.032684457
0002b0 e9 c5 ba be 05 d3 1e be 71 2e e7 be 13 c0 90 bf
       -0.36479118 -0.15510185 -0.4515262 -1.1308616
0002c0 d3 6d 45 bf e1 6a 72 3e 89 8b 12 bf b2 17 28 3d
       -0.77120703 0.23673584 -0.57244164 0.041038223
0002d0 4f bc e3 be 99 7a 51 bd 6c 97 2c 3e 32 68 5a be
       -0.44479606 -0.05114231 0.16854638 -0.2132881
0002e0 9d 80 83 3e 1e af 17 3d f2 a6 31 bf be e4 39 be
       0.25684062 0.03703224 -0.69395363 -0.18153664
0002f0 ae 46 07 3e 90 ce 3a be 6d e2 67 bd 24 9c 3a be
       0.13210556 -0.1824286 -0.05661242 -0.18223625
000300 5c 1b 39 bb d8 f5 df be 43 31 69 be 77 a3 4b bf
       -0.0028245067 -0.4374225 -0.22772698 -0.795463
000310 80 b4 42 be e8 c3 88 be 7f c3 76 3d 8f d1 7e 3e
       -0.19014168 -0.26711965 0.060245033 0.24884628
000320 43 65 1b be d7 98 fe 3d a6 32 d1 bd 51 f4 11 bf
       -0.15175347 0.12431496 -0.102147385 -0.5701342
000330 e7 cd 54 be 68 37 15 bf 53 87 0e bf b0 ee 21 be
       -0.2078167 -0.5828767 -0.5567524 -0.15813708
000340 97 79 f2 3d 86 51 a2 be b6 ff 2b bc 44 46 47 bd
       0.11839598 -0.31702822 -0.010497978 -0.048650995
000350 ba d8 8f 3c a2 02 47 bd d6 88 8f 3d 5b a1 2f bf
       0.017559398 -0.048586495 0.07008521 -0.68605584
000360 87 10 0c bf 79 d2 de be 13 9f 26 bf 37 be 10 bd
       -0.5471272 -0.43519953 -0.6508648 -0.035337653
000370 3f 99 66 bf 9c c6 da be 6b 18 c1 bd ba f8 c2 be
       -0.90077585 -0.42729652 -0.094284855 -0.38080388
000380 61 88 0b bf 26 c9 2c be a4 70 b1 be 63 e2 16 bf
       -0.5450497 -0.16873607 -0.3465625 -0.5893919
000390 47 18 08 3d 6c 2d 08 bf 60 5a 8d be b0 eb 44 bf
       0.033226278 -0.5319431 -0.27608013 -0.7692213
0003a0 63 65 83 bd 00 ab f8 be a2 d6 bb be 57 bd 2c bf
       -0.06415822 -0.48567963 -0.3668719 -0.6747641
0003b0 44 87 a1 3d 87 6b ea 3d ac 3c a1 3c 3b 80 8d bf
       0.07887128 0.114462905 0.01968225 -1.1054758
0003c0 bf f3 1c bf 51 85 1d bd 56 cf d1 bd de 3e cb bd
       -0.6130943 -0.03845722 -0.10244624 -0.099241
0003d0 a0 31 6d bb c3 7c 5f bf 07 bf 52 be bd a2 1a bf
       -0.003619291 -0.87299746 -0.20580684 -0.6040457
0003e0 30 1f e5 be 8b da 9b bc b1 b3 2a bd 17 f0 03 bf
       -0.44750357 -0.019025108 -0.041675273 -0.51538223
0003f0 30 06 b1 3d f0 09 0f 3c 53 72 d2 be 25 c7 98 be
       0.08643758 0.008730397 -0.41102847 -0.29839435

fc3.bias f4 [10]
000000 e6 c9 c8 be a9 cd e9 3d 91 0d 23 be ed ed f7 3d
       -0.39216536 0.1141618 -0.15923144 0.121059276
000010 3a de fe 3d d6 2c 6e bc a8 db 97 3e 32 55 3a be
       0.1244473 -0.014537057 0.29659772 -0.18196562
000020 df bb de 3d fe 93 65 3e
       0.10875677 0.22419736
