simple/simple_cifar_with_plots_hinge.pth (torch, 64093 bytes, 6 tensors)

fc1.weight f4 [128, 48]
00000000: 4672 6c3d 14db ba3d 2c39 a63e 324c 86bc
00000010: 0474 3abf 33c2 36bf c59a c2be 762d 33bf
00000020: a2d9 c8bd 07a8 433f c519 893f 8ce4 4ebe
00000030: 98c6 66bf 0f78 8e3e ece3 083e 5833 52bf
00000040: 99f7 c93e 7a2e 8a3d 6197 a23e 596f ac3d
00000050: 69e3 9e3e 3433 d13e a270 1b3f 0362 1c3f
00000060: 6800 303e 6c7f 5fbf 2c81 3cbf 1e80 dc3d
00000070: 9058 0a3f 36d3 7ebe d815 56bf e50e c93e
00000080: 6705 47be 004b 88bd de8c 3bbe 17eb 05bf
00000090: d64f 803e 9c48 d93b 9ab6 a4be 7324 bd3c
000000a0: 0b4c 333e ad20 313e a856 ec3c ab50 e43d
000000b0: 204e 0a3f 7380 663e e32b aebe dc8f ae3e
000000c0: cdc6 1d3e 385f f53c 3bfa ad3d 0d12 bb3d
000000d0: 4da1 763e 061c 89bf 5971 8cbf 9e98 8c3e
000000e0: 62f7 2f3a 4972 34bf 2950 dabe f755 9d3e
000000f0: e2ad c13e fa9f ba3c be4c a03d c27b 243e
00000100: 0571 bebe 1599 f3bd 5f10 d5be 064f b4be
00000110: 5718 2dbe 422a f93f fa42 fc3f d9d0 aebe
00000120: 61fc abbe 1775 a43f cbe4 783f 295f a1be
00000130: d032 e0be a694 debe 8964 c7be f80a b1be
00000140: e2d6 6d3e f60d 013e cf69 1c3e 640a ae3e
00000150: a53c c93d 76fc 88bf 341e 72bf 8551 2b3c
00000160: e966 203e 4d65 0ebf 95c1 12bf 83eb 843e
00000170: c0df 073b ca28 833e 92e1 e43e 6e94 003e
00000180: f831 bfbd 9286 d83e 1a47 fe3e 0c5e 28bd
00000190: fa95 c5be 31a2 45be 7617 52be de0e bbbd
000001a0: 28f5 93bd e75c 013d d121 3d3e e172 fc3d
000001b0: 684e eebe 7965 dd3e 4486 db3e 7caf bcbe
000001c0: 7bff fbbe b250 03be 5ba7 58be 390d 83be
000001d0: bd06 c0be d568 883f f522 693f 9f51 fcbd
000001e0: dc8d 18bf f53c 0d3f 665c 1f3f d1b0 c0be
000001f0: fc64 4abe 8c16 14bf 0681 eebe fa68 82bd
00000200: 1adf bc3e 17fc 77be 57cb efbe fdb3 a83e
00000210: 94e7 513f 5a06 39bf 389b 89bf c054 eb3e
00000220: 133b 063f 5569 1cbf d653 5dbf e303 4b3e
00000230: de96 943f 8f37 08bf b31a cdbe b644 603f
00000240: f618 d6be 2d29 5c3e 6976 293e 8368 1cbf
00000250: 512e de3d d80e d03d b28d 8e3f f4bd d2be
00000260: 77cc 403c 521a 8bbe 2538 8dbe 2491 75be
00000270: 450b e53e b47d 26bd 596f b7bd 2607 ab3e
00000280: 0492 c13d 53f3 edbe d5a0 9e3d 11c1 cb3e
00000290: 8fc8 583f c386 dabf efb7 25be aa55 683e
000002a0: 0c63 063f 406c 793c 3924 ec3e 2637 b7bc
000002b0: ba27 95be c47e c2bc 2853 8e3e 966c 9fbe
000002c0: 3cd7 d23e 09b3 dcbe eeef 1c3e 132f ec3e
000002d0: e820 013f 855b 93bf fd25 a63e 9bd4 a13d
000002e0: 4514 22be fdae c7bc 0ca4 e93e 35bf c43c
000002f0: 925f c5be f6b8 6a3c f943 a13e 26ad b6bd
00000300: d28a 9cbe 8d61 27bd 8110 98be 9ada 4fbf
00000310: d259 e6bd b899 123f ff4a 273f b624 08bf
00000320: 8df6 0bbe aaf4 df3d a7af e83e 3bc0 ccbe
00000330: ab3b 0ebf 4256 aabd 22c2 40bc 8491 12bf
00000340: 58fd 913f a603 363e 2ea8 f63e 1ac6 8f3f
00000350: 74bd e73e 2dd5 38bf 6d0e cebe cd53 033f
00000360: 3df7 a73e 82ed 0ebf 99e8 29be 9a0a 863e
00000370: 516b 133f ec42 d4be d796 1bbe f87b 183f
00000380: 81a1 04bf b155 17be 649b 4cbe 018e eebe
00000390: 9e8b 9ebe 80b3 b53e 98f8 1f3f 7426 ffbd
000003a0: f692 c6be 99c4 1f3b 59a8 d23e 21a6 d1be
000003b0: ad70 4cbb ed9e 8ebe d129 723e d5b2 d0bc
000003c0: 48b8 313f 24de 9e3e 19b3 d3ba 6c98 983e
000003d0: 61d3 cfbd a25e 0ebf 3f89 9ebe 5273 8cbe
000003e0: b2bc fcbe f5fe aabd 0a18 60bf 1165 36bf
000003f0: 1ece 79be 576e b5be b549 293f bc76 0e3f
0.057726167 0.09123817 0.32465494 -0.016393755 -0.72833276 -0.71390074 -0.38008705 -0.6999124
-0.09807135 0.76428264 1.0710989 -0.20204371 -0.9014678 0.27825972 0.13368195 -0.82109594
0.39446715 0.06747146 0.31756118 0.084196754 0.31032875 0.40859377 0.6071874 0.61087054
0.17187655 -0.87303805 -0.736346 0.10766624 0.54041386 -0.24885258 -0.8362708 0.39269176
-0.19435655 -0.0665493 -0.18315455 -0.52311844 0.2506091 0.00663097 -0.32170564 0.02308867
0.17509477 0.17297621 0.028849915 0.11148199 0.5402546 0.22509937 -0.34017858 0.3409413
0.15407868 0.02995263 0.08494993 0.09134302 0.24084969 -1.0711677 -1.0972091 0.27460188
0.0006712583 -0.70486885 -0.42639282 0.30729648 0.37827975 0.02278136 0.078271374 0.16062835
-0.37195602 -0.118944325 -0.41614053 -0.3521654 -0.16903816 1.9466021 1.970794 -0.34143713
-0.33590987 1.2848233 0.9722411 -0.31517914 -0.43788767 -0.43472785 -0.3894389 -0.3457868
0.23226503 0.12602982 0.15274738 0.33992302 0.0982602 -1.0702045 -0.94577336 0.0104564475
0.15664257 -0.5562332 -0.5732663 0.2596093 0.002073273 0.25617057 0.44703346 0.12556621
-0.09335703 0.4229017 0.4966362 -0.041105315 -0.38590986 -0.19300152 -0.20516762 -0.09133695
-0.07224494 0.03158274 0.18469931 0.12326599 -0.46544194 0.4324148 0.42875874 -0.36852634
-0.49218354 -0.12823752 -0.21157591 -0.25596026 -0.3750514 1.0656992 0.91068965 -0.123202555
-0.5959146 0.5517114 0.62250364 -0.376349 -0.19765085 -0.57846904 -0.46582812 -0.06367679
0.36888963 -0.24217258 -0.46834823 0.3294982 0.81993985 -0.72275317 -1.0750494 0.45963097
0.5243389 -0.61098224 -0.8645605 0.19825701 1.1608541 -0.53209776 -0.40059432 0.87604845
-0.4181592 0.21500082 0.16549076 -0.6109697 0.10848678 0.10159081 1.1136992 -0.41160548
0.011767498 -0.27168518 -0.27581897 -0.23981148 0.4473516 -0.040647224 -0.08956785 0.3340389
0.094516784 -0.46474704 0.0774552 0.39795735 0.8468103 -1.7072376 -0.16183446 0.22688928
0.52494884 0.015223563 0.46121386 -0.022365164 -0.2913187 -0.023742087 0.27797818 -0.31137532
0.41179836 -0.43105343 0.15325901 0.46129665 0.50440836 -1.1512305 0.32450858 0.079018794
-0.15828045 -0.024375433 0.4563297 0.024016956 -0.38549477 0.014326325 0.31497172 -0.08919744
-0.30574661 -0.040864516 -0.2970009 -0.81192935 -0.112476006 0.57265806 0.6534881 -0.53181016
-0.1366827 0.10935338 0.45446512 -0.3999041 -0.55559796 -0.083172336 -0.011765035 -0.5725329
1.1405439 0.1777483 0.48175186 1.1232331 0.4526173 -0.7220028 -0.4024538 0.51299745
0.32805815 -0.5583116 -0.16592635 0.26179963 0.57585627 -0.41457307 -0.1519426 0.5956416
-0.51808935 -0.14778782 -0.19981152 -0.46592715 -0.30965894 0.3548851 0.624887 -0.12458506
-0.38783997 0.0024378656 0.41144064 -0.4094706 -0.003119509 -0.27855626 0.23648764 -0.025475899
0.69421816 0.31028855 -0.0016151398 0.2980379 -0.10147739 -0.5561315 -0.30964085 -0.27431732
-0.49362713 -0.083494104 -0.8753668 -0.71247965 -0.24395034 -0.35435745 0.66128093 0.55649924

fc1.bias f4 [128]
00000000: 810e 5f3c 504b ae3a ef1b eebd a643 a5be
00000010: e109 41bf 2ec0 4bbf 2cf6 0dbf f0cb b3be
00000020: 8094 8fbf 069d 04bf ab91 b6bc 34ee b3be
00000030: c4de 0dbf ae3e 0fbf fbf4 34be 2fc8 00be
00000040: 1a4b 0ebf e259 8fbf 693f 16bf 74cf 0ebf
00000050: 2104 bdbf dd54 8cbd e980 00be 96db 1ebe
00000060: cabb 073c b260 c0be da28 20bf 5017 f5be
00000070: f08b fcbe ea2c e3be 7e8a 31bf 50c2 28bf
00000080: 7194 2cbf 5a32 43bf e50e c0be f4c6 24bf
00000090: 3380 6dbd 9176 88be c991 d7be 8878 28bf
000000a0: 9175 23bf 2079 29bf 9282 0bbf 3692 42bf
000000b0: 9ee6 f6be a0e4 c6be 315b 14bf 830c 4bbe
000000c0: 4251 33bd 4ed5 09bf 075a dc3c 940b 7bbf
000000d0: 0ea6 623c 767f b3be 9be4 bfbe be5f 77bd
000000e0: fa56 27bf 151b 8ebe 1f45 07bf f3bf 4abf
000000f0: a489 a3be 163e 4dbf f9bc 01bf 26ed babe
00000100: 7cac 843e 4e0f 15bf 1937 27be cbf0 62bf
00000110: c17c c7be 7921 46bf dcc6 42bf 993e b3be
00000120: 3b40 e2be de92 bcbe 77cc 39bf bca0 20bf
00000130: 5dd7 53bf cac0 d3be e1f8 9cbf 3f44 87bf
00000140: 1b7b 44be d62b 7fbf bbf7 f3be f4b2 61bf
00000150: da73 0cbf 2b6d adbe eae9 16bf c901 4bbd
00000160: 825c 5fbb 45bb 9fbf 13eb 13bf 124a 58bf
00000170: 3498 a0be 25b9 00bf 157d 28bd 1ea2 f7bd
00000180: 5dca 1dbf 8258 3dbf 0975 abbe dd12 09bf
00000190: c5a9 82bd 021a 91be 254e 4bbd c8fe 14bf
000001a0: cdd9 9fbf f044 25be 2960 a7be 7a9d 03be
000001b0: 2598 34be 8e51 fabe f295 04bf f93b 06bf
000001c0: 8cbe c8be 853f 08bf 6d7e 86bf 8221 453e
000001d0: f26b fcbe c285 42bf c706 7ebf 07b9 d3be
000001e0: 0c02 6fbe b067 dabe 9023 9cbe afd4 55bf
000001f0: a88e 2bbf 9c56 34bf 9115 b3be 7835 42bf
0.013614298 0.0013297591 -0.11626422 -0.32278174 -0.754057 -0.7959012 -0.55453753 -0.3511653
-1.1217194 -0.518021 -0.022286257 -0.35142672 -0.5541804 -0.55955017 -0.17671578 -0.12576364
-0.55583346 -1.1199305 -0.58690506 -0.557853 -1.4766885 -0.06852124 -0.12549175 -0.15513453
0.0082845185 -0.37573773 -0.62562335 -0.4786935 -0.49325514 -0.44370204 -0.6935195 -0.659215
-0.67414004 -0.76248705 -0.37511364 -0.6436608 -0.05798359 -0.2665296 -0.42103413 -0.65808916
-0.6385127 -0.6620045 -0.5449611 -0.7600435 -0.48222822 -0.38846302 -0.5795165 -0.19828992
-0.043778665 -0.538411 0.026898397 -0.9806454 0.013833536 -0.35058182 -0.374791 -0.06039404
-0.6536709 -0.27755037 -0.52839845 -0.7919914 -0.3194095 -0.8017286 -0.50678974 -0.36509055
0.25912845 -0.5822648 -0.16329612 -0.8864867 -0.38962367 -0.77394825 -0.76084685 -0.35008696
-0.4418963 -0.368308 -0.72577614 -0.6274526 -0.82750493 -0.41358024 -1.2263452 -1.0567702
-0.19187586 -0.99676263 -0.4764994 -0.88163686 -0.54864275 -0.3387235 -0.58950675 -0.04956225
-0.0034082239 -1.2479025 -0.5778057 -0.8448802 -0.31366122 -0.5028251 -0.041134913 -0.12091468
-0.61636907 -0.7396318 -0.33487728 -0.5354441 -0.06380037 -0.28340155 -0.04963507 -0.58201265
-1.2488343 -0.16139579 -0.32690552 -0.12853041 -0.17636164 -0.48890346 -0.517913 -0.5243526
-0.39207876 -0.53221923 -1.0507332 0.19251063 -0.49301106 -0.7598535 -0.9922909 -0.41352102
-0.23340625 -0.42657232 -0.30495882 -0.83527654 -0.6701455 -0.70444655 -0.3497739 -0.75862837

fc2.weight f4 [64, 128]
00000000: c2be 2fbe f22b 1abf 9f27 9ebe 57d0 1cbc
00000010: ae69 883e d424 fbbe 9d00 f43c c63a 9f3e
00000020: f991 123d c2b4 f7bd b393 3dbf 4c07 a93d
00000030: 6425 843e 199b b5be 1161 853d fdfe e13d
00000040: 9f93 cf3c 094d 37be a656 90be d8b5 373e
00000050: 0409 ba3e c0a0 dcbd c097 bcbe b641 cebc
00000060: 81e6 fdbe 3060 adbd a2b4 42bd c86d 4fbd
00000070: 8ce7 3fbf 365a 03be 09a8 76be 7625 53be
00000080: f0d2 20be cda2 09bd 303b cc3c 114e 3d3d
00000090: 9002 0fbf 16d7 87be 1a85 443e 58f8 b3be
000000a0: 122a 01bf 70dd 283e 145d d03d d742 9b3e
000000b0: 1a8a 663e aa65 51bf c42a b3be 171d d2bb
000000c0: c477 1cbe b99f b13e e90e acbf 6691 c0bb
000000d0: f840 abbd e636 6dbe d966 dabe 13c4 1d3d
000000e0: 8e4e 1e3e 8963 b43c 1a25 14be 44b2 6cbd
000000f0: 822f b9bd 14b9 2bbf 5930 28be 00bc 5cbc
00000100: ebb9 0cbf 966d fc3d 30ad 8dbd 6aac 583d
00000110: f4e6 5bbf 35ba 503e 25e1 783e 7dd2 88bd
00000120: 8483 13be 3a7f 543e a1a1 623e 2455 adbb
00000130: 7bc8 2cbd 50ed b3be 6f3c 15be b849 753e
00000140: 70b3 e03e 6b3a 7b3d c646 aa3d 1aef 92bd
00000150: 85cd 13bf 5721 41be 4446 87ba d903 cfbd
00000160: 0234 86be 3457 8fbe 22d2 fdbd c0e6 b3bd
00000170: 868d 1fbf 295c a43d 13fd 993c b9ba e6bd
00000180: 6729 eebe 7aa1 f4bd af72 a9bd dc70 df3c
00000190: e80f e0be 7cb0 733d ab1e 713e 3396 4ebe
000001a0: 0495 0e3e 364a babe aa0d 013e 199a 6abd
000001b0: 8b98 a83d e061 733e 4e19 643e 96f8 0c3e
000001c0: df95 5b3e e201 8fbe 45c5 a03d 39da 3cbf
000001d0: f635 ffb9 515c e6be 1824 95bd 568b 21bd
000001e0: 6d88 853e 5b60 f7bb c218 2b3d 9056 b2bd
000001f0: 4168 333d 1afb 64be 18c0 09bf 3354 193a
00000200: 8e9a 86be 723b 9dbe 4dad 563e 61fa 263f
00000210: d400 613f d9ad d73d 8c1f 453e 5c4e 403f
00000220: b6a1 6bbe 0b8f 2abe 51d9 683e b841 dabd
00000230: c059 cb3d 6463 7fbe 707f 8b3d de11 a53e
00000240: 39a8 69be 36fc d33e 0116 8fbe ba5f c53e
00000250: 26f9 fa3d 8b55 c53c 06c2 84be 6623 33be
00000260: d933 11be 045e 60be 5b8a ebbe 55eb 68bf
00000270: ff94 02bf fed7 bb3d 7666 cdbd 9376 103e
00000280: 4d62 93be 339d 353d 8e16 c0bc 7a3c e6bc
00000290: ead8 a9be e7e1 493d d63d 81be 6c41 c3be
000002a0: 2395 08bf 10d2 993e ffff ddbd 5cea 4e3e
000002b0: 1965 633e b443 743e 4df8 2cbd 6163 463e
000002c0: 7d26 1a3d 1f6e 313e daa7 193d f4d7 78be
000002d0: 3e1c 423e b3b4 71bd a946 01be 2c23 763e
000002e0: a5c8 873e 6112 883d 74e1 d2bb ef5e 353d
000002f0: 41cc ddbc fd64 253f 8f5e e3be de14 2fbe
00000300: 37e1 683e df6e 103f 28b6 0ebd 656a a7be
00000310: 2740 8b3b 7ecb 9bbc bb6b 17bd f9c8 74be
00000320: 8e18 163e 8c17 8fbf b8b3 11bf e6e6 1b3e
00000330: ab45 f33d 2730 85bd bee2 26be ca07 95bd
00000340: 2df4 153e 8a7a 673e 4140 e53c ca1c 0e3f
00000350: 338c 1ebf bcc2 97bd 15d1 0d3e 2d86 433e
00000360: 08a0 a73d 9abf 023f 0d2e edbe 0edb 5f3e
00000370: ed96 da3e ab8f 9abe e887 723e 6096 71be
00000380: d63d 063e f766 e4bd 9bcb ae3d d420 cebb
00000390: b1c9 a13c be8c a53d a9a9 c33d 8eb6 b23d
000003a0: 903e 27bf 3ecd 233e 60e9 0d3f 3a4e 2c3d
000003b0: 14d8 093e 72a4 343e 7567 463e c4c1 4a3e
000003c0: 37cc 5d3d c142 a7be b615 bd3d 5d80 953c
000003d0: a91c 213d 21ab 8f3e ca83 9abe ef25 f83d
000003e0: 2f6f 483d af33 cc3e a8f9 853e 1de3 78be
000003f0: e648 e33d 3231 adbd 6398 28be 8fec 5ebd
-0.17162612 -0.60223305 -0.30889603 -0.009571156 0.26643127 -0.49051535 0.029785449 0.31099528
0.03578374 -0.12095024 -0.74053496 0.08253345 0.25809777 -0.35469893 0.065126546 0.11034963
0.025338946 -0.1790048 -0.28191108 0.17940462 0.36335003 -0.10772848 -0.36834526 -0.025177818
-0.49589923 -0.08465612 -0.047535546 -0.050641805 -0.7496269 -0.12827381 -0.24087538 -0.20619759
-0.15705466 -0.033602525 0.024930567 0.046217028 -0.55863285 -0.26531285 0.19191399 -0.3515041
-0.5045482 0.16490722 0.10174003 0.30324432 0.22513619 -0.8179575 -0.34993565 -0.006412159
-0.15280062 0.3469217 -1.344205 -0.005876708 -0.08362001 -0.23165473 -0.42656592 0.03851707
0.15459654 0.022020118 -0.14467278 -0.057787195 -0.090422645 -0.6707928 -0.16424693 -0.013472557
-0.5497119 0.12325589 -0.069177985 0.052898802 -0.8589928 0.20383532 0.24304636 -0.066807725
-0.14405638 0.20751658 0.22131969 -0.0052896906 -0.04218338 -0.35141993 -0.14573835 0.23953903
0.438869 0.06133501 0.0831428 -0.07174511 -0.5773547 -0.18860374 -0.0010320623 -0.10108156
-0.26211554 -0.27996218 -0.12393595 -0.087842464 -0.6232532 0.08025391 0.018797433 -0.11266083
-0.46515962 -0.11944862 -0.08273827 0.027275495 -0.43762136 0.05949448 0.23546855 -0.20174484
0.13924032 -0.36384743 0.12602869 -0.057275865 0.0823222 0.23767805 0.22275278 0.13766703
0.2144389 -0.27931124 0.07850126 -0.7377048 -0.00048677594 -0.44992307 -0.07282275 -0.03943952
0.26080647 -0.0075493283 0.041771658 -0.08707917 0.043800596 -0.22361413 -0.53808737 0.00058490335
-0.2628979 -0.30709416 0.20964547 0.652258 0.8789189 0.10531206 0.19250315 0.75119567
-0.23010907 -0.16656129 0.2273915 -0.10657066 0.09929228 -0.24940258 0.06811416 0.32240194
-0.22818078 0.4140336 -0.27946475 0.38549596 0.122545525 0.024088642 -0.25929278 -0.17493972
-0.14179935 -0.21910864 -0.46003994 -0.9098409 -0.510086 0.091720566 -0.100293085 0.14107732
-0.28785935 0.04433937 -0.023448255 -0.02810501 -0.33173305 0.049287703 -0.2524249 -0.3813585
-0.53352565 0.30043077 -0.10839843 0.20206589 0.22206534 0.23853952 -0.042228986 0.19373848
0.03763436 0.17327164 0.03751359 -0.2430113 0.18956086 -0.05901022 -0.12624611 0.24036855
0.26520267 0.066441305 -0.0064355675 0.04427999 -0.027074935 0.6460722 -0.4440808 -0.17097804
0.22742163 0.56419176 -0.034841686 -0.3269836 0.004249591 -0.019017931 -0.036967974 -0.2390479
0.14657804 -1.1179061 -0.56914854 0.152248 0.118785225 -0.06503325 -0.16297433 -0.07276876
0.14643927 0.22605339 0.02798474 0.5551268 -0.6193268 -0.074101895 0.1384929 0.19094153
0.081848204 0.5107361 -0.46324196 0.21860906 0.42693272 -0.30187735 0.23684657 -0.2359252
0.13109526 -0.111524515 0.085349284 -0.0062905345 0.019749494 0.08083485 0.095538445 0.08726226
-0.6532984 0.15996262 0.55434227 0.04206679 0.13461334 0.17640856 0.19375403 0.19800478
0.054149833 -0.32668117 0.09232657 0.018249685 0.039333973 0.28060248 -0.30178672 0.1211661
0.048934158 0.3988318 0.26167035 -0.24305387 0.11097889 -0.08456649 -0.16464381 -0.05442482

fc2.bias f4 [64]
00000000: a2c3 573f 744d eabd c5cf d13e 6e1a 6b3f
00000010: 30c9 913e 8e42 a13e 210d 013f 9054 243f
00000020: a124 30bd c51f 403f 469a 063f 8c0a d73e
00000030: 6201 d93e 2b25 103f a410 03be b610 2f3f
00000040: 136f b13e afd4 3dbe 3558 373e a7ef 903e
00000050: 9313 203f 7e54 4a3f ed35 013f c10e e33e
00000060: f3db 753e d32c 10be 57fe 7b3f de8e 5a3f
00000070: e13e 363f 64c2 0b3f 095b 9a3e 55f2 6d3f
00000080: 2d8b 313f 2e89 c93e 0c2c fe3e 2799 ce3e
00000090: c16f a03e cc53 15be 9d61 bbbd b5c0 3e3f
000000a0: e15f 3f3e 5991 683f 1ae6 503f 29c4 473e
000000b0: 2f0a 533f 505e 683f 8371 623f a307 143f
000000c0: 6352 973e 46d4 223f cccc 503b f6e8 483f
000000d0: 52a9 9f3e c879 c83e 0bb5 02bf 2673 363f
000000e0: 226c a93e 2f30 803f 8d90 453f 7917 a7be
000000f0: f2b3 45be 9ba3 ff3e 9838 4a3f db40 c83e
0.84282887 -0.11440554 0.40978828 0.91837204 0.28473806 0.3149609 0.5041066 0.6419153
-0.043003682 0.75048476 0.5257915 0.42000234 0.42383868 0.56306714 -0.12799317 0.68384874
0.34655055 -0.18538164 0.17904742 0.2830784 0.6252987 0.79035175 0.5047291 0.44347194
0.24009685 -0.14079599 0.98434967 0.8537425 0.71189696 0.5459349 0.3014758 0.92947894
0.6935299 0.39362472 0.4964298 0.4035122 0.3133526 -0.14582747 -0.09149478 0.745128
0.18688919 0.9084678 0.8160111 0.19508423 0.82437414 0.9076891 0.88454455 0.5782415
0.29555044 0.63605154 0.003186035 0.7848047 0.3118387 0.39155412 -0.510575 0.7126945
0.3309031 1.0014704 0.7717369 -0.32635096 -0.19306925 0.4992951 0.78992605 0.3911198

fc3.weight f4 [10, 64]
00000000: ac4b e7be 86c8 c0be 5cd9 5bbf 7709 c5be
00000010: 0c00 d5be 03c0 34bf 7c0a c4be fb6e 19bf
00000020: c940 44bf 3545 13bf 5373 0abf df37 e6be
00000030: 75e6 cdbe 0f3d 0abf f79f 5abd 3397 20bf
00000040: 636f 21bf 7006 66bd 07ce 0fbf 5064 53bf
00000050: de26 b9be 3930 eebe cfe2 0ebf 4145 28bf
00000060: 90c7 86be 72a6 c23d 46ba 99be 9554 1cbf
00000070: 075b 11bf 754f 25bf 2029 15bf a707 0bbf
00000080: 9334 07bf ca34 f3be 2cbf 01bf 4ef2 03bf
00000090: f374 5bbf 650c 8fbe 6cbe f3be fd10 93be
000000a0: bb8f 7fbf 62b0 33bf 1295 67be a638 dbbe
000000b0: 5bf4 20bf a1df 16bf 75d3 adbe 70c8 c3be
000000c0: 4348 d1be 1dd1 66bf 6a10 43bf c811 3abf
000000d0: 7f89 d0be 6035 f6be 007a 41bf 168a cfbe
000000e0: 1ac1 d4be 111d 59be 5540 43bf 1878 c0be
000000f0: 4f95 dfbd 24f9 49bf 8340 20bf 2655 eebe
00000100: efe1 1fbf eac4 0fbf d4fb c4be cc76 71bf
00000110: c645 cfbe 2c06 4fbf da08 31bf 7d53 29bf
00000120: 2da0 0fbf 9528 e1be 024a ecbe d27a babe
00000130: 9f55 cebe 34a3 d6be 181a 13be 58e8 41bf
00000140: 4e59 87be 06e2 4bbd a219 debe 192c f8be
00000150: 6481 01bf a500 acbe d999 75bf 96a3 babe
00000160: 4cf9 a9be 42f4 efbc a0c0 dcbe f8d7 5dbf
00000170: 0d88 1bbf 4700 c7be da81 4dbf 3d6a 37bf
00000180: 196b bbbe 466c aabe 167d 12bf e931 05bf
00000190: d61a 19bf 722e 44be 540d b0be e73d 13bf
000001a0: c03e 13bf 5691 19bf aae6 16bf 519a 7abe
000001b0: d97f 3abf 97b3 5cbf 111a 39bf b993 34bf
000001c0: 629f 20bf 63ff 22bf c23d 4dbf 2e6f 80bf
000001d0: 70fe 85be 8bf4 f2be 0ad7 3abf 40b7 18bf
000001e0: 0f2f e5be f87d 95be f20a 2fbf e0f7 bdbe
000001f0: 6918 ddbd a1f8 2fbf 611f 6dbf 47fd b7be
00000200: bd71 48be 54f6 f1be cf1c 0abf 6521 a6be
00000210: 5f38 eabe 2f81 e0be ea32 c0be 5606 22bf
00000220: c8ba d0be 415f c0be 8cd6 b4be a575 17bf
00000230: e8b3 2dbf 1ca3 78be 14cc bf3c ff69 4cbe
00000240: 7980 e6be bb77 8dbd a2ef e0be ddd0 25bf
00000250: d309 c7be ea19 00bf e519 efbe c74a 17bf
00000260: 03a1 a8be bcbe 93bd 3356 f6be 5e22 d1be
00000270: d2ec 96be c85f cebe d58c 0bbf c100 e9be
00000280: 4d06 aebe 9f92 0cbf 7afa 50bf a8a7 3abf
00000290: bfd5 cbbe 8a45 60bb be03 fabe 26b9 dfbe
000002a0: f362 59bf 03fd bbbe a537 cebe 4485 bebe
000002b0: 2139 45bf 6ef5 89be d417 1cbf db53 9fbe
000002c0: 19a9 edbe 07b1 26bf f654 51bf 7f1b 3abf
000002d0: ac0e 15bf 1cea 2fbf db6e 3fbf 09fb 13bf
000002e0: 23f7 42bf 12ff 56be f0dc 18bf aa7d 00bf
000002f0: 5a92 d2bd 7015 a8be bdb0 aebe 9e3a 08bf
00000300: 9a77 58be 5a26 c1be 2e07 06bf 5346 1bbf
00000310: 8049 82be 48b5 cfbe b908 04bf 3dd8 debe
00000320: f57c 40bf 4cba 24bf 1892 bfbe 2794 3cbf
00000330: 598c 4bbf df8a febe 7d70 babd 429d 0abf
00000340: 3050 37bf 8a23 81bc 2774 e5be 4a5d c9be
00000350: 1fb5 25bf d3bc 34bf 8816 36bf b41e e3be
00000360: ef18 e9be 7756 1abe ae7e 2cbf b232 22bf
00000370: 4c85 8cbe 8fda ffbe 9e0d f4be 2173 35be
00000380: 28fa 07bf b3f5 35bf 4595 0dbf 5fe0 d7be
00000390: dba3 08bf 77e6 02be 86d8 cbbe d3c9 32bf
000003a0: 6c50 16bf 1a8f cfbe d1d9 1cbf 1b64 b4be
000003b0: 24d7 05bf ca5c 26bf 7072 2cbf 430b e5be
000003c0: a8bb 0abf 6d2b 2ebf 9c97 96bf 2d03 39bf
000003d0: 7216 1bbf 680b 72bf 7bd2 2abf e76a e3be
000003e0: 318b 34bf ee13 09bf dd84 2fbf e0e4 0fbf
000003f0: 1760 023d 94d1 a8be 3d5d 0bbf f257 1dbf
-0.4517492 -0.37652987 -0.8587854 -0.38483784 -0.41601598 -0.70605487 -0.3828925 -0.5993497
-0.76661354 -0.57527477 -0.5408222 -0.449645 -0.40214887 -0.5399942 -0.05337521 -0.6273071
-0.6306059 -0.056158483 -0.5617375 -0.8257494 -0.36162466 -0.46521166 -0.5581483 -0.65730673
-0.2632413 0.09504403 -0.30024928 -0.6106656 -0.5677952 -0.64574367 -0.58265877 -0.5430855
-0.52814597 -0.47501212 -0.5068233 -0.515416 -0.85725325 -0.27939144 -0.47606218 -0.287239
-0.9982869 -0.70191014 -0.2261546 -0.42816657 -0.62872857 -0.5893498 -0.3395039 -0.3823886
-0.40875444 -0.9016283 -0.7619692 -0.7268338 -0.407299 -0.48087597 -0.7557678 -0.4053504
-0.41553575 -0.21202494 -0.7627004 -0.37591624 -0.1091715 -0.78895783 -0.6259844 -0.46549338
-0.6245412 -0.5615984 -0.3847338 -0.94321895 -0.4048292 -0.8086879 -0.6915413 -0.6614302
-0.56103784 -0.43976274 -0.46150213 -0.3642183 -0.402997 -0.4192139 -0.14365423 -0.75745153
-0.26435322 -0.0497761 -0.4337893 -0.48471144 -0.5058806 -0.33594242 -0.9593788 -0.3645293
-0.3319801 -0.029291276 -0.4311571 -0.8665767 -0.6075447 -0.388674 -0.8027626 -0.7164648
-0.36605147 -0.3328573 -0.57222116 -0.5202928 -0.59806573 -0.19158342 -0.3438517 -0.5751633
-0.57517624 -0.5998739 -0.58945715 -0.2447293 -0.7285133 -0.8621153 -0.723054 -0.70537907
-0.627432 -0.6367094 -0.8017236 -1.0033929 -0.26170683 -0.47452196 -0.72984374 -0.5965462
-0.44762465 -0.2919767 -0.68376076 -0.37103176 -0.107956715 -0.6873875 -0.92626005 -0.35935423
-0.19574638 -0.47258246 -0.5395021 -0.32447353 -0.45746133 -0.4384856 -0.37538844 -0.6329092
-0.40767503 -0.37572673 -0.35319936 -0.59163886 -0.6785264 -0.24280971 0.023412742 -0.1996231
-0.45019892 -0.069076024 -0.43932825 -0.64771825 -0.38874683 -0.5003954 -0.46699443 -0.59098476
-0.32935342 -0.07214114 -0.4811264 -0.40846533 -0.29477555 -0.4030745 -0.5451177 -0.45508388
-0.33989182 -0.54911226 -0.81632197 -0.72912073 -0.39811513 -0.0034221136 -0.4883098 -0.43695945
-0.8491661 -0.3671647 -0.40276828 -0.3721105 -0.77040297 -0.2694506 -0.6097386 -0.31118664
-0.46418074 -0.6511387 -0.81770265 -0.72698206 -0.5822551 -0.687166 -0.7477853 -0.57804924
-0.7615835 -0.20995739 -0.59712124 -0.5019175 -0.102818206 -0.32828856 -0.34119216 -0.5321444
-0.21139374 -0.37724572 -0.52354705 -0.6065418 -0.254467 -0.40567994 -0.5157581 -0.43524352
-0.7519067 -0.64346766 -0.37416148 -0.7366356 -0.7951103 -0.49715325 -0.09103487 -0.54146206
-0.7160673 -0.015764017 -0.4481518 -0.39328986 -0.64729494 -0.7060062 -0.7112813 -0.44359362
-0.45526835 -0.15072046 -0.673808 -0.63358605 -0.27445447 -0.49971434 -0.4766664 -0.177197
-0.53116083 -0.7107803 -0.5530589 -0.4216337 -0.53375024 -0.12783228 -0.39813632 -0.6983921
-0.58716464 -0.40538865 -0.6126986 -0.35232624 -0.52281404 -0.64985335 -0.6736212 -0.44735155
-0.5419259 -0.6803501 -1.1765018 -0.7227047 -0.60581124 -0.94548655 -0.6672742 -0.44417498
-0.7052489 -0.53546035 -0.6856211 -0.5620861 0.03182992 -0.32972395 -0.54439145 -0.6146232

fc3.bias f4 [10]
00000000: 7d80 5dbe ed53 22bd d510 04bf 29d9 663e
00000010: f64a 46be cd5c 033e 048d 60be f29a 3abe
00000020: 3a09 1b3e b6f8 133e
-0.21631046 -0.03963082 -0.51588184 0.22543778 -0.19364533 0.1282837 -0.21928793 -0.1822317
0.15140238 0.14450344
