simple/simple_cifar_hinge.pth (torch, 63897 bytes, 6 tensors)

fc1.weight f4 [128, 48]
00000000: e2d1 aa3e 996b d93e c1bb 293f cf63 d53e
00000010: 090e 8f3d 8abf 94be 6afd ebbd eba3 a83c
00000020: bc34 143f 8095 40be a21a debe 8bb3 fa3e
00000030: d93d 7d3e 31df 2d3f 6312 db3e 148e 813e
00000040: c2f8 b8bd d849 09be 9eef 293e 8f69 7abe
00000050: cfbf 93be 180d e83e 695c ec3e 3159 84be
00000060: a239 9dba 91d2 913e b079 833d 6361 bd3c
00000070: 7fc0 5bbe 728d debd e972 63be f471 c83b
00000080: 8651 adbe f4b0 88bd 1607 c6bd ae16 f5be
00000090: 6acc 2cbe 2b50 19be 530d a3be c0ee 95be
000000a0: d0e9 993d ee88 443e feb4 d3bc 2575 083e
000000b0: 0971 02bd 6bd9 7fbe 47b0 a3be dbfb 9b3e
000000c0: 7909 573e b2af 0d3e b352 843e 4da1 c33e
000000d0: 3928 3b3e 74dd e83d a31b c0bd 27c3 fe3d
000000e0: ffd7 ee3b 289a 403e 9bd3 cd3d 41a9 063c
000000f0: 3246 c2bd 2ad0 1a3f bb74 083f a9ba b93d
00000100: 9e5f 8fbe fbbf 82be 8faa b7be efa8 d0be
00000110: b7ac 95be e2fb 3b3e d8b7 863e 7e2a 8fbe
00000120: 4836 1abf 6ca6 b43e d26b 4a3e d170 e0be
00000130: d0ca 22bf 66be dc3d 930b 7a3d a7c9 0fbf
00000140: b3b8 e33d ee18 263e 6413 dc3d 940a 3f3d
00000150: c43c 073d 8911 96be acc3 f8be f668 8a3e
00000160: ed60 a6be 896f 143f e90d 343e dd5d 3fbe
00000170: 34ed f3bd 2abe 023f 7600 103f 2712 89be
00000180: 95d3 283d 3a79 933c e8a0 2c3e 9d29 9f3e
00000190: 99c6 093e b6e8 02bf d93c e9be 15b9 ea3e
000001a0: 410e a6bd c15d 44bc 35c4 5e3e c333 60bd
000001b0: 4b4a 323e fa06 e73c 37c8 4fbe 82d1 2e3c
000001c0: 0e7e bc3b 7fb0 86bd 0314 aabd cb24 c0bc
000001d0: 375d 2dbc 9d27 88be 1a52 aa3d 3c47 6a3e
000001e0: 041a d8bd e84a db3e d99f 2f3f 5147 8cbd
000001f0: 634a 96be 227c c1be 1fc7 82be d260 babc
00000200: dfee 82bc 2390 923e 9072 4e3e 2375 1fbe
00000210: 56c7 363e 72b4 de3d 3c6a cb3d 0e7c 913c
00000220: 2b35 72be db79 143f 588c 073f ad92 fbbe
00000230: 8c78 973c bfa3 eb3c 45df af3d 505a c0bb
00000240: ecf1 90be a2ce b13e 01b7 303f 6202 3ebe
00000250: ade2 833e e54d 00bf e311 04bf 00ac 8d3e
00000260: 213f 803e 8ed2 a43d 903c 1ebe 1b51 2f3e
00000270: 80bd c03c 1a0f 963d c3ee 0dbe d477 21bd
00000280: d7fa 4fbd e0cd 3a3e bcef 1b3f 606f c8bd
00000290: 1969 df3d 3425 64bd 8ab8 633d c508 fc3d
000002a0: 86a7 ecbd 28da 81be 3670 9fbe 2abd e9bd
000002b0: f1d2 3fbc 519a 33be 3e8b c1be 69bd 31be
000002c0: ee14 77bf 237b f9bd ead6 da3e 8817 4ebf
000002d0: b8c9 0cbe 416f 8e3e ec49 e93e f6f2 32bd
000002e0: 2355 2abe ea96 0a3f 301b 0d3f a6c2 31be
000002f0: 84ee 53bd 4f2a c83e e037 de3e f51b bc3d
00000300: 219e 03be 1097 23bf e99f eabe 0746 17be
00000310: ad62 fd3e 5f02 cf3e 5188 273f cd18 a73d
00000320: 1cf7 fc3e 4f7a 85be b7df 1abe a186 bc3e
00000330: f151 dcbd 348b cdbe 1b86 cabe 6b46 403e
00000340: b6b5 4a3d e0a9 023d b515 51be 80fa 9e3e
00000350: a16f c5bd 082b 49bb 6443 9abd d054 05bf
00000360: 264d 123d ede9 a9bd 13c1 03bb f483 bd3d
00000370: 1ed2 0cbe f4c9 9e3e b32d b33e 9e4e a8be
00000380: e666 be3e 2e99 003f 51a6 c33e 7dab 5e3f
00000390: 387c 26bf c6c8 b63d 6a0e c83d 78ea 36bf
000003a0: 1973 adbd 9444 8e3d c451 f3bc 0749 5abe
000003b0: 0889 3ebe 3803 993d 4728 3a3d 4e63 2abe
000003c0: 39da e83e c570 9e3d d4fb c2bc 86c6 bd3e
000003d0: 5b4f aebd c0fe dfbc 3c69 a2bd 808b a3be
000003e0: fb64 0cbe 8185 483e 4e97 ca3e bcad a5bd
000003f0: 59e3 873e 6d81 d63e a048 b03e 8062 9b3e
0.33363253 0.42464903 0.66302115 0.4167771 0.06985099 -0.29052383 -0.11522944 0.020585975
0.57892966 -0.1880703 -0.43379694 0.48965105 0.24730624 0.6791869 0.42787465 0.2530371
-0.09031822 -0.13407075 0.16595313 -0.2445433 -0.28857276 0.4532249 0.46164253 -0.25849298
-0.0011995325 0.28480962 0.064196944 0.023117727 -0.2146015 -0.10866822 -0.22211803 0.0061171
-0.3385126 -0.06674376 -0.0966932 -0.47868866 -0.16874853 -0.14971988 -0.31846103 -0.29283714
0.07515299 0.1919286 -0.02584314 0.13325937 -0.03184608 -0.24985282 -0.31970426 0.30465588
0.20999707 0.13836554 0.25844344 0.38209 0.18277062 0.11370364 -0.09380271 0.12439566
0.0072889323 0.18808806 0.10050126 0.008219064 -0.09486045 0.60473883 0.53303117 0.09068806
-0.28002638 -0.25537094 -0.35872313 -0.40753886 -0.29233333 0.18357804 0.26312137 -0.27962106
-0.60239077 0.3528322 0.19767693 -0.43836072 -0.6359072 0.10778503 0.061046194 -0.5616707
0.11119213 0.16220447 0.10745886 0.046640947 0.033016935 -0.29310253 -0.48586786 0.27033204
-0.32495824 0.5798269 0.17583431 -0.1868815 -0.11910477 0.5107142 0.56250703 -0.26771662
0.041217405 0.018002141 0.16858256 0.31086436 0.13454665 -0.5113634 -0.45554236 0.4584433
-0.081081875 -0.011985243 0.21754535 -0.054736864 0.17411153 0.028201569 -0.2029122 0.010670068
0.0057523316 -0.06576633 -0.08304598 -0.023455044 -0.010581306 -0.26592723 0.08316441 0.22878736
-0.10551837 0.42830586 0.68603283 -0.0684954 -0.29353628 -0.37790018 -0.25542542 -0.022751246
-0.015983043 0.28625593 0.2016089 -0.15572028 0.17849478 0.10874261 0.09932372 0.01775935
-0.23653094 0.57998437 0.5294852 -0.49135342 0.018490098 0.028764604 0.08587507 -0.005870141
-0.28309572 0.3472796 0.6902924 -0.18555596 0.25758877 -0.5011886 -0.5158979 0.27670288
0.25048164 0.080479726 -0.1545279 0.17120783 0.02352786 0.07327099 -0.13860612 -0.039420918
-0.05077633 0.18242598 0.6091268 -0.09786868 0.10908718 -0.055699542 0.055595912 0.1230636
-0.1155539 -0.25361753 -0.31140298 -0.11413033 -0.011708007 -0.17539336 -0.37801546 -0.1735741
-0.9651631 -0.121816896 0.4274209 -0.80504656 -0.13748825 0.27819255 0.4556421 -0.043688737
-0.1663404 0.54136527 0.5511961 -0.17359409 -0.051741138 0.3909478 0.43402004 0.0918502
-0.1285329 -0.6390238 -0.45825127 -0.14772807 0.49489346 0.40431497 0.6544238 0.08159027
0.4940728 -0.26069877 -0.15124403 0.36821464 -0.107578166 -0.40145266 -0.3955544 0.18776862
0.0494897 0.031900287 -0.20418437 0.3105049 -0.09640432 -0.0030695815 -0.07532385 -0.5208254
0.035718106 -0.08296571 -0.0020104095 0.09253684 -0.13752028 0.31013453 0.34995803 -0.3287248
0.3718788 0.50233734 0.38212827 0.8698042 -0.6503329 0.08925013 0.09768374 -0.7145152
-0.08469219 0.06946674 -0.029702075 -0.2131692 -0.18606961 0.07471317 0.045448568 -0.16639444
0.4547899 0.07736353 -0.023801722 0.37065524 -0.085112296 -0.027343154 -0.07930228 -0.31942368
-0.13710396 0.19582178 0.3956856 -0.08089778 0.2654064 0.4189562 0.34430408 0.30348587

fc1.bias f4 [128]
00000000: 5465 56bf a312 aebe 6285 e2bd 782f 0cbe
00000010: feec 5fbe bc37 a3be 20ea edbe ef3d c23d
00000020: cdc8 d6be 4e2b 3a3e 5c5a 5cbe 1a54 72bf
00000030: 1c51 03bf 87e6 10be da90 2fbe 12da 84be
00000040: 2637 9dbe 7487 17bd 1298 42be 3a0a fdbe
00000050: 576a b7be 69d7 34bf 7ee3 a1be db9c 32be
00000060: 9888 43bf 7b0a d6bc 8ada f9be 568b 01be
00000070: def1 debe 1f72 e3be a535 cdbe 0c42 28bf
00000080: 5f40 10bf e99e 83be 09ad eebd 6f59 1cbe
00000090: f3d8 5ebe 1b6f 58be ad64 d1be eb4a 8fbe
000000a0: ece7 9abe d2c0 b0be 7848 0fbf 69f2 43be
000000b0: 0ba2 8cbe 28e9 d4be fc75 c0be b057 85be
000000c0: ae4f 08bf 4179 ecbe a65b 703d 6a81 2bbe
000000d0: 5d78 10bf 52fb 1a3e e559 7cbe 24da 38be
000000e0: 970f 06bf de5c 5bbe a8a0 e5be 1d62 21bd
000000f0: 8939 f1be 445d c7be 7857 70be 40f8 6cbf
00000100: 0df5 75bd f315 d43c 3dee de3d f55c 80be
00000110: 63e1 c2bd 5374 3abf 2110 35be 6111 11bf
00000120: 9c38 10bf 1b16 bdbe 7d11 21bf 26f1 eebe
00000130: 3e6b b8bd d6a7 3ebf d6c6 c7be 8e0a 60be
00000140: a011 21bf 1cb6 90be 7c69 71be 3658 51bf
00000150: e886 d7be e77e 6bbf b41e adbd 9497 d3be
00000160: 8054 a6be 997b 43be ac3e d0be a0fd 20bf
00000170: fd8a d2be 9ee6 d1be 1863 66bd fea3 31bf
00000180: 4d8c bebe 0fdf 98be 687d 05bf 80c5 8abe
00000190: 15e0 0ebf 5c85 34be e2bd 77be d16f e4be
000001a0: 0f11 17bf 8b1a 00bf b6b6 4fbf 3bec c6bd
000001b0: b7b7 97be 9cc5 3cbe 5c70 aebe adca b4be
000001c0: 6540 febe ce3d f8be 3241 0dbe 9007 afbe
000001d0: 4e56 21bf 9e69 e6be 8fe6 b3bd dc26 0fbf
000001e0: 72dc da3d 98c5 e9be 88b5 05bf 8e0a 7ebe
000001f0: 04c8 b8be c770 2d3e 119f a1be ddca 0dbf
-0.83748364 -0.33998594 -0.11060597 -0.13689983 -0.21867749 -0.3187846 -0.46467686 0.09484469
-0.41950074 0.18180582 -0.21518844 -0.9465958 -0.5129564 -0.14150439 -0.171451 -0.25947624
-0.30706137 -0.036994413 -0.19003323 -0.49421865 -0.35823318 -0.7064119 -0.31618875 -0.17442648
-0.763803 -0.026128044 -0.48799545 -0.12650809 -0.43543905 -0.44423005 -0.4007999 -0.6572578
-0.5634822 -0.25707176 -0.116540976 -0.15268491 -0.21762447 -0.21136133 -0.40897122 -0.27986845
-0.30255067 -0.3452211 -0.55969954 -0.19135441 -0.2746738 -0.41584134 -0.37590015 -0.26043463
-0.5324658 -0.4618626 0.058681153 -0.16748586 -0.5643366 0.15134934 -0.24643667 -0.18051964
-0.5236754 -0.21422145 -0.44849133 -0.03940021 -0.47114208 -0.38938344 -0.23470867 -0.925663
-0.06004815 0.025889372 0.10885284 -0.2507092 -0.09515645 -0.72833747 -0.17681934 -0.56667143
-0.5633638 -0.36930928 -0.6291731 -0.46668357 -0.0900483 -0.7447485 -0.39018887 -0.21879026
-0.6291752 -0.28263938 -0.23575395 -0.81775224 -0.42095113 -0.9199051 -0.08453122 -0.41326582
-0.32486343 -0.19090118 -0.40672815 -0.62887 -0.41121665 -0.4099626 -0.056246847 -0.6939086
-0.37216416 -0.2985768 -0.5214448 -0.27103806 -0.5581067 -0.17628998 -0.24193528 -0.4461656
-0.59010404 -0.500405 -0.8113817 -0.09713026 -0.2963235 -0.18434757 -0.34070098 -0.3531088
-0.49658504 -0.48484653 -0.13794401 -0.34185457 -0.63022316 -0.45002455 -0.0878421 -0.5591867
0.10686578 -0.45658565 -0.5223012 -0.24808714 -0.360901 0.16937552 -0.3156667 -0.5538767

fc2.weight f4 [64, 128]
00000000: 3bc6 0cbe e8b8 a1be da98 f1bc 65cf 6dbe
00000010: b093 5ebe 6ffc 4cbd 8b47 ed3d 02b6 473d
00000020: 65bc 22bd f38a 4abf 3dcd 8dbe c179 c5be
00000030: 51a9 3abe eec3 dfbe 4991 f2be 964c adbb
00000040: 0891 873c 893b f6be b3c6 023d 3b43 b7bd
00000050: 58da 3bbe 848a 2b3e 4d33 603e c500 b13c
00000060: e369 dcbd a506 153e cea5 95be f867 b13c
00000070: 3369 1cbf 2474 9d3c 4e56 61be 6e09 1ebe
00000080: b48a ae3e 237e f03d 83f0 fc3c e5ac efbd
00000090: 9e72 4bbf 7276 423e 3a53 eabe 7fd7 d2be
000000a0: aff6 a3bb 59bc 2cbf 3257 373e 4180 80bc
000000b0: 8317 4abe 5e0c 383e 1f42 24be af17 07be
000000c0: 538e fe3d caee 853d 4854 3ebd 0b76 ab3d
000000d0: 0307 01be f6bd 8bbe e468 81be 241d 2bbe
000000e0: ffa4 423d ccf5 04bf 8f52 03bf 7190 0e3e
000000f0: 1f44 093d 4f89 233b 7e2b 63bf 2417 133f
00000100: 8786 26bf 388f c8be cdf6 383d 8e9c 36bf
00000110: bfbc adbe 62c7 9abe 5425 823d d281 543d
00000120: c6d3 a53d 313b 8b3e 57bf 64be 7b72 443e
00000130: 9600 86bd 1b69 eb3d c3db 0abe 7e7d 16bf
00000140: d294 99be 1d60 6cbb f93a 6fbe 31e1 a73e
00000150: 6161 0b3e b60d 09be af38 f4bc e365 27bf
00000160: d17a d73d 2dc8 4bbe 085f 8cbc ffab 6d3e
00000170: 7f4a 86bd 717d 27be 9702 b33d 4668 003e
00000180: 8995 b2bd f068 59be c177 0bbf d92f 7a3e
00000190: 4305 3f3e 9a5c fbbe 5b6f 25bf ba1f 983c
000001a0: 9c0d 273d 1146 14bf e31e 0cbe 85dc 54bd
000001b0: d098 ca3c 293c 09bc ed47 9a3e e08d 253e
000001c0: 09a3 8cbd 05d3 743e bb04 be3e 00b3 7c3d
000001d0: 389d 223d 0775 39be b284 afbe d972 ae3e
000001e0: d0b9 68be 6cce a6bd 89b5 94bd f334 55be
000001f0: 5c91 93be 0a5e 7fbe 4e53 f03d fb3b a83d
00000200: 803a 9cbc 2991 18bf f927 1ebe f482 953b
00000210: afcc 713e 063c e03d 10c8 31bf 003a 2bbd
00000220: a46a 92be a42b 6fbc e941 a5be 8f65 84be
00000230: 55f1 cbbe 1699 47bf 5a70 1b3e 2f5b 143c
00000240: d00a 2abc d022 40bf 0960 1a3e 27f6 34be
00000250: 3cb0 9cbe 6491 bcbd 7fcf 96bd 0195 d8be
00000260: 6cf6 9fbe bd41 4ebe bed9 f1bd d50e 633d
00000270: 58bc 993e d0eb 32be 4326 4abf 841b dbbc
00000280: c536 59bc 1f0a 92be 862b 1bbe 0fa1 ddbe
00000290: 6612 d1bd f671 82be def9 f2bd 40e0 39be
000002a0: d6d1 a4be 8af0 38be 825d 003e 5a52 b63d
000002b0: ff88 e93c c6ed 0e3d c0d6 a0be cc2c 9fbe
000002c0: 8502 57be f708 9a3c dc1f 5abe a175 0f3e
000002d0: 3650 12be d657 893d a5c1 1abf f96b b9bd
000002e0: ff28 10be c4c1 b1be cf09 ed3d a8f8 febe
000002f0: 5ba2 1abe 42ec 76bd 5ebf 66be b04e a33e
00000300: 5369 e83d 6a7e 27bf 44da 043d 2340 06bf
00000310: b540 a2be 7e56 7cbf 721f c3bc 51fb 23be
00000320: 29a8 e03d 1862 463b 0c07 80bd 9856 a5be
00000330: 7353 d5bd 6ce9 b43e 093c 10bc 99d5 9bbe
00000340: 16c6 84be 889f 31bd 6e84 92be 68d1 743e
00000350: c5ed c2be fa59 153e 7b36 64be 8a75 a23d
00000360: 95fa 8e3e de64 d6bd a865 89bd 8f5b 1f3d
00000370: 7967 6b3e 7beb 1bbe a3bb d33d ff24 40be
00000380: a1c8 73be f09d d4be a812 eb3d 0381 c43d
00000390: 06ee bcbe 1c82 383e 66f2 83be d942 dd3e
000003a0: ba30 933d 09a7 00bf 31ec 0f3e 9105 d03d
000003b0: 9aaa 333e 8561 743e 8da1 8cbe 4549 7b3e
000003c0: 26b8 77bd 70a3 d03c 4b90 36be 5d80 0ebd
000003d0: 30ae 84be 8154 d2be fc28 02bf 1275 a53d
000003e0: 9845 1dbe d42f 5e3e 872c 243e e571 173f
000003f0: 3c4d 623e 8754 a03d cb13 9bbe 4378 82be
-0.13747494 -0.31586385 -0.02949183 -0.23223646 -0.21736026 -0.050045427 0.11585911 0.04875756
-0.03973045 -0.7911827 -0.27695647 -0.38569453 -0.18228652 -0.4370417 -0.4737647 -0.005288671
0.016548648 -0.48092297 0.031927776 -0.0894837 -0.1834501 0.16752058 0.2189457 0.021606812
-0.10762384 0.14553316 -0.2922806 0.021656021 -0.6109802 0.01922042 -0.22005579 -0.15433285
0.34090197 0.11742809 0.030876404 -0.11702899 -0.79471767 0.18990496 -0.45766622 -0.41180035
-0.005003772 -0.67474896 0.17904356 -0.015686156 -0.19735532 0.17973468 -0.16040848 -0.13192628
0.1242949 0.06539686 -0.046467096 0.08372124 -0.12600331 -0.27293366 -0.25275338 -0.16710335
0.047520634 -0.51937556 -0.5129785 0.13922288 0.03351223 0.0024953668 -0.8873824 0.57457185
-0.6504902 -0.39171767 0.045157243 -0.71332633 -0.33933064 -0.30230242 0.06354776 0.05188162
0.08097033 0.27193597 -0.22338615 0.19184296 -0.065430805 0.11494657 -0.13560395 -0.58785236
-0.29996353 -0.003606803 -0.2336234 0.32788995 0.13611366 -0.13384137 -0.029812185 -0.6538984
0.10521472 -0.1990058 -0.017135158 0.23210143 -0.06557178 -0.16356446 0.08740728 0.12539777
-0.08719928 -0.21231437 -0.54479605 0.24432315 0.18654351 -0.49094087 -0.6462304 0.018569816
0.040784463 -0.5791941 -0.13683657 -0.051968116 0.02473107 -0.00837616 0.30133 0.16167402
-0.06867034 0.23908623 0.37112984 0.061694145 0.039700717 -0.18111049 -0.34280926 0.34071997
-0.22727132 -0.081448406 -0.072611876 -0.2082098 -0.28821838 -0.24938217 0.11734639 0.08214565
-0.019070864 -0.59596497 -0.15444936 0.00456273 0.23613237 0.109489486 -0.69445896 -0.04180336
-0.28596985 -0.014597807 -0.32276848 -0.25858733 -0.3983256 -0.77967966 0.15179577 0.009054943
-0.010378554 -0.7505312 0.15075697 -0.17672025 -0.30603206 -0.092074186 -0.073637955 -0.4230118
-0.31242692 -0.20142265 -0.11809109 0.055434067 0.30026507 -0.17472768 -0.7896463 -0.026746519
-0.013257687 -0.28523347 -0.15153322 -0.4328694 -0.10208587 -0.2547757 -0.11864065 -0.18151951
-0.32191342 -0.18060508 0.1253567 0.08902426 0.028507708 0.034894727 -0.3141384 -0.31088865
-0.20997055 0.018803103 -0.21301216 0.14009716 -0.1428841 0.067062065 -0.6045173 -0.09053797
-0.14078139 -0.34718144 0.115741365 -0.49799085 -0.15100996 -0.060283907 -0.22533938 0.3189597
0.11348214 -0.6542727 0.032434717 -0.52441615 -0.31689993 -0.98569477 -0.023818705 -0.16013838
0.10969574 0.003027087 -0.06251344 -0.32292628 -0.10416307 0.35334337 -0.008803376 -0.304364
-0.25932378 -0.04336503 -0.2861666 0.23908007 -0.3807203 0.14585105 -0.22286408 0.07932575
0.27925554 -0.10468458 -0.067088425 0.038905676 0.2298869 -0.15226547 0.10338523 -0.18764113
-0.23807003 -0.41526747 0.11478168 0.095949195 -0.36900347 0.18018383 -0.25770873 0.43215063
0.07187028 -0.50254875 0.14054944 0.10157312 0.17545548 0.23865326 -0.27467003 0.24539669
-0.060478352 0.025468558 -0.17828481 -0.034790386 -0.25914145 -0.41080096 -0.5084379 0.0807897
-0.15358579 0.21697932 0.16032611 0.59158164 0.22099775 0.07828622 -0.30288538 -0.25482377

fc2.bias f4 [64]
00000000: aa05 283f 0b55 1a3f c67e cc3e 41de 1a3f
00000010: 3f91 16be 0759 0b3f b377 7d3e c561 f63e
00000020: 3ea6 b53e eb2b 843e 9093 9e3e 7f31 97be
00000030: 0471 853e 5c8b 1f3f 1457 cc3d 795d 993e
00000040: 64a1 203f 8579 573f 66d5 933e 980e df3d
00000050: a6ca 253f 473f b23e c2b6 29bd ba57 243f
00000060: b0ef d43e 4fd4 083f de56 a83e d572 a63e
00000070: 8264 253f c284 193f 5fc3 073f 61c5 fe3e
00000080: bc23 b03c 3d73 c03e c93d 5b3e 6cb1 e33c
00000090: 88d4 8c3e 8cb2 433e dd17 f23e fc62 483e
000000a0: 4f3e 6abe 041e ce3e 3174 57be 6d0f 143f
000000b0: 9e54 b93e 1b93 a23e 8b6e 9c3e 15dc ee3e
000000c0: 670a 063f 2f02 513f 6a59 f03c 4913 503f
000000d0: e983 3f3f a544 1f3f f387 8a3e 187b 133f
000000e0: 0bbc 553f 567c 733e 7bf9 c23e 0d2f 623d
000000f0: be4a 823e 12e1 273e 0b1e 9b3e 8ce9 0e3f
0.6563364 0.60286015 0.3994047 0.6049538 -0.14703844 0.5443272 0.24752693 0.48121467
0.35478395 0.25814757 0.30971956 -0.2952995 0.26062787 0.6232202 0.09977546 0.29954126
0.6274626 0.841698 0.28873748 0.108914554 0.6476234 0.34813902 -0.041434057 0.6419636
0.41589117 0.5344896 0.32878774 0.32509485 0.6460649 0.599682 0.5303249 0.49759963
0.021501414 0.3758792 0.21410288 0.027794562 0.27505898 0.19111079 0.4728383 0.1956901
-0.22875331 0.40257275 -0.21040417 0.5783604 0.3619737 0.31752858 0.30553088 0.46652284
0.5235962 0.81643957 0.029339511 0.81279427 0.74810654 0.6221412 0.27056846 0.576097
0.83490056 0.23777899 0.38080963 0.055220652 0.2544765 0.16394451 0.30296358 0.55825114

fc3.weight f4 [10, 64]
00000000: 3343 f2be bc3e c7bd 3a8c 8cbe c507 b4bd
00000010: 5cd4 8f3c e7cb b5be 5ab8 7bbd 8f26 fcbd
00000020: fa46 0bbf 0bbe bcbd 327c f4be e09f 1bbe
00000030: 3569 fbbe 42d2 aebe bef1 fdbe 57ec 29be
00000040: 4dcc b0be 1c82 c4bd 9c2c bbbe 2f5d 2ebe
00000050: 19ad 6c3e cf01 8cbe 1339 33bf 0e53 48be
00000060: e5f0 1abe 76b9 8dbe b510 a0be 94dd 8abe
00000070: 9f53 29be eb84 963b c4f8 babe e2e9 9abd
00000080: 9ea3 62be 6f9a 92be 8273 96be 4345 a5be
00000090: 2dd7 91bd 62c2 1fbd 0fce 963b 828a 96be
000000a0: 2e8f f8bd 1cba ccbe 55c6 25be 5bf0 acbd
000000b0: acf1 f3be 4f39 dcbe f9f2 d2bd 0005 36be
000000c0: 15a9 8abe e01d 03bf e0a5 b8be 0b43 b5bd
000000d0: 9167 2ebf ccef bebe 80ed 0cbe 20fc 45bd
000000e0: 0eea d1be 831c edbe 95a5 63bd 80ae 99be
000000f0: 1f62 1dbf 46c0 8abe 7ed6 85bc 2245 7ebe
00000100: 1e70 9ebe e137 8bbd 116c 2ebf e7d0 dabe
00000110: f966 e13c 4788 03bf c72d aabe a105 d1be
00000120: 3fa5 47be 75f7 63bd 028c d3bd 73df 9dbd
00000130: 524a c8be 9037 1fbf f58f 3bbe cd6d 67be
00000140: 3161 d4be 2e32 1abf 10a4 f13c aafa 40be
00000150: 3a2f a6be 70de a6bd 4637 05bf 9437 f2be
00000160: 55e3 07bf e930 79be 7e11 d9be 7e89 ca3d
00000170: e788 e9be bfc1 14be 6c8f b2be 7abf 90be
00000180: 9053 bfbe e357 45bd 7011 10be 88df b3bd
00000190: edc1 26be 5693 66bc 2091 ccbe c1c2 dbbd
000001a0: df59 6abe 219a 67bd dcff 61be 2998 a3be
000001b0: 5184 30bf 3004 03be 2484 c1be 4777 b2be
000001c0: b4c8 aebe b901 c8be e1f7 75bc 27d7 14bf
000001d0: c1db debe 4c2d 9fbe 42e3 2ebe 6b2e 05be
000001e0: 6750 23bf 0c83 0cbf ab37 14bf 7772 87be
000001f0: c7ec 6bbe 1750 b6be 59b7 82bd 95bd 2bbe
00000200: 193e 06be 5e41 1bbe 34ce b4bd 204f 1abe
00000210: 42c9 2ebd 665e 1abd 3045 1dbe 2691 4fbe
00000220: 5abb c1be dff7 2ebe 0862 b6be 0a9b 2bbe
00000230: d0ff 19bf 0feb 46be 09b6 a4be 18e4 c4bd
00000240: c77f 11bd 27e1 6ebe 19a4 10bd 7510 cfbe
00000250: a06d abbe 3965 46be 656a c5be 93de afbd
00000260: f2f0 4abd 27c1 79be 0556 c3be 73f7 a6be
00000270: 2865 c23d 0fa3 c6bd f328 04be 6174 52be
00000280: 43fe aebd aed5 b4be 000e babe f5b4 62bd
00000290: 6903 8dbe 6249 48be a3fd a7be 6b18 a3be
000002a0: 1ac8 80be 54dd 45bf 3bfc 04bf 2448 0cbd
000002b0: 12c1 5bbd ea95 fcbe 5b0e d1bd 07d9 c3be
000002c0: 5e3c 7bbe 2a79 06be bb93 28be 03ea 91bd
000002d0: 78b5 07be 44f1 f7bc 52a0 dfbe afd0 bbbd
000002e0: ddea 733c 5962 8abe 3127 57be 25fe 94be
000002f0: 20f5 a1bd eb25 bb3c 1651 e3bd de74 0fbf
00000300: 712e cebe a8a2 c1be 430b b9be c5f8 36be
00000310: d857 eabd 04d2 e3be af24 d1be 6094 69be
00000320: bf0b 0ebe 31ea 5fbe 5e18 2abf 03a9 0cbe
00000330: 3748 ddbe 90b9 2ebe 8294 e3be 6130 02be
00000340: 28f4 acbd 3bd7 f2be fe58 8cbe 108d 83be
00000350: 9462 04bf 6093 03bf 891d 53be 35fb 3dbe
00000360: 1a1e bfbe f2bf 7cbe 7317 fdbd 97e6 16bf
00000370: fa52 f6be 037f 70be 1a4a e1bd 6c57 f2be
00000380: d34c 71be 4872 56bd 80cb 3abe cb19 a4be
00000390: f817 acbe 0b23 0dbf b955 e6be b666 77be
000003a0: 6477 ccbd 7c2f f8be db30 93be b3b0 a6be
000003b0: 13ce b0bd 51a8 b2be beb3 12bd 83e3 96bd
000003c0: c0e5 97bd 5424 e9bc ca7b ccbd 4dd3 abbe
000003d0: 575b f6be 790c 9abe 81c7 9cbe 0c07 f9be
000003e0: 22da 99be 3cd9 47be 0b29 8bbe 495a 21be
000003f0: 0456 e0bc 6290 31be 60e4 8bbe e6e8 c6be
-0.47316894 -0.097287625 -0.27450734 -0.087905444 0.017557316 -0.35507128 -0.06145511 -0.12312042
-0.54405177 -0.09215935 -0.47751004 -0.15197706 -0.49103704 -0.3414479 -0.49598497 -0.16594063
-0.3453087 -0.09595129 -0.36557472 -0.17027734 0.23112907 -0.2734513 -0.70008963 -0.19562933
-0.15130956 -0.27680558 -0.31262746 -0.27122176 -0.16535805 0.004593482 -0.36517918 -0.07564141
-0.22132728 -0.28633448 -0.29385 -0.32279405 -0.0712112 -0.039003737 0.004602201 -0.29402548
-0.12136684 -0.3998574 -0.16188939 -0.08444282 -0.47645319 -0.43012473 -0.103002496 -0.17775345
-0.27082124 -0.5121746 -0.36064053 -0.08850678 -0.6812678 -0.37292325 -0.13762474 -0.04833615
-0.40998882 -0.46310815 -0.055577833 -0.30015945 -0.61477846 -0.27099818 -0.01633763 -0.2483106
-0.30944914 -0.067977674 -0.68133646 -0.42737505 0.027514922 -0.5137982 -0.3323805 -0.40824607
-0.1949663 -0.055655915 -0.10329439 -0.07708635 -0.39119202 -0.62194157 -0.18316634 -0.2260048
-0.414804 -0.6023282 0.029497176 -0.18845621 -0.32457906 -0.08147895 -0.52037466 -0.47308028
-0.53081256 -0.24335064 -0.42396158 0.09889506 -0.4561226 -0.14527033 -0.34875047 -0.28271085
-0.3736844 -0.04817952 -0.14069152 -0.087828696 -0.16284914 -0.014073214 -0.39954472 -0.10730506
-0.22885846 -0.056543473 -0.22070259 -0.31952026 -0.689519 -0.12794566 -0.37796128 -0.34856626
-0.341375 -0.39063814 -0.015012712 -0.58140796 -0.43527034 -0.31089246 -0.1707888 -0.13005988
-0.6379456 -0.5488746 -0.5789744 -0.26454517 -0.23039542 -0.3560798 -0.06382627 -0.16771539
-0.13109626 -0.15161654 -0.088283926 -0.15069246 -0.042672403 -0.03768768 -0.15358424 -0.20270213
-0.3783825 -0.17086743 -0.35621667 -0.16758361 -0.60155964 -0.19425605 -0.32170132 -0.09613818
-0.03552225 -0.23328076 -0.035312746 -0.40442243 -0.33482075 -0.19374551 -0.38557735 -0.085873745
-0.04954619 -0.24390088 -0.38151565 -0.32610664 0.0949195 -0.0969907 -0.12906246 -0.20552208
-0.0854459 -0.35319275 -0.36338806 -0.055348355 -0.27541664 -0.19559243 -0.32810697 -0.31854567
-0.25152665 -0.77290845 -0.51947373 -0.034248486 -0.053650923 -0.49333125 -0.10207816 -0.38251516
-0.24534747 -0.13132158 -0.16462605 -0.07124712 -0.13252819 -0.030266412 -0.43677002 -0.091706626
0.014887539 -0.27028158 -0.21011044 -0.29100147 -0.07908082 0.02284523 -0.1109945 -0.560377
-0.40269807 -0.3781941 -0.36141405 -0.17868336 -0.11442536 -0.44496167 -0.408483 -0.22810507
-0.13871668 -0.2186668 -0.6644343 -0.13736348 -0.43219158 -0.17062974 -0.4444924 -0.12713768
-0.084450066 -0.47429833 -0.27411646 -0.2569356 -0.5171292 -0.5139675 -0.20616736 -0.18552859
-0.37327653 -0.24682596 -0.12357988 -0.589456 -0.4811018 -0.23485951 -0.11000462 -0.47332323
-0.23564462 -0.05235508 -0.18241692 -0.32050928 -0.33612037 -0.55131596 -0.44987276 -0.24160275
-0.099837095 -0.48473728 -0.2874821 -0.32556686 -0.086330555 -0.3489404 -0.035815947 -0.07367613
-0.07416868 -0.028459705 -0.099845484 -0.33559647 -0.48116562 -0.3008764 -0.3062096 -0.4863819
-0.30049235 -0.19516462 -0.2717975 -0.15757097 -0.027384765 -0.17340234 -0.27322674 -0.38849562

fc3.bias f4 [10]
00000000: 56bb 51be 2613 afba 8cc9 f2be 4358 703e
00000010: f6b4 dfbc cedd c3bb ce12 ebbd 19ae 4abe
00000020: bd84 463e 2f55 633d
-0.20481619 -0.0013357147 -0.47419393 0.23471169 -0.027307969 -0.005977369 -0.11478196 -0.19792975
0.19386573 0.05550116
