simple/simple_cifar_CE.pth (torch, 63861 bytes, 6 tensors)

fc1.weight f4 [128, 48]
0.3418762 0.048998054 -0.15788466 0.230705 0.34682128 -0.4525115 -0.49399465 0.13821037
-0.16433474 -0.044706117 -0.017664315 -0.029035892 0.626239 -0.23431736 -0.2623855 0.4098719
-0.13254102 -0.096413545 -0.057696447 0.08521169 -0.40828672 0.5888962 0.6104854 -0.38694635
-0.7645104 -0.0059849364 0.30964553 -0.41320038 0.009595146 -0.26307708 -0.49142972 0.017661775
0.14119586 -0.30163422 -0.35467303 0.017169181 0.044647533 0.06376847 -0.068917185 -0.007725962
-0.023837265 0.05335825 0.0754219 -0.06221121 0.17450912 -0.022188108 -0.19267407 -0.022978723
0.24941985 0.051598188 0.088480696 0.2567318 0.19668727 -0.05561234 -0.34176818 0.19216077
-0.20668088 0.13477491 -0.60548854 0.26099265 -0.49732456 0.1950401 -0.26974276 -0.42569524
0.07726252 -0.15309845 -0.25054806 0.12622018 0.33579087 -0.30792093 -0.13690603 0.32831094
0.3120452 -0.014755466 -0.50622916 0.26681304 -0.062173903 0.30877525 0.116158664 -0.23789431
-0.34217584 -0.0033333981 -0.054441098 -0.60082185 -0.050835606 0.3740483 0.01208593 -0.27947715
-0.50720036 0.875976 -0.10820644 -0.42716923 0.023186963 0.9129771 0.3621127 -0.44132853
0.06777266 0.17051934 -0.02876775 0.06426914 0.043719027 -0.09497285 -0.18391897 0.17949978
0.4123398 -0.17753313 -0.07438987 -0.06932172 0.24256642 -0.24301808 0.1765294 -0.05415042
0.08285456 0.22444008 0.107690595 0.044991914 0.23243105 -0.82884073 -0.48618189 0.34794697
0.7609323 0.09044227 0.14832893 0.4379738 0.019931514 -0.13239238 0.26793244 -0.30468494
-0.16386804 0.1998679 0.34945035 -0.23562108 -0.09564921 -0.26219776 -0.1807737 0.1940994
0.088821165 0.061286703 0.0057694884 0.16407035 -0.44006687 0.009425008 0.3139993 -0.3603263
-0.1319297 0.5105337 0.4937087 -0.09376061 0.41443396 -0.18819804 -0.062249564 0.083033755
0.21561405 0.08176863 0.13801974 0.1680829 0.3969272 0.352044 0.41852072 0.16864169
-0.38011682 0.0315916 -0.07111348 -0.58720213 -0.33767152 -0.12514521 0.12939835 -0.3375076
-0.55332595 0.3355771 0.1397364 -0.46947536 -0.52233255 -0.21149947 0.17295916 -0.5387604
-0.2740975 0.05581595 0.38944015 -0.18857606 -0.15109625 -0.11720722 0.14856948 0.18550935
-0.52337456 0.2681244 0.24419074 -0.038803365 -0.25183445 0.2730296 0.5497503 -0.076484345
-0.40095943 -0.10019434 -0.11128067 -0.24623245 0.22062455 -0.34095952 -0.46829998 0.17167042
0.047874797 -0.4872663 -0.553716 -0.03923657 -0.117244996 -0.24453862 -0.010375691 -0.04334514
-0.24801163 0.14909783 0.1618662 0.04858496 0.019927282 -0.16546461 -0.10231871 -0.07414899
-0.045826454 0.08613484 -0.048958402 0.1289198 -0.28857294 -0.17581445 0.10173849 -0.13509744
0.22658607 0.22698902 0.2994202 -0.18530089 0.3062244 -0.13554616 -0.07603138 0.12982814
0.571791 0.15132456 0.11920967 0.66682655 0.0869186 0.56837636 0.5323263 0.08211315
0.28911078 0.381461 0.2943112 0.28785884 0.31740057 -0.058946464 -0.034680292 -0.15227632
0.41261122 0.3891948 -0.17531241 -0.09769048 -0.029398734 0.45007148 0.2136489 0.14284295
00000000: 660a af3e 2fb2 483d 84ac 21be ee3d 6c3e
00000010: 8f92 b13e 96af e7be deec fcbe 0587 0d3e
00000020: 5e47 28be c31d 37bd c1b4 90bc aedc edbc
00000030: 3351 203f e4f0 6fbe 6457 86be bbda d13e
00000040: d5b8 07be 7774 c5bd 1c53 6cbd 7783 ae3d
00000050: f50a d1be e7c1 163f c548 1c3f d51d c6be
00000060: f4b6 43bf 491d c4bb dc89 9e3e 008f d3be
00000070: f634 1d3c 0ab2 86be ad9c fbbe 6daf 903c
00000080: a695 103e cd6f 9abe b497 b5be 62a6 8c3c
00000090: 55e0 363d 0b99 823d 7424 8dbd 112a fdbb
000000a0: 5e46 c3bc 2e8e 5a3d cc76 9a3d 2fd1 7ebd
000000b0: 85b2 323e d6c3 b5bc 5a4c 45be e03d bcbc
000000c0: eb67 7f3e 9f58 533d 5e35 b53d 5a72 833e
000000d0: 6368 493e c4c9 63bd 3dfc aebe cbc5 443e
000000e0: 27a4 53be 6f02 0a3e 4c01 1bbf d4a0 853e
000000f0: 53a1 febe 98b8 473e b91b 8abe baf4 d9be
00000100: d03b 9e3d d7c5 1cbe d647 80be dd3f 013e
00000110: c8ec ab3e d0a7 9dbe 1831 0cbe 5f18 a83e
00000120: 63c4 9f3e e9c0 71bc 3c98 01bf b89b 883e
00000130: 10aa 7ebd ca17 9e3e 98e4 ed3d 919a 73be
00000140: ac31 afbe 2475 5abb a1fd 5ebd 76cf 19bf
00000150: ff38 50bd 4283 bf3e 1104 463c a117 8fbe
00000160: e2d7 01bf f73f 603f 579b ddbd edb5 dabe
00000170: 96f2 bd3c deb8 693f d666 b93e d0f5 e1be
00000180: 64cc 8a3d 9f9c 2e3e 58aa ebbc 8a9f 833d
00000190: b912 333d 2081 c2bd 4155 3cbe cace 373e
000001a0: 341e d33e 3fcb 35be b759 98bd 8cf8 8dbd
000001b0: 5563 783e bbd9 78be 1fc4 343e d5cc 5dbd
000001c0: a7af a93d 9fd3 653e e38c dc3d 7149 383d
000001d0: 6802 6e3e e82e 54bf d5ec f8be 1b26 b23e
000001e0: 76cc 423f cc39 b93d 8ae3 173e 1a3e e03e
000001f0: 6a47 a33c de91 07be 712e 893e aaff 9bbe
00000200: 06cd 27be 2caa 4c3e 28eb b23e a746 71be
00000210: bce3 c3bd c93e 86be be1c 39be fec1 463e
00000220: dfe7 b53d c407 7b3d fa0d bd3b 0f02 283e
00000230: 7250 e1be 596b 1a3c 84c4 a03e b07c b8be
00000240: 9418 07be 56b2 023f 63c7 fc3e 9005 c0bd
00000250: b030 d43e fdb6 40be 66f9 7ebd 9a0d aa3d
00000260: eec9 5c3e 5076 a73d 0c55 0d3e ec1d 2c3e
00000270: 0b3a cb3e 1c3f b43e 5948 d63e 68b0 2c3e
00000280: ac9e c2be 3266 013d f2a3 91bd e152 16bf
00000290: 48e3 acbe 1126 00be 0081 043e cccd acbe
000002a0: c5a6 0dbf c3d0 ab3e 0f17 0f3e 135f f0be
000002b0: 96b7 05bf 5193 58be 351c 313e 34ec 09bf
000002c0: 8256 8cbe 449f 643d b364 c73e 151a 41be
000002d0: fab8 1abe 570a f0bd 9922 183e 2af6 3d3e
000002e0: e0fb 05bf 9a47 893e 230d 7a3e 47f0 1ebd
000002f0: 72f0 80be 89ca 8b3e 70bc 0c3f d3a3 9cbd
00000300: 8e4a cdbe b132 cdbd 1fe7 e3bd 5c24 7cbe
00000310: 67eb 613e 3f92 aebe 04c5 efbe 5fca 2f3e
00000320: 5d18 443d f87a f9be 55c0 0dbf 87b6 20bd
00000330: 251e f0bd 5568 7abe cdfe 29bc ac8a 31bd
00000340: c3f6 7dbe 1aad 183e 41c0 253e 0601 473d
00000350: 8a3e a33c 8e6f 29be 798c d1bd 6ddb 97bd
00000360: 85b4 3bbd 7767 b03d 9b88 48bd 8d03 043e
00000370: d5bf 93be b408 34be 455c d03d fc56 0abe
00000380: 2e06 683e cf6f 683e 9b4d 993e 84bf 3dbe
00000390: 72c9 9c3e 9dcc 0abe 57b6 9bbd abf1 043e
000003a0: e560 123f d3f4 1a3e 3324 f43d 25b5 2a3f
000003b0: 6102 b23d 1d81 113f 8946 083f f02a a83d
000003c0: 5406 943e db4e c33e f5af 963e 3c62 933e
000003d0: 5482 a23e d971 71bd ec0c 0ebd 53ee 1bbe
000003e0: c741 d33e 8a44 c73e 1985 33be f211 c8bd
000003f0: 9dd5 f0bc c56f e63e c7c6 5a3e 6c45 123e

fc1.bias f4 [128]
-0.1460439 -0.21333657 -0.3453069 -0.60391164 -0.72640556 -0.5887302 -0.15404503 -0.36571503
-0.28090423 -0.37441105 -0.3746798 -0.52377766 -0.32606053 -0.25460097 -0.49888426 -0.9761945
-0.3370891 -0.24737574 -0.030195149 -0.29889053 -0.33052868 -0.10033037 -0.76509875 0.02157753
-0.30397812 -0.6518237 -0.40526667 -0.4636642 -0.24658945 -0.58760047 -0.35083503 -0.38002822
-0.095272645 0.19082321 -0.20645031 -0.3653227 -0.4856789 -0.2952391 -0.154955 -0.030922309
-1.0773565 -0.2528682 -0.40286487 -0.19658037 -0.100583814 0.15573321 -0.57274383 -0.026372707
-0.20198065 -0.6024215 -0.061081417 -0.15123068 -0.13973354 -0.46479914 -0.6678395 -0.35683674
-0.23275436 -0.6279212 -0.551572 -0.057045385 -0.30008984 0.013892904 -0.2425314 -0.3472615
-0.32073328 -0.023596333 -0.28034535 -0.43192056 -0.40406904 -0.23657356 -0.5157591 -0.3752108
-0.9817089 -0.4075867 -0.47982973 -0.0691361 -0.22059342 -0.056767985 -0.30512622 0.14334638
-0.23265766 -0.21012098 0.10684431 -0.288012 -0.30137303 -0.30993915 -0.3171675 -0.03927924
-0.2618929 -0.042349763 -0.5927661 -0.23398775 -0.15419084 -0.22072959 -0.50128585 -0.3645187
-0.20783241 -0.047457576 -0.03462258 -0.09826819 -0.5085546 -0.12152931 -0.44098866 -0.12175433
0.24014796 -1.1175622 -0.5326766 -0.29633233 -0.56026095 -0.34104082 -0.2107518 -0.21250868
-0.47946447 -0.063544296 -0.75426996 -0.60009867 -0.5477982 -0.42204764 -0.30461282 -0.28534138
-0.01139542 -0.60806245 -0.4044638 -0.26741698 -0.8048106 -0.41563106 -0.11338024 -0.72903895
00000000: 888c 15be e774 5abe 11cc b0be f499 1abf
00000010: b7f5 39bf 06b7 16bf fbbd 1dbe 003f bbbe
00000020: aed2 8fbe ceb2 bfbe 08d6 bfbe 4b16 06bf
00000030: 68f1 a6be 0f5b 82be c26d ffbe e2e7 79bf
00000040: f196 acbe 1150 7dbe d15b f7bc 2e08 99be
00000050: 0e3b a9be 027a cdbd 83dd 43bf 5cc3 b03c
00000060: 05a3 9bbe ebdd 26bf 1d7f cfbe 6565 edbe
00000070: f281 7cbe fc6c 16bf a6a0 b3be 0f93 c2be
00000080: 4e1e c3bd 2967 433e b667 53be 940b bbbe
00000090: e8aa f8be 9429 97be 86ac 1ebe c850 fdbc
000000a0: d1e6 89bf f177 81be 4e44 cebe 5d4c 49be
000000b0: e3fe cdbd 8778 1f3e 579f 12bf 930b d8bc
000000c0: 04d4 4ebe 4c38 1abf 8230 7abd 37dc 1abe
000000d0: 4f16 0fbe 27fa edbe 88f7 2abf 4eb3 b6be
000000e0: 2957 6ebe 72bf 20bf d333 0dbf 6ca8 69bd
000000f0: 60a5 99be 109f 633c 275a 78be 42cc b1be
00000100: 2737 a4be 194d c1bc 6d89 8fbe b124 ddbe
00000110: 23e2 cebe 5740 72be ca08 04bf a11b c0be
00000120: 4651 7bbf 34af d0be 3eac f5be 3a97 8dbd
00000130: 3ee3 61be 8c85 68bd 8139 9cbe 65c9 123e
00000140: cf3d 6ebe f429 57be 31d1 da3d 4f76 93be
00000150: 914d 9abe 58b0 9ebe c763 a2be 45e3 20bd
00000160: d416 86be f276 2dbd 85bf 17bf 7c9a 6fbe
00000170: 34e4 1dbe f006 62be 4554 00bf 32a2 babe
00000180: 05d2 54be e062 42bd 68d0 0dbd d540 c9bd
00000190: a230 02bf 5ce4 f8bd 44c9 e1be 565a f9bd
000001a0: 59e9 753e 470c 8fbf 7e5d 08bf dfb8 97be
000001b0: 436d 0fbf e79c aebe 52cf 57be e09b 59be
000001c0: 5e7c f5be 8323 82bd d617 41bf 11a0 19bf
000001d0: 813c 0cbf a116 d8be 36f6 9bbe 4418 92be
000001e0: dbb3 3abc fba9 1bbf e115 cfbe e1ea 88be
000001f0: 1108 4ebf 98cd d4be e633 e8bd 4ca2 3abf

fc2.weight f4 [64, 128]
-0.1852475 -0.0140832 -0.36969763 0.36949262 -0.13059017 0.24688567 -0.017195912 -0.027327755
0.12193722 -0.026071189 0.030508926 -0.19365528 0.16636825 -0.114032194 -0.28292537 0.05307473
-0.15336752 0.010800453 -0.07645544 -0.013715068 -0.06826601 -0.27624065 -0.074649625 0.091052495
-0.11687972 0.049126096 -0.13605346 -0.09987571 -0.03656433 0.07151349 -0.21476553 -0.22511418
-0.13340263 -0.12401399 0.02475674 0.01930276 -0.10674785 -0.13543765 0.0070710466 -0.24981582
-0.025924752 0.115770094 -0.15281925 -0.2883279 -0.037069906 0.07648576 -0.2217703 -0.3175758
-0.21113876 -0.057304442 -0.03756266 -0.19906797 0.26418704 -0.190634 -0.0885821 0.24735202
0.10293264 0.062334962 -0.3002008 -0.11184087 -0.071772985 -0.22450806 0.22397037 -0.18305278
-0.07316418 -0.14863023 0.085631095 -0.17554653 -0.24889615 -0.07793789 -0.08258013 -0.0948559
-0.05494839 -0.036674388 -0.20030895 0.08135461 0.06298979 -0.15227383 0.04563884 0.026063118
-0.22408384 -0.021347586 0.024463195 -0.04537823 0.11595271 0.073448434 -0.20850484 -0.036811594
0.16628158 -0.08521752 0.0155090755 -0.37419596 -0.17991002 0.07688684 -0.26539174 -0.017030656
-0.22836761 -0.0056615146 -0.2599716 0.006324159 0.0021043462 0.09738745 -0.28155154 -0.15682656
-0.20165733 -0.023197649 0.18202758 0.03802984 0.024636768 -0.02976004 0.05083119 -0.16928099
-0.0048317546 -0.24358332 -0.17406164 -0.26164135 0.09436877 -0.028570246 0.12156268 0.033290014
-0.18067476 0.054459993 -0.16503266 -0.043342452 -0.03938982 0.09531298 -0.013582881 0.0874842
-0.16095613 -0.39314884 -0.1086606 -0.41221094 0.011778441 -0.6295569 -0.5463134 0.1569692
-0.24551722 -0.08051744 -0.21500406 -0.4467513 -0.41842932 -0.08016752 -0.14866799 0.0077368803
0.23601739 -0.1805499 0.11186045 0.28536513 0.16745187 -0.17321287 -0.2905905 0.026595287
-0.21972063 -0.03606128 -0.16122343 0.46780586 0.2168724 -0.1256527 -0.1632147 0.10828277
-0.12571463 0.2476061 0.10114032 -0.20164841 0.45048195 0.18478476 0.2328511 -0.10187443
-0.25207868 0.2562312 -0.84779674 -0.28727746 -0.068977445 0.05899194 -0.06513791 0.17933992
-0.020531164 -0.3194504 0.034116786 0.06730281 -0.45397136 -0.6169902 0.23931925 0.08496216
-0.04322395 0.10358248 0.13753472 1.0403731 0.16864339 0.17710198 0.07094742 0.017123228
0.09108199 -0.90290713 -0.47974798 -0.17785017 0.32327366 -0.15682037 -0.27500013 0.0067250393
-0.14066543 0.21131872 -0.41863278 -0.4066949 0.022111034 -0.32895076 -0.08468524 -0.3130343
0.2531401 -0.036439482 0.19194955 -0.47115636 0.21466175 0.14183326 0.1551854 -0.054409094
-0.5637427 0.4205232 0.070887774 -0.039991334 0.0017760759 -0.10253854 0.46029314 -0.20537263
-1.0310844 0.8832265 -0.048413683 -1.0075501 -0.050508916 -0.70181894 0.020291677 -0.24708557
-0.01604425 -0.011478267 -0.008266777 -0.7270061 -0.18254949 0.027266914 0.17995203 -0.111428656
-0.20112813 0.22335593 0.13177584 0.2811327 0.38716128 -0.2759103 -0.45516485 -1.042916
0.2306418 0.14951041 0.04707285 0.14527397 -0.5025796 0.04048113 0.23503512 -0.7521751
00000000: 85b1 3dbe 39bd 66bc 0249 bdbe 232e bd3e
00000010: 6eb9 05be 99cf 7c3e 71de 8cbc 75de dfbc
00000020: 39ba f93d 3f93 d5bc dbed f93c 924d 46be
00000030: 705c 2a3e b689 e9bd 98db 90be e364 593d
00000040: 600c 1dbe 62f4 303c ab94 9cbd 2ab5 60bc
00000050: 0dcf 8bbd 6a6f 8dbe e7e1 98bd bb79 ba3d
00000060: a25e efbd 7238 493d 9951 0bbe a38b ccbd
00000070: 7bc4 15bd aa75 923d 7feb 5bbe 5584 66be
00000080: b39a 08be 0cfb fdbd a6ce ca3c d220 9e3c
00000090: 9e9e dabd 2bb0 0abe 3db4 e73b b8cf 7fbe
000000a0: 2560 d4bc df18 ed3d a67c 1cbe b79f 93be
000000b0: 9dd6 17bd 91a4 9c3d c117 63be 4c99 a2be
000000c0: c234 58be 10b8 6abd 4edb 19bd 79d8 4bbe
000000d0: 8643 873e 8f35 43be 886a b5bd d949 7d3e
000000e0: 59ce d23d f252 7f3d ebb3 99be d30c e5bd
000000f0: b7fd 92bd 71e5 65be 7d58 653e 3072 3bbe
00000100: 1ad7 95bd 8632 18be 5b5f af3d 78c2 33be
00000110: a2de 7ebe e79d 9fbd c51f a9bd cf43 c2bd
00000120: 9011 61bd e237 16bd ca1d 4dbe 3f9d a63d
00000130: cb00 813d aced 1bbe cbef 3a3d 5282 d53c
00000140: 3c76 65be 22e1 aebc 0a67 c83c 86de 39bd
00000150: 9d78 ed3d 226c 963d 4b82 55be c1c7 16bd
00000160: b845 2a3e 8686 aebd c719 7e3c 9d96 bfbe
00000170: 553a 38be d976 9d3d 6de1 87be e083 8bbc
00000180: 33d9 69be 3a84 b9bb ff1a 85be e43a cf3b
00000190: 12e9 093b 1273 c73d 8627 90be 2497 20be
000001a0: 427f 4ebe ff08 bebc 7065 3a3e 2dc5 1b3d
000001b0: 0cd3 c93c 54cb f3bc 5e34 503d ff57 2dbe
000001c0: b253 9ebb e86d 79be 373d 32be dbf5 85be
000001d0: 6a44 c13d 260c eabc dbf5 f83d 1c5b 083d
000001e0: ce02 39be 7111 5f3d 52fe 28be db87 31bd
000001f0: 3857 21bd 7433 c33d bb8a 5ebc eb2a b33d
00000200: afd1 24be ce4a c9be 7389 debd 500d d3be
00000210: 5dfa 403c a42a 21bf 32db 0bbf 89bc 203e
00000220: de68 7bbe 54e6 a4bd 062a 5cbe 96bc e4be
00000230: 5e3c d6be de2e a4bd 6c3c 18be a885 fd3b
00000240: 8bae 713e 13e2 38be 1717 e53d 611b 923e
00000250: 8178 2b3e b75e 31be 47c8 94be 5cde d93c
00000260: 72fe 60be feb4 13bd c117 25be 4084 ef3e
00000270: cc13 5e3e 1aab 00be c121 27be 5bc3 dd3d
00000280: 56bb 00be 748c 7d3e a822 cf3d ec7c 4ebe
00000290: 92a5 e63e 3738 3d3e 8570 6e3e 8ba3 d0bd
000002a0: 7510 81be bc30 833e 3509 59bf 0816 93be
000002b0: 0c44 8dbd 88a1 713d 0667 85bd e2a4 373e
000002c0: f930 a8bc 018f a3be 0bbe 0b3d 0ed6 893d
000002d0: ef6e e8be 12f3 1dbf 1b10 753e a400 ae3d
000002e0: 990b 31bd 0d23 d43d e7d5 0c3e f22a 853f
000002f0: dab0 2c3e 395a 353e e24c 913d 0346 8c3c
00000300: 3289 ba3d ec24 67bf 87a1 f5be 5b1e 36be
00000310: 2084 a53e 8595 20be d1cc 8cbe b85d dc3b
00000320: 990a 10be ef63 583e 0957 d6be 503a d0be
00000330: 3322 b53c 3c6c a8be 756f adbd 0846 a0be
00000340: 949b 813e 9141 15bd 6c8e 443e 683b f1be
00000350: 4ad0 5b3e bd3c 113e ece8 1e3e 12dc 5ebd
00000360: 7151 10bf d14e d73e 9c2d 913d f4cd 23bd
00000370: 38cb e83a baff d1bd 8bab eb3e 344d 52be
00000380: 93fa 83bf 221b 623f 6d4d 46bd 67f7 80bf
00000390: 70e2 4ebd 68aa 33bf bb3a a63c 0004 7dbe
000003a0: 3b6f 83bc 570f 3cbc 6071 07bc 121d 3abf
000003b0: 41ee 3abe dd5e df3c 5845 383e b534 e4bd
000003c0: 88f4 4dbe 6bb7 643e 3ff0 063e a0f0 8f3e
000003d0: 013a c63e 1d44 8dbe 5e0b e9be 467e 85bf
000003e0: 5d2d 6c3e 4219 193e 76cf 403d b3c2 143e
000003f0: 0fa9 00bf 8bcf 253d 0cad 703e 8c8e 40bf

fc2.bias f4 [64]
0.02622884 0.28306794 0.4747807 0.6772848 -0.032083414 0.43508187 0.6420569 0.48423168
0.6819682 0.7362365 0.3119151 0.17095502 -0.11826787 0.21621037 0.74084365 0.021085786
0.30185175 0.21234399 1.0201292 -0.13727096 0.5089114 0.3295252 0.46805492 0.7116157
0.20064907 0.20708512 0.8256174 0.3523311 0.59612167 -0.07752411 -0.07179409 0.09842488
0.7314406 0.33949402 0.27971533 0.79531294 0.43548134 -0.24197915 0.33879513 0.32601473
0.37115106 -0.17789966 0.5825809 -0.11098991 0.17732692 -0.13317831 0.23245463 0.24322496
0.4792078 0.14230192 0.7427296 0.14749855 0.25056484 0.45752263 0.48329026 0.8084795
0.2552453 0.42244837 -0.06389271 0.6660107 0.7199989 0.5130596 0.2962156 0.26452056
00000000: dddd d63c 48ee 903e 7516 f33e 8962 2d3f
00000010: e669 03bd 0dc3 de3e d75d 243f 37ed f73e
00000020: 7895 2e3f ff79 3c3f 56b3 9f3e d50e 2f3e
00000030: 6d36 f2bd 4066 5d3e eea7 3d3f 19bc ac3c
00000040: 508c 9a3e b470 593e 9893 823f c290 0cbe
00000050: 0448 023f 87b7 a83e e5a4 ef3e 722c 363f
00000060: f376 4d3e 1f0e 543e a95b 533f be64 b43e
00000070: 6e9b 183f f6c4 9ebd c808 93bd fc92 c93d
00000080: b13f 3b3f 29d2 ad3e d936 8f3e a199 4b3f
00000090: 69f7 de3e 62c9 77be 8e76 ad3e 67eb a63e
000000a0: 8307 be3e 542b 36be 0624 153f ae4e e3bd
000000b0: 3095 353e e55f 08be 9608 6e3e f70f 793e
000000c0: ba5a f53e 98b7 113e 8723 3e3f dc09 173e
000000d0: 094a 803e 6840 ea3e d271 f73e 83f8 4e3f
000000e0: 83af 823e 274b d83e 2eda 82bd ad7f 2a3f
000000f0: d951 383f e057 033f 92a9 973e 3d6f 873e

fc3.weight f4 [10, 64]
-0.54657185 -0.08031056 0.058860682 -0.36055014 -0.059882093 -0.79449147 -0.64090365 -0.25849742
-0.32503954 -0.68485385 -0.110245295 -0.0817262 -0.06845887 -0.36317846 -0.16245812 -0.019255335
0.0632203 -0.2709995 0.11798693 -0.36445022 -0.61979985 -0.2695274 0.088765554 -0.07854384
-0.025173474 -0.46133402 -0.40677908 -0.3929277 -0.6375728 -0.09990191 -0.09873989 -0.10932838
-0.33782712 0.0489564 -0.20659235 0.0770525 0.021395585 -0.36204532 -0.37551135 0.060259156
-0.36611623 -0.1928799 -0.51985615 -0.067464836 -0.12591231 -0.08706738 -0.42935237 -0.046598967
-0.068278335 -0.13456658 -0.19129124 -0.048482496 -0.016032746 -0.080897585 0.53711396 0.038045358
-0.17221475 0.078259066 -0.07125677 -0.28385866 -0.08722419 -0.20294687 0.0060139033 -0.05348429
-1.0483495 0.048115686 -0.79137194 -0.25815883 0.04826728 -0.1473321 -0.7623634 -0.33918816
-0.5919274 -0.8046541 0.0020708092 -0.105881505 0.00012639629 0.07981454 -0.6205941 -0.62446874
0.18258755 0.19600765 -0.547313 -0.074668914 -0.65599865 0.11334471 -0.046740893 -0.5976535
0.071845 -0.7363874 -0.8082705 -0.23265411 -0.21536088 -0.099952154 -0.07621612 0.015687192
-0.6418097 -0.12009233 0.09478875 -0.2311916 -0.41383407 -0.18834586 -0.3632245 -0.40145397
-0.20649053 -0.17794979 -0.3426414 -0.11170213 -0.67078483 -0.05335809 0.06973172 -0.019963482
0.101499595 -0.040251207 -0.353121 -0.058911763 -0.088908456 -0.32148728 -0.2851015 -0.42784154
-0.053465135 0.03648768 0.036057588 0.12661012 -0.5898151 0.1786872 -0.3757406 -0.12520845
-0.9564272 0.015323947 0.11865828 -0.03537093 -0.28246433 -0.12258908 -0.12162331 -0.03709574
-0.3284843 0.113480546 -0.35798997 -0.45830926 -0.14438976 -0.09498083 0.017580295 0.004907996
-0.0025401604 -0.34599274 0.17355804 -0.20293213 0.091268554 -0.07745702 -0.27797803 0.20653382
-0.13793275 -0.12844971 -0.110419825 -0.29930696 -0.1551702 -0.21199447 -0.08983169 -0.063454404
0.041356493 -0.17892447 -0.3603018 -0.11481918 -0.034094065 0.101110734 -0.19204196 0.056144226
-0.12015442 -0.15289867 -0.061402645 0.032908015 -0.5694997 -0.017348342 -0.10872191 -0.2682225
-0.42572963 -0.34575444 -0.24313904 -0.3589019 0.02350397 -0.10014335 -0.6085888 0.09496862
-0.27738282 -0.4643154 -0.012140697 0.066104054 0.25829974 -0.36104423 -0.31181353 -0.08921693
-0.7668752 -0.44022328 -0.018342728 -0.058754817 0.048846982 -0.044826537 -0.11255263 0.1126496
-0.08314276 0.08132429 -0.5197487 -0.32660955 -0.107711755 -0.21645239 -0.024147695 -0.2092059
-0.24246113 -0.13906276 -0.29040077 -0.0037497682 -0.033255592 -0.3981823 -0.4772153 -0.2874905
-0.33105943 -0.36721927 -0.4164978 -0.027212081 -0.2726491 -0.04886184 -0.12238309 -0.18977408
-0.0098054875 -0.08539957 -0.086609125 -0.44892907 -0.18544997 0.043833766 -0.031475976 0.026623245
-0.11052335 -0.038654875 0.04265688 -0.014024559 -0.81176734 -0.121809475 0.045715548 -0.4487316
-0.47449344 -0.03802597 -0.32807568 -0.109386414 -0.4810943 -0.23690447 -0.84343463 -0.5103551
-0.06518869 -0.28214854 -0.082627 -0.31401858 -0.26763782 -0.57581353 -0.052837852 -0.18787545
00000000: 22ec 0bbf dd79 a4bd e617 713d 079a b8be
00000010: ed46 75bd cb63 4bbf 4312 24bf c659 84be
00000020: 956b a6be 9552 2fbf 49c8 e1bd 1160 a7bd
00000030: 2a34 8cbd 87f2 b9be 6c5b 26be 5dbd 9dbc
00000040: a579 813d 72c0 8abe 22a3 f13d 3899 babe
00000050: 34ab 1ebf 7fff 89be b7ca b53d 98db a0bd
00000060: 9a38 cebc f933 ecbe 5945 d0be d22d c9be
00000070: f937 23bf 5f99 ccbd 2438 cabd 8fe7 dfbd
00000080: adf7 acbe 8286 483d f28c 53be b3cd 9d3d
00000090: cb45 af3c 015e b9be 0643 c0be 4ed2 763d
000000a0: 9673 bbbe 4f82 45be 4b15 05bf 012b 8abd
000000b0: 28ef 00be 6250 b2bd 13d4 dbbe 8fde 3ebd
000000c0: 83d5 8bbd d2cb 09be dae1 43be 9595 46bd
000000d0: 1b57 83bc a2ad a5bd 4d80 093f 73d5 1b3d
000000e0: 1059 30be 4a46 a03d 12ef 91bd ec55 91be
000000f0: 99a2 b2bd 4ed1 4fbe 4710 c53b 5812 5bbd
00000100: 5130 86bf f414 453d 5a97 4abf 652d 84be
00000110: e9b3 453d 3ade 16be 3f2a 43bf 12aa adbe
00000120: 8e88 17bf d0fd 4dbf 6ab6 073b 67d8 d8bd
00000130: 3f89 0439 ce75 a33d 41df 1ebf 2fdd 1fbf
00000140: 3bf8 3a3e 3bb6 483e b41c 0cbf 04ec 98bd
00000150: 87ef 27bf 4521 e83d 6173 3fbd d2ff 18bf
00000160: 7923 933d e283 3cbf d1ea 4ebf e13c 6ebe
00000170: 9087 5cbe b7b3 ccbd 3217 9cbd 6d82 803c
00000180: a44d 24bf f8f2 f5bd 9b20 c23d 7ebd 6cbe
00000190: 0fe2 d3be bddd 40be 90f8 b9be 608b cdbe
000001a0: 4172 53be 7838 36be b26e afbe 16c4 e4bd
000001b0: 8eb8 2bbf 038e 5abd 81cf 8e3d 758a a3bc
000001c0: 05df cf3d 73de 24bd 47cc b4be 764d 71bd
000001d0: a315 b6bd fb99 a4be d3f8 91be 0c0e dbbe
000001e0: 42fe 5abd 1b74 153d 1fb1 133d 15a6 013e
000001f0: 1ffe 16bf c7f9 363e 1261 c0be a536 00be
00000200: 6ad8 74bf 4b11 7b3c 1d03 f33d 1ce1 10bd
00000210: 2a9f 90be fc0f fbbd a415 f9bd b4f1 17bd
00000220: 182f a8be 7d68 e83d 764a b7be 83a7 eabe
00000230: e9da 13be 4f85 c2bd 8d04 903c 41d3 a03b
00000240: d278 26bb f625 b1be 33b9 313e 71cd 4fbe
00000250: 02eb ba3d c9a1 9ebd 2353 8ebe 9a7d 533e
00000260: 3e3e 0dbe 5288 03be ca23 e2bd c33e 99be
00000270: f0e4 1ebe 1415 59be adf9 b7bd 62f4 81bd
00000280: 6d65 293d fa37 37be 7a79 b8be 5126 ebbd
00000290: 38a6 0bbd 2513 cf3d a6a6 44be 7df7 653d
000002a0: 8513 f6bd 7891 1cbe 5781 7bbd 8eca 063d
000002b0: bbca 11bf 1c1e 8ebc 98a9 debd 7654 89be
000002c0: 3cf9 d9be ba06 b1be 71f9 78be fdc1 b7be
000002d0: 668b c03c f517 cdbd 7acc 1bbf e87e c23d
000002e0: 1f05 8ebe c0ba edbe c6e9 46bc 9061 873d
000002f0: dd3f 843e cada b8be 06a6 9fbe 5eb7 b6bd
00000300: ef51 44bf f264 e1be 7d43 96bc e4a8 70bd
00000310: c613 483d 089c 37bd fe81 e6bd d5b4 e63d
00000320: c046 aabd 598d a63d 400e 05bf 5e39 a7be
00000330: fb97 dcbd b2a5 5dbe 63d1 c5bc 123a 56be
00000340: bb47 78be 7866 0ebe 69af 94be acbe 75bb
00000350: 0437 08bd 8dde cbbe 9055 f4be f431 93be
00000360: 9f80 a9be 2a04 bcbe 333f d5be dfeb debc
00000370: aa98 8bbe 5a23 48bd fca3 fabd 2354 42be
00000380: 32a7 20bc f8e5 aebd 2060 b1bd 08da e5be
00000390: 99e6 3dbe 098b 333d f4ec 00bd fe18 da3c
000003a0: 115a e2bd 9354 1ebd fbb8 2e3d 44c7 65bc
000003b0: fccf 4fbf 3f77 f9bd 3a40 3b3d 26c0 e5be
000003c0: cef0 f2be 1fc1 1bbd 89f9 a7be fc05 e0bd
000003d0: fe51 f6be 1697 72be 55eb 57bf a2a6 02bf
000003e0: a681 85bd c675 90be 5838 a9bd 0bc7 a0be
000003f0: d307 89be 8468 13bf 816c 58bd 6c62 40be

fc3.bias f4 [10]
0.030809734 -0.15801646 -0.3464676 0.23529288 0.07841354 -0.04161756 0.025688302 -0.118672244
0.3399583 0.011924245
00000000: b264 fc3c 11cf 21be 3464 b1be 9ef0 703e
00000010: 4797 a03d 2d77 2abd 4670 d23c 6f0a f3bd
00000020: 040f ae3e e95d 433c
