cifar_net_hinge.pth (torch, 252101 bytes, 10 tensors)

conv1.weight f4 [6, 3, 5, 5]
-0.05131245 0.09204489 -0.078718334 -0.11553127 0.097641945 -0.035689343 0.017922863 -0.081654176
0.09096127 -0.03474039 -0.05268025 -0.010886501 -0.003939263 0.001816465 0.053333223 -0.070297875
-0.068238646 -0.11511924 0.026276207 0.049133576 -0.06061672 0.102028616 0.022371477 0.027826121
0.08886056 0.03713003 -0.06498833 -0.11417666 0.08429258 0.06856415 -0.08437236 0.055651084
-0.060475852 -0.023763003 0.06935136 0.0069555575 0.048836816 -0.069189034 -0.1010997 0.004822335
0.00913777 0.058150522 0.026113693 -0.106065616 -0.053565692 0.007888001 -0.08268899 0.025796074
-0.089929394 -0.051571995 0.032887932 -0.012995889 -0.06999913 -0.025369015 0.076934785 0.072865725
0.044333674 -0.06499763 -0.036673833 -0.10631356 0.030561073 -0.062689066 -0.027530063 0.059227556
-0.012102488 0.009022932 0.07445598 0.05269294 -0.07910734 -0.030769616 -0.048837084 -0.0037296044
-0.08008079 0.025359327 -0.07000448 -0.03675798 0.08228668 -0.0026276647 0.085484676 0.101931304
0.018864688 0.21598694 0.17692214 0.17833768 0.13842875 0.18429887 0.18916059 0.34605458
0.3795424 0.3365499 0.16294509 0.26580024 0.2894966 0.19791052 0.28769454 0.060813446
0.1200714 0.14786069 -0.014266784 0.16361861 -0.23468168 -0.3045759 -0.15269993 -0.20131403
-0.11649923 -0.19289649 -0.05688065 -0.031192677 -0.11283391 -0.12917723 -0.08543588 -0.11853834
0.0036413427 -0.0734477 0.00242724 -0.16641577 -0.21789576 -0.08096407 -0.09787841 0.018088888
-0.131231 -0.16601124 -0.31491676 -0.24336898 -0.28426194 -0.06303173 0.006442608 0.0060246657
-0.1259916 -0.00054155575 -0.049721614 -0.05997751 0.07169844 -0.0019602291 0.049173273 0.020078467
0.08129452 0.09826963 -0.046012424 0.09036404 0.03426869 -0.14216599 0.076621816 -0.1122979
0.08649665 -0.10370032 -0.10523012 -0.13513689 -0.1907451 -0.0672768 -0.09908399 -0.08659945
-0.036012746 -0.0054284474 -0.09500443 -0.1972835 -0.19608483 -0.25559953 -0.14799826 -0.11209584
-0.3156323 -0.30670878 -0.32999563 -0.26047927 -0.28085458 -0.19616328 -0.27935463 -0.28690693
-0.33652526 -0.35968292 -0.18631148 -0.27395085 -0.104939975 -0.22327653 -0.12654594 0.041275878
0.011515723 0.16785005 -0.05713429 0.06411 0.1489506 0.052780684 0.15901603 0.022492237
0.03106012 -0.154181 -0.033267446 -0.08558975 -0.09186875 -0.26704362 -0.20228767 -0.10595074
-0.1889144 -0.10033446 -0.17775203 -0.13652986 -0.10732938 -0.09166494 -0.097259596 -0.2662619
0.46650937 0.55454004 0.46404198 0.5008189 0.35582912 0.5486759 0.5338825 0.56286204
0.31535533 0.3371155 0.4660876 0.41249892 0.42579404 0.31745896 0.2728636 0.28674084
0.30992442 0.24138293 0.15359911 0.2614977 0.33613312 0.34844294 0.3093886 0.19850962
0.25085318 0.024674032 0.075482 -0.041332114 0.09905687 -0.016672458 0.020603351 0.09433217
-0.099200495 -0.038993396 -0.10192296 0.0200486 -0.025289519 0.100096315 0.023258545 0.06934142
0.0019383964 -0.07642678 -0.0010876826 -0.07680765 0.072477534 -0.002272148 -0.024597479 -0.041386437
-0.09146683 -0.04328011 -0.054285593 0.0005919175 0.113113426 -0.09899303 -0.0908338 0.031493317
00000000: 012d 52bd 0882 bc3d 1437 a1bd a99b ecbd
00000010: 80f8 c73d fd2e 12bd f8d2 923c 4e3a a7bd
00000020: e749 ba3d f04b 0ebd 3fc7 57bd 4b5d 32bc
00000030: ef14 81bb 7416 ee3a f073 5a3d 55f8 8fbd
00000040: b4c0 8bbd a3c3 ebbd 3341 d73c 4a40 493d
00000050: 3d49 78bd 61f4 d03d 6344 b73c 9bf3 e33c
00000060: 86fc b53d a915 183d 9a18 85bd 74d5 e9bd
00000070: 97a1 ac3d 5c6b 8c3d 6acb acbd 64f2 633d
00000080: 87b5 77bd a1aa c2bc 1608 8e3d 72eb e33b
00000090: 1d09 483d fbb2 8dbd 5c0d cfbd ae04 9e3b
000000a0: 96b6 153c 3e2f 6e3d 62ec d53c ee38 d9bd
000000b0: b367 5bbd ad3c 013c d858 a9bd 4a52 d33c
000000c0: e72c b8bd 283d 53bd 7fb5 063d b6ec 54bc
000000d0: b45b 8fbd aed2 cfbc fc8f 9d3d a03a 953d
000000e0: 3a97 353d 7a1d 85bd 4d37 16bd ecba d9bd
000000f0: 375b fa3c 2063 80bd ba86 e1bc 9898 723d
00000100: 8449 46bc ebd4 133c 607c 983d 8dd4 573d
00000110: 0703 a2bd 9010 fcbc 6509 48bd 616c 74bb
00000120: 6601 a4bd 5dbe cf3c 825e 8fbd 898f 16bd
00000130: eb85 a83d e634 2cbb 9712 af3d 5cc1 d03d
00000140: 1e8a 9a3c ae2b 5d3e 142b 353e 279e 363e
00000150: 44c0 0d3e d8b8 3c3e 50b3 413e 112e b13e
00000160: 6253 c23e 4550 ac3e 14db 263e f816 883e
00000170: e638 943e 0ea9 4a3e b34c 933e 8517 793d
00000180: ffe7 f53d cb68 173e 3bbf 69bc a38b 273e
00000190: 6550 70be 5ff1 9bbe 5f5d 1cbe 4425 4ebe
000001a0: 2697 eebd a886 45be affb 68bd c987 ffbc
000001b0: 7715 e7bd 0947 04be 02f9 aebd 3bc4 f2bd
000001c0: 98a3 6e3b bf6b 96bd 5412 1f3b e568 2abe
000001d0: 1120 5fbe 7ed0 a5bd 7a74 c8bd 262f 943c
000001e0: 6b61 06be dafe 29be c53c a1be b835 79be
000001f0: c88a 91be c816 81bd 831c d33b 8f6a c53b
00000200: f103 01be 31f7 0dba e4a8 4bbd faaa 75bd
00000210: a2d6 923d 3077 00bb ea69 493d 997b a43c
00000220: be7d a63d 9641 c93d 8677 3cbd c810 b93d
00000230: 535d 0c3d f693 11be e6eb 9c3d 71fc e5bd
00000240: 2825 b13d d560 d4bd e482 d7bd 5361 0abe
00000250: af52 43be 6bc8 89bd 8cec cabd 0d5b b1bd
00000260: 1a82 13bd 1ee1 b1bb af91 c2bd b004 4abe
00000270: 76ca 48be f1dd 82be db8c 17be 8192 e5bd
00000280: 8f9a a1be ef08 9dbe 30f5 a8be 8a5d 85be
00000290: 2ccc 8fbe 07df 48be 9207 8fbe 77e5 92be
000002a0: 0a4d acbe 5c28 b8be 70c8 3ebe 4943 8cbe
000002b0: c5ea d6bd 9aa2 64be 4295 01be e510 293d
000002c0: 71ac 3c3c e2e0 2b3e a505 6abd 1b4c 833d
000002d0: 8286 183e 8f30 583d 19d5 223e a441 b83c
000002e0: cb71 fe3c a0e1 1dbe 7243 08bd ae49 afbd
000002f0: af25 bcbd f1b9 88be 8024 4fbe b4fc d8bd
00000300: c772 41be 277c cdbd a104 36be 7cce 0bbe
00000310: 82cf dbbd d4ba bbbd 0a30 c7bd 7b53 88be
00000320: 51da ee3e 56f6 0d3f e996 ed3e ab35 003f
00000330: 3c2f b63e 0676 0c3f 86ac 083f ba17 103f
00000340: 4176 a13e 679a ac3e 09a3 ee3e 0f33 d33e
00000350: ad01 da3e fb89 a23e c7b4 8b3e b2cf 923e
00000360: 6aae 9e3e 162d 773e 1649 1d3e 07e3 853e
00000370: a419 ac3e 1d67 b23e 2f68 9e3e 1b46 4b3e
00000380: d46f 803e 3221 ca3c 4f96 9a3d dd4b 29bd
00000390: 54de ca3d ae94 88bc 5cc8 a83c 3a31 c13d
000003a0: a129 cbbd 8ab7 1fbd fcbc d0bd f63c a43c
000003b0: f72b cfbc 4cff cc3d b488 be3c e002 8e3d
000003c0: ca11 fe3a a585 9cbd 9290 8eba 544d 9dbd
000003d0: 1a6f 943d 51e8 14bb a780 c9bc d384 29bd
000003e0: f652 bbbd 7c46 31bd 925a 5ebd e92a 1b3a
000003f0: 03a8 e73d dcbc cabd 1207 babd 23ff 003d

conv1.bias f4 [6]
-0.04049014 -0.165052 -0.58346856 -0.104600504 -0.48676822 0.1118321
00000000: fdd8 25bd 6403 29be 325e 15bf ca38 d6bd
00000010: af39 f9be 3a08 e53d

conv2.weight f4 [16, 6, 5, 5]
0.05884475 -0.031534553 -0.0034474044 0.048977792 -0.035924036 -0.062120862 -0.043119773 0.07231471
-0.016560346 -0.008505297 0.02585337 0.039179668 0.0152078895 -0.07494342 0.04796846 -0.0088146
-0.017071757 0.033224158 -0.04788833 0.03036888 -0.035032537 0.026890881 -0.0139786005 0.068858854
-0.06291988 -0.06682722 0.0053836955 0.0013845093 -0.09867413 0.0387328 -0.08675888 -0.08802177
-0.08577032 0.029548006 0.04699067 -0.0712872 -0.022022983 0.025791183 -0.055705618 -0.080184914
0.0579489 0.021015372 -0.013777022 0.053268954 0.024256479 -0.055079807 -0.0014303523 0.02610749
-0.01412467 0.11269594 -0.071091436 -0.07002936 -0.0541791 -0.010376109 0.038461372 -0.107523315
-0.08058746 -0.118640095 -0.1177791 0.0024278772 -0.065599784 -0.07020192 -0.1510438 -0.116023235
-0.043560635 -0.18447012 -0.17005669 -0.07973551 -0.1150364 -0.0808335 -0.1358449 -0.051844023
-0.17201176 -0.1919859 -0.11222012 0.040293884 -0.07044318 0.062191736 0.03854192 0.07608218
-0.07631612 -0.03725373 0.030328661 0.0013918177 0.03860475 0.0035598413 -0.06707166 -0.06079067
0.004418938 -0.0015904143 0.059252597 -0.050725866 0.0056120153 -0.049871266 -0.045667928 -0.07843026
-0.07211258 0.0051842337 0.024695031 0.054816324 -0.02571565 -0.009044369 0.113046825 -0.023456853
0.13438775 0.07554293 0.07374799 0.113094114 -0.025872529 0.103375174 0.034030188 0.0069002984
0.07331418 0.07552447 0.12944224 -0.042306967 0.060391255 0.057830326 0.12704736 0.040956717
-0.037984487 -0.00314441 -0.012150945 0.040567644 -0.016504694 0.07350263 -0.0238871 -0.0074807433
0.0060090492 -0.049721487 0.04647 -0.050643552 0.041509554 -0.017716967 0.057283893 0.066274524
-0.018132195 0.033794906 -0.04928924 0.016355293 -0.03999913 0.03482688 0.016722072 -0.07581702
0.060782026 0.06965761 -0.031915665 -0.02151244 -0.00055459363 -0.030792153 -0.05445683 0.051769942
0.019252194 -0.03469178 -0.001438823 -0.036129355 0.027706197 0.07479262 -0.06378098 -0.06990823
-0.031061308 -0.013379713 0.038301613 0.009522737 0.027384076 0.07102016 0.034858044 -0.028066255
-0.019715503 0.017073877 -0.05956145 -0.060403127 -0.009988991 -0.036759004 -0.042926915 0.008803675
0.002226248 -0.05849 -0.03770939 -0.06980978 0.07381204 0.038130607 0.04195073 0.048752684
0.024689032 -0.03494238 0.05086446 -0.06006068 -0.060959563 0.034004908 -0.044648267 -0.014321466
-0.005869007 0.057600632 0.0131246485 0.026225828 -0.061727043 -0.063175306 -0.063982494 -0.005661921
-0.041698717 -0.030359797 0.033173643 -0.06376185 -0.030919118 0.043442618 0.056561958 -0.01686507
-0.041366596 -0.017322458 0.03801024 -0.07042911 -0.03407275 0.055593822 0.07608557 0.04692196
0.00795678 -0.081694715 0.042347677 -0.07273267 0.04111218 -0.01397715 -0.028196096 -0.050204042
0.052736707 -0.07326776 -0.04217892 -0.043009825 -0.07926892 -0.047964793 -0.023804154 -0.07250563
0.008081769 0.04382198 -0.041426525 0.049853597 -0.007987654 0.017620863 -0.07743462 -0.022075886
0.031728912 0.063299395 -0.01476788 0.03289573 -0.003913793 -0.020039199 -0.05950054 0.036493197
0.019532451 0.009532419 0.07599409 -0.08056654 0.07585787 0.032470204 -0.016034259 -0.049745306
00000000: 3107 713d 602a 01bd d9ed 61bb f09c 483d
00000010: 1525 13bd 7272 7ebd 5c9e 30bd bc19 943d
00000020: 90a9 87bc cd59 0bbc 72ca d33c dc7a 203d
00000030: 832a 793c f07b 99bd 937a 443d 1d6b 10bc
00000040: 12da 8bbc 0e16 083d 8e26 44bd 28c8 f83c
00000050: 477e 0fbd 444a dc3c 8006 65bc df05 8d3d
00000060: 23dc 80bd b6dc 88bd b669 b03b 6c78 b53a
00000070: aa15 cabd 49a6 1e3d a4ae b1bd c244 b4bd
00000080: 59a8 afbd a90e f23c 4a79 403d 06ff 91bd
00000090: 8b69 b4bc 0848 d33c 932b 64bd fd37 a4bd
000000a0: d35b 6d3d 6e28 ac3c 05b9 61bc 8c30 5a3d
000000b0: 86b5 c63c 5d9b 61bd a97a bbba 60df d53c
000000c0: 296b 67bc 21cd e63d 6398 91bd 8e6b 8fbd
000000d0: e7ea 5dbd 8e00 2abc ac89 1d3d 2f35 dcbd
000000e0: 0a0b a5bd 94f9 f2bd 2b36 f1bd 051d 1f3b
000000f0: 2e59 86bd 06c6 8fbd 3aab 1abe 979d edbd
00000100: a36c 32bd bce5 3cbe 5723 2ebe 5f4c a3bd
00000110: 3498 ebbd 098c a5bd ed1a 0bbe 665a 54bd
00000120: da23 30be f497 44be aad3 e5bd 330b 253d
00000130: 8444 90bd c3bc 7e3d 22de 1d3d f9d0 9b3d
00000140: a04b 9cbd 5e97 18bd d073 f83c a76d b63a
00000150: 0420 1e3d 3a4c 693b de5c 89bd a3ff 78bd
00000160: bdcc 903b 7375 d0ba dab2 723d edc5 4fbd
00000170: ffe4 b73b d045 4cbd 4b0e 3bbd 0ba0 a0bd
00000180: c3af 93bd 81e0 a93b 3c4d ca3c 1587 603d
00000190: a0a9 d2bc d52e 14bc 1885 e73d 9628 c0bc
000001a0: f19c 093e 40b6 9a3d 3009 973d e39d e73d
000001b0: a0f2 d3bc 5db6 d33d 3d63 0b3d e61b e23b
000001c0: bf25 963d 93ac 9a3d 828c 043e 124a 2dbd
000001d0: d25c 773d 7edf 6c3d b418 023e 3bc2 273d
000001e0: 9f95 1bbd 7212 4ebb c214 47bc 422a 263d
000001f0: da34 87bc 8c88 963d e1ae c3bc 0621 f5bb
00000200: 8fe7 c43b c2a8 4bbd 5457 3e3d 9d6f 4fbd
00000210: ec05 2a3d 2c23 91bc 84a2 6a3d f0ba 873d
00000220: f889 94bc 876c 0a3d 84e3 49bd 89fb 853c
00000230: 21d6 23bd a1a6 0e3d bafc 883c f445 9bbd
00000240: 93f6 783d a6a8 8e3d 00ba 02bd db3a b0bc
00000250: 2662 11ba d33f fcbc 200e 5fbd b80c 543d
00000260: c7b6 9d3c f818 0ebd e396 bcba 60fc 13bd
00000270: 1bf8 e23c e02c 993d 9a9f 82bd 0c2c 8fbd
00000280: 4974 febc 9536 5bbc 27e2 1c3d 4105 1c3c
00000290: 9254 e03c 0573 913d 4fc7 0e3d 34eb e5bc
000002a0: 6882 a1bc 84de 8b3c b5f6 73bd 4569 77bd
000002b0: dda8 23bc 9c90 16bd 22d4 2fbd 4a3d 103c
000002c0: 3ee6 113b 3693 6fbd 2975 1abd 6ef8 8ebd
000002d0: c42a 973d d72e 1c3d 87d4 2b3d e5b0 473d
000002e0: a740 ca3c be1f 0fbd 4157 503d 3002 76bd
000002f0: bcb0 79bd bb48 0b3d 1ae1 36bd 95a4 6abc
00000300: cd50 c0bb a4ee 6b3d c408 573c 8cd7 d63c
00000310: 7fd5 7cbd 0e62 81bd 4109 83bd a387 b9bb
00000320: 46cc 2abd 1cb5 f8bc 16e1 073d 9395 82bd
00000330: 174a fdbc e3f0 313d 83ad 673d 9e28 8abc
00000340: 0570 29bd d4e7 8dbc a0b0 1b3d 233d 90bd
00000350: de8f 0bbd 59b6 633d c0d2 9b3d 3e31 403d
00000360: 275d 023c 8f4f a7bd c274 2d3d def4 94bd
00000370: 3f65 283d 6b00 65bc 80fb e6bc c1a2 4dbd
00000380: 7202 583d 680d 96bd cec3 2cbd 122b 30bd
00000390: be57 a2bd bb76 44bd ee00 c3bc d57d 94bd
000003a0: 6569 043c ad7e 333d dcae 29bd 4933 4c3d
000003b0: a6de 02bc a159 903c 0b96 9ebd 7dd8 b4bc
000003c0: 2df6 013d 1da3 813d faf4 71bc acbd 063d
000003d0: 463f 80bb 3f29 a4bc d7b6 73bd e479 153d
000003e0: 8502 a03c dd2d 1c3c caa2 9b3d 1200 a5bd
000003f0: 5f5b 9b3d 7aff 043d 475a 83bc bcc1 4bbd

conv2.bias f4 [16]
0.4396601 -0.010303818 0.030188581 0.05407794 -0.0077331834 0.07473384 -0.16271071 -0.04271892
-0.06059463 -0.11249319 0.20855558 0.28435448 -0.23037648 -0.14361955 -0.20651492 -0.447411
00000000: 211b e13e 58d1 28bc 0b4e f73c d480 5d3d
00000010: a566 fdbb 0e0e 993d a39d 26be 09fa 2ebd
00000020: 1332 78bd d462 e6bd 988f 553e e996 913e
00000030: d0e7 6bbe 0111 13be a678 53be 0e13 e5be

fc1.weight f4 [120, 400]
0.0053572874 0.024481043 -0.0053453096 -0.04488178 -0.008043347 0.03895895 -0.0008750571 0.019302474
0.017421406 -0.021700613 0.001622501 0.03279727 0.02681896 -0.014946193 0.0019862945 -0.049235806
0.029397191 0.0032139386 -0.04625749 -0.031625792 0.0141389035 -0.016554385 -0.04243197 0.0037943234
0.033961598 -0.0011157165 0.043294534 -0.030763635 0.0015459803 0.037125714 0.02425348 0.0058606328
0.007797674 -0.048297644 -0.045640636 0.020024044 0.01976397 -0.03916742 0.012376519 0.009557329
-0.030739713 0.04162466 0.023666484 0.005706567 -0.015214087 -0.00081118575 0.028014071 0.031746946
0.020263728 0.03513835 0.02363274 0.048280686 0.036626004 -0.011142807 0.027509298 -0.017231401
0.007066218 0.013825051 -0.026308153 -0.048801348 0.0044524656 0.039513744 0.02204906 -0.04907276
0.016849484 -0.016250167 0.030276364 -0.012178811 -0.004737771 -0.020174684 0.044894833 -0.0031031612
0.03755241 -0.011703636 -0.01957174 0.023668094 -0.002234113 -0.008172953 0.04209555 0.0065806094
0.027582573 -0.009377332 -0.039304856 0.0041304426 -0.025767995 0.0043372586 -0.03915446 0.036133926
-0.018431636 0.04741208 -0.050490126 -0.0054137874 -0.003188377 -0.0036242157 0.014524979 -0.03167816
-0.033624813 -0.041448493 0.03071109 -0.020738931 -0.02841194 0.017716868 -0.017122135 0.04261688
-0.0018013286 0.035183415 0.0035995652 -0.0310935 0.0112917805 -0.003982545 0.025350288 0.05611965
-0.018876968 -0.031284593 0.033269968 0.02029305 -0.028495949 0.036496233 -0.028026728 -0.007700526
-0.030619238 0.026174016 0.010505206 -0.04335836 -0.029898724 0.014855803 -0.01937713 0.015227572
0.011718486 -0.056318287 -0.0037633278 0.015463156 -0.0061819865 0.004983032 -0.02771771 0.036140643
-0.03983134 -0.030249551 -0.020317899 -0.051633257 -0.005069171 0.027587801 0.02479791 -0.03013565
-0.050362665 0.004045454 0.014618617 0.00093574735 -0.0007461675 -0.0011551566 -0.00081592076 -0.012642871
-0.03919838 -0.020945573 0.031984147 -0.0027629235 -0.026990784 0.030314887 -0.025332414 0.0063011562
-0.008766191 0.022717211 0.005677507 0.039629392 -0.005355147 0.045574475 0.027315138 -0.029766174
-0.04883774 -0.01774383 0.029296376 -0.01988475 0.036311816 -0.015251172 0.0340375 0.006394849
-0.01229569 -0.038566675 0.012907676 -0.040936794 -0.030026738 0.035489466 0.025829507 -0.04685911
0.010496903 -0.0038473094 -0.004100151 -0.023387251 0.045190528 0.009876181 -0.012472136 -0.013123229
-0.016370574 -0.027363576 -0.027400324 0.035666686 -0.041213766 -0.033497564 -0.036517434 0.026789634
-0.025753751 -0.013282325 0.024080947 0.033482835 0.0027549563 0.043065123 -0.0039940975 -0.024421895
0.04686967 -0.024328586 0.06224449 0.035642862 0.028791506 0.043994367 0.00044798478 0.025579466
-0.031461176 0.027666021 2.6585905e-05 0.007139634 -0.02850144 0.055471957 -0.043810014 -0.045881495
0.040209405 -0.008835704 0.027232101 -0.026623828 0.03148446 0.0015100302 -0.014721431 0.041901313
0.034835972 -0.046944458 0.008039403 -0.024642352 -0.018409418 -0.034757126 0.0077748653 -0.033967715
-0.042937748 0.049565434 -0.04319856 -0.040802293 0.0027155452 -0.030161202 -0.0009475486 0.04597288
0.0076122256 -0.0055350605 -0.036271803 -0.047354877 -0.047623526 0.030637048 -0.0030826787 0.021382524
00000000: 2f8c af3b 788c c83c b527 afbb f5d5 37bd
00000010: 3ec8 03bc 6c93 1f3d 1764 65ba 3920 9e3c
00000020: 56b7 8e3c 7cc5 b1bc 19aa d43a 6e56 063d
00000030: 70b3 db3c e1e0 74bc 7e2c 023b 7cab 49bd
00000040: 61d2 f03c f1a0 523b 7e78 3dbd 0c8a 01bd
00000050: dca6 673c 109d 87bc 25cd 2dbd 2faa 783b
00000060: 511b 0b3d 3c3d 92ba 9c55 313d 0504 fcbc
00000070: 7ea2 ca3a 2211 183d 3caf c63c 8d0a c03b
00000080: a183 ff3b c0d3 45bd adf1 3abd 7709 a43c
00000090: 0de8 a13c 046e 20bd e2c6 4a3c 5896 1c3c
000000a0: dad1 fbbc 9f7e 2a3d 37e0 c13c 27fe ba3b
000000b0: 8244 79bc c1a5 54ba c47d e53c 1609 023d
000000c0: 1e00 a63c 3bed 0f3d 7399 c13c f8c1 453d
000000d0: 2605 163d 5290 36bc 2e5b e13c de28 8dbc
000000e0: bc8b e73b 7782 623c 3284 d7bc ece3 47bd
000000f0: fde5 913b 2ad9 213d 3ba0 b43c 8500 49bd
00000100: ee07 8a3c 121f 85bc 2306 f83c a389 47bc
00000110: 4e3f 9bbb 6145 a5bc a5e3 373d 685e 4bbb
00000120: 8ed0 193d 9bc0 3fbc ea54 a0bc 97e3 c13c
00000130: 326a 12bb d9e7 05bc 626c 2c3d 27a2 d73b
00000140: d9f4 e13c 62a3 19bc 21fe 20bd aa58 873b
00000150: 6717 d3bc 901f 8e3b 6d60 20bd 2b01 143d
00000160: f1fd 96bc 2b33 423d bcce 4ebd 2466 b1bb
00000170: 17f4 50bb 4084 6dbb 2dfa 6d3c f5c0 01bd
00000180: 2cba 09bd e5c5 29bd d395 fb3c b1e4 a9bc
00000190: 28c0 e8bc f722 913c b843 8cbc 0a8f 2e3d
000001a0: 8f1a ecba 7c1c 103d afe6 6b3b ccb7 febc
000001b0: 2901 393c 0280 82bb 68ab cf3c b8dd 653d
000001c0: dfa3 9abc 4624 00bd 1746 083d 9c3d a63c
000001d0: 5670 e9bc 137d 153d 4f98 e5bc b254 fcbb
000001e0: 32d5 fabc e46a d63c 071e 2c3c 8998 31bd
000001f0: 2bee f4bc c165 733c c9bc 9ebc 117d 793c
00000200: e5fe 3f3c 01ae 66bd 2aa2 76bb 2d59 7d3c
00000210: 4392 cabb b448 a33b 4010 e3bc 3608 143d
00000220: 3026 23bd e8cd f7bc b971 a6bc 657d 53bd
00000230: 4a1b a6bb d0ff e13c fd24 cb3c 0adf f6bc
00000240: 1549 4ebd ba8f 843b ec82 6f3c f14c 753a
00000250: 749a 43ba a068 97ba 84e3 55ba 0b24 4fbc
00000260: 7b8e 20bd 0d96 abbc cf01 033d 2a12 35bb
00000270: c71b ddbc ed56 f83c ec85 cfbc ee79 ce3b
00000280: 12a0 0fbc 7219 ba3c 610a ba3b 6e52 223d
00000290: 3b7a afbb 4dac 3a3d ffc3 df3c 31d8 f3bc
000002a0: 150a 48bd 825b 91bc f4fe ef3c 58e5 a2bc
000002b0: b3bb 143d 0de0 79bc e86a 0b3d e28b d13b
000002c0: dd73 49bc 17f8 1dbd b87a 533c 57ad 27bd
000002d0: a2fa f5bc 675d 113d 6798 d33c 57ef 3fbd
000002e0: 34fb 2b3c 2423 7cbb 8f5a 86bb 9f96 bfbc
000002f0: b419 393d b5cf 213c ee57 4cbc d002 57bc
00000300: 951b 86bc 9429 e0bc a576 e0bc 3b17 123d
00000310: c4cf 28bd be34 09bd 4e93 15bd ef75 db3c
00000320: 88f9 d2bc 1c9e 59bc 6845 c53c 4c25 093d
00000330: 7f8c 343b 0e65 303d ebe0 82bb 6d10 c8bc
00000340: 69fa 3f3d be4c c7bc 14f4 7e3d 40fe 113d
00000350: 2adc eb3c 7033 343d 80df ea39 078c d13c
00000360: 6fdd 00bd daa3 e23c cc04 df37 97f3 e93b
00000370: da7b e9bc 9036 633d 2172 33bd 3cee 3bbd
00000380: 9eb2 243d a1c3 10bc db15 df3c 371a dabc
00000390: d9f5 003d 35ec c53a 2832 71bc b6a0 2b3d
000003a0: 2ab0 0e3d d548 40bd b3b7 033c c2de c9bc
000003b0: 59cf 96bc 7d5d 0ebd 4cc4 fe3b bb21 0bbd
000003c0: 7edf 2fbd 2005 4b3d f9f0 30bd 4e20 27bd
000003d0: 4af7 313b a014 f7bc e964 78ba 0f4e 3c3d
000003e0: fa6f f93b 745f b5bb be91 14bd 30f7 41bd
000003f0: e310 43bd 8cfa fa3c c406 4abb 672a af3c

fc1.bias f4 [120]
0.041967545 0.0007545394 -0.08675017 0.06910464 -0.04472965 0.15082757 -0.039590403 0.019615185
0.01766602 -0.007803422 -0.038899772 -0.040707964 -0.027109068 0.14413203 -0.0021218825 0.012012405
0.013175547 0.054558206 0.047016796 0.011092138 0.043957904 0.062210906 0.030105734 0.19325408
-0.02536321 -0.05590869 0.015248352 0.00030850398 0.08271795 0.08071401 -0.027440784 -0.034688722
-0.016684072 0.06583879 -0.056867655 -0.032979753 0.035583694 -0.05121319 0.046154127 -0.00081325806
0.008275586 0.05203389 -0.007876162 0.00083234755 -0.057748806 -0.035713814 -0.03840043 -0.008748031
-0.0022059716 -0.06263622 -0.064298354 0.12281246 -0.011929858 -0.053230863 0.020627867 0.010421608
-0.010170953 -0.02225206 -0.0138311535 -0.03935766 -0.03420544 0.0010725054 0.038092036 0.032090046
-0.013597106 -0.034595694 -0.07088029 -0.03953623 0.04153873 -0.0073555023 0.0012690575 0.00039664202
0.044902723 -0.03236018 -0.0362824 0.012571129 -0.00014215478 -0.0031523493 0.009174451 0.14941952
-0.039823107 0.054291025 -0.002300314 0.026575038 -0.00014273178 0.003826247 -0.017127454 -0.008847528
0.015512556 0.028164193 0.024858968 0.04010589 -0.016265642 0.02020156 0.017884951 0.0007865225
0.08589074 -0.042031065 -0.05371814 0.09936107 0.028251193 0.014370141 -0.034985136 -0.022331638
0.0007003994 0.018872416 -0.023762811 0.0491388 -0.025208427 -0.041072663 -0.049637172 0.03006373
-0.042041697 0.0847842 -0.023514947 -0.020867623 0.06318743 0.0038712004 -0.049899638 -0.0891669
00000000: 29e6 2b3d 48cc 453a 13aa b1bd bc86 8d3d
00000010: 7036 37bd 8b72 1a3e 8c29 22bd 06b0 a03c
00000020: 54b8 903c d9b3 ffbb 5e55 1fbd 65bd 26bd
00000030: d613 debc 5997 133e 480f 0bbb aecf 443c
00000040: 40de 573c 6d78 5f3d af94 403d ccbb 353c
00000050: 340d 343d ddd0 7e3d 4da0 f63c 66e4 453e
00000060: 82c6 cfbc 8300 65bd 39d4 793c b4be a139
00000070: 0768 a93d 634d a53d 7fcb e0bc c315 0ebd
00000080: 09ad 88bc 7dd6 863d 0fee 68bd c715 07bd
00000090: 35c0 113d ecc4 51bd 1c0c 3d3d d330 55ba
000000a0: 5396 073c 7d21 553d 050b 01bc e631 5a3a
000000b0: 038a 6cbd a648 12bd c549 1dbd e753 0fbc
000000c0: 1092 10bb 6b47 80bd dbae 83bd 1985 fb3d
000000d0: 7375 43bc 9b08 5abd c6fb a83c 64bf 2a3c
000000e0: 12a4 26bc f449 b6bc 109c 62bc 7f35 21bd
000000f0: 011b 0cbd 4f93 8c3a 6506 1c3d da70 033d
00000100: 65c6 5ebc 37b4 0dbd af29 91bd bef0 21bd
00000110: 8424 2a3d 6d06 f1bb 8156 a63a 64f4 cf39
00000120: ebeb 373d 1c8c 04bd db9c 14bd 23f7 4d3c
00000130: 620f 15b9 a597 4ebb 7050 163c 6e01 193e
00000140: 8e1d 23bd 4460 5e3d ddc0 16bb e5b3 d93c
00000150: 45aa 15b9 c6c1 7a3b e04e 8cbc 39f5 10bc
00000160: 6028 7e3c 98b8 e63c 09a5 cb3c 1346 243d
00000170: 863f 85bc be7d a53c 7683 923c a22e 4e3a
00000180: 7ce7 af3d c428 2cbd 8d07 5cbd d17d cb3d
00000190: 0c6f e73c bd70 6b3c 934c 0fbd d7f0 b6bc
000001a0: 029b 373a 539a 9a3c 3aaa c2bc c445 493d
000001b0: e781 cebc cf3b 28bd 5950 4bbd 3648 f63c
000001c0: ea33 2cbd 57a3 ad3d 6ba2 c0bc 94f2 aabc
000001d0: 6968 813d f7b3 7d3b 9063 4cbd 239d b6bd

fc2.weight f4 [84, 120]
-0.0588747 -0.022365969 0.05406629 -0.023273764 -0.007547583 0.04118754 -0.056802157 -0.09155656
-0.036104687 -0.09924364 -0.046565007 -0.081738904 -0.06372072 -0.08900041 -0.08771768 -0.08587228
-0.030551394 -0.086662024 0.053808957 -0.013021219 0.0270824 -0.0499666 -0.030532978 0.04892503
-0.063289374 0.060840223 -0.06919118 0.03961777 0.07554651 -0.009155027 -0.011753987 0.073825054
-0.0031757727 -0.08641183 -0.058753125 0.0030639912 -0.08095147 0.070265114 0.02972768 0.06760919
0.03205034 -0.0006108462 -0.07864689 0.023909746 -0.086826935 -0.045232404 -0.029269712 -0.052425966
0.02668577 -0.053727806 0.079432234 0.019787988 -0.067918524 0.08749568 0.016210765 -0.09526177
0.065470114 -0.009951458 0.086855665 -0.038401082 0.058742628 0.017835777 0.0686058 0.01958125
-0.0026206453 -0.022520581 -0.011167928 -0.0014995441 0.07940264 -0.05937039 0.070956334 -0.0508963
0.020072876 0.07384916 0.012869766 0.005564331 0.02747876 0.022688901 0.039809637 0.05256377
0.08286835 0.043119308 -0.0013002815 0.033614744 -0.0717233 -0.01992491 0.026143799 -0.036151018
-0.08885118 -0.08482157 -0.040182464 0.06744371 -0.013101793 -0.08234672 -0.0077127614 -0.016770966
-0.0059519657 0.00031495633 -0.06398352 0.06162736 -0.06321595 -0.09792052 0.03630014 0.044790436
0.06832999 0.04582045 -0.056366075 -0.092020065 -0.08448643 -0.044358324 -0.004948433 -0.056959767
-0.020706546 0.040282276 -0.0966624 0.033838227 -0.051016863 -0.057531066 -0.085927434 0.061070744
0.013326499 -0.093364865 -0.09604978 0.03822011 0.048151445 -0.0419405 -0.035709854 -0.052396413
-0.05134564 -0.022869714 0.026378883 -0.004966578 0.04455141 -0.057466906 0.088482335 0.087751105
0.07755858 0.042523053 0.011984931 -0.02991078 -0.042179476 -0.08319604 -0.0822048 0.1166297
0.02072488 -0.09215237 0.0034582189 -0.057621554 -0.018595299 -0.09813788 0.0639484 -0.023786986
-0.068681814 0.015135061 -0.008374111 -0.068350725 0.06269522 0.0392089 -0.0548103 -0.052809235
0.051721577 0.004705575 0.023817822 0.081853844 -0.07414557 0.08705105 0.049791984 0.0023247867
-0.11165901 0.0039964425 -0.11442617 -0.08677629 -0.12978178 -0.05326414 -0.016178615 -0.0075235567
-0.06423546 0.05056308 0.04835542 0.047504645 0.07214755 0.06247642 0.08753454 0.024220163
0.06494772 0.09145919 0.061473694 -0.0070338747 -0.027029179 0.00084415375 -0.014961966 -0.034587257
0.09294817 -0.03389308 0.10986748 -0.04252026 0.095544666 0.0460197 0.08628568 -0.012506254
0.08416682 -0.021275083 -0.11241704 0.07766492 -0.07541233 -0.07659493 0.09585962 -0.059753586
0.039383624 -0.06042435 0.03280916 -0.034265798 0.049694594 0.081109226 0.0925351 0.07760814
-0.061984673 0.0019887937 0.022370717 -0.018982694 -0.057794362 -0.037495896 0.06363247 -0.040936317
-0.015228703 0.00893339 0.062444605 -0.09556471 0.04403023 -0.08716304 -0.03340119 -0.0309393
0.072026104 -0.07648132 -0.007005951 0.05839604 0.03621345 0.026500173 0.06989387 -0.08938444
0.084921196 -0.026646147 -0.0340072 0.1466638 -0.09006387 -0.059200477 0.09231401 0.0053100064
-0.09433368 0.09374703 -0.017240576 -0.07527147 0.08139454 0.031132946 0.008094258 0.07723117
00000000: 9926 71bd d638 b7bc 9d74 5d3d 9fa8 bebc
00000010: b751 f7bb 44b4 283d 61a9 68bd 0182 bbbd
00000020: 82e2 13bd 4040 cbbd f3ba 3ebd ba66 a7bd
00000030: 0280 82bd d945 b6bd 54a5 b3bd cedd afbd
00000040: eb46 fabc dc7b b1bd c866 5c3d f356 55bc
00000050: e9db dd3c c7a9 4cbd 4c20 fabc 9d65 483d
00000060: dc9d 81bd 9933 793d 1bb4 8dbd 3e46 223d
00000070: 21b8 9a3d f7fe 15bc cb93 40bc 9731 973d
00000080: a020 50bb aff8 b0bd 1ea7 70bd 3ecd 483b
00000090: e2c9 a5bd 28e7 8f3d 7787 f33c b076 8a3d
000000a0: 3847 033d 3221 20ba 9f11 a1bd 5fde c33c
000000b0: 52d2 b1bd 9d45 39bd 09c7 efbc 9cbc 56bd
000000c0: 1e9c da3c b011 5cbd 5ead a23d 6b1a a23c
000000d0: de18 8bbd ef30 b33d 70cc 843c 9a18 c3bd
000000e0: 3215 863d 710b 23bc 62e1 b13d 744a 1dbd
000000f0: 1c9c 703d 561c 923c 3381 8c3d dc68 a03c
00000100: 22bf 2bbb 157d b8bc aff9 36bc 5a8c c4ba
00000110: da9d a23d 5e2e 73bd 8e51 913d a378 50bd
00000120: df6f a43c 3a3e 973d b6db 523c fe54 b63b
00000130: 231b e13c 13de b93c 6e0f 233d 1c4d 573d
00000140: e2b6 a93d df9d 303d 356e aaba 9daf 093d
00000150: aae3 92bd 9139 a3bc 852b d63c 1713 14bd
00000160: 9cf7 b5bd eeb6 adbd 5e96 24bd ee1f 8a3d
00000170: e7a8 56bc 66a5 a8bd 55bb fcbb 4463 89bc
00000180: b508 c3bb b920 a539 cb09 83bd f86c 7c3d
00000190: 5d77 81bd 8e8a c8bd 75af 143d 2d76 373d
000001a0: 98f0 8b3d 39ae 3b3d 1de0 66bd 0475 bcbd
000001b0: 3907 adbd 13b1 35bd 7726 a2bb a54e 69bd
000001c0: c6a0 a9bc 07ff 243d f0f6 c5bd f499 0a3d
000001d0: 0ff7 50bd b2a5 6bbd b9fa afbd 5125 7a3d
000001e0: 6357 5a3c 1436 bfbd bfb5 c4bd b18c 1c3d
000001f0: 733a 453d cdc9 2bbd 7f44 12bd 9f9d 56bd
00000200: ce4f 52bd 4459 bbbc 8718 d83c adbe a2bb
00000210: 8a7b 363d 6b62 6bbd 3a36 b53d dab6 b33d
00000220: 08d7 9e3d a72c 2e3d 725c 443c 7407 f5bc
00000230: 63c4 2cbd af62 aabd fd5a a8bd 8ddb ee3d
00000240: 39c7 a93c 62ba bcbd 49a3 623b 9404 6cbd
00000250: 2b55 98bc 83fc c8bd 61f7 823d eddc c2bc
00000260: 0da9 8cbd 0cf9 773c 9133 09bc 77fb 8bbd
00000270: 5a66 803d 8399 203d c480 60bd 7f4e 58bd
00000280: 01da 533d 3931 9a3b 981d c33c fda2 a73d
00000290: a2d9 97bd d247 b23d aef2 4b3d 735b 183b
000002a0: 7bad e4bd 97f4 823b 4558 eabd c4b7 b1bd
000002b0: 84e5 04be 802b 5abd 0489 84bc 2b88 f6bb
000002c0: e18d 83bd 3b1b 4f3d 5510 463d 3b94 423d
000002d0: 18c2 933d 46e7 7f3d 4f45 b33d 5d69 c63c
000002e0: 4f03 853d f54e bb3d d7cb 7b3d 6b7c e6bb
000002f0: 4c6c ddbc 334a 5d3a 0923 75bc 5eab 0dbd
00000300: 9c5b be3d 78d3 0abd 3402 e13d b929 2ebd
00000310: ecac c33d 277f 3c3d 8cb6 b03d 08e7 4cbc
00000320: a75f ac3d 1549 aebc e83a e6bd c90e 9f3d
00000330: c871 9abd cddd 9cbd 0c52 c43d 2dc0 74bd
00000340: b950 213d 867f 77bd e662 063d 4b5a 0cbd
00000350: 8f8c 4b3d 981c a63d 0b83 bd3d 04f1 9e3d
00000360: a4e3 7dbd 6c56 023b cb42 b73c 9881 9bbc
00000370: c8b9 6cbd 4c95 19bd be51 823d d7ac 27bd
00000380: cf81 79bc 5a5d 123c eac5 7f3d 6eb7 c3bd
00000390: 0b59 343d 8982 b2bd b0cf 08bd 6a74 fdbc
000003a0: 6c82 933d 3da2 9cbd 2d92 e5bb b030 6f3d
000003b0: 8e54 143d e416 d93c 8424 8f3d 300f b7bd
000003c0: 2aeb ad3d 0549 dabc 224b 0bbd 092f 163e
000003d0: 6873 b8bd 337c 72bd 210f bd3d 90ff ad3b
000003e0: 0432 c1bd 71fe bf3d 1c3c 8dbc ee27 9abd
000003f0: 2eb2 a63d 850a ff3c c79d 043c 602b 9e3d

fc2.bias f4 [84]
-0.0762167 -0.07729549 0.17181064 -0.06299994 -0.0920783 -0.019541731 0.05235372 -3.536725e-05
0.10057512 0.09672869 0.01987143 0.040826693 0.1713363 -0.064525664 0.02892708 -0.032157883
-0.032517236 -0.061873194 0.021075089 0.049312323 0.011998458 -0.07324706 0.14708814 0.13884793
0.011452423 -0.046582073 -0.07938261 -0.038637705 0.17777407 -0.04512855 -0.016401524 -0.06278816
0.030018136 -0.007042818 -0.039059553 -0.05996365 0.024151834 -0.019996686 0.022800973 -0.09313917
0.13133967 -0.12698327 -0.0022434667 0.06130972 0.010363198 0.03970427 -0.055839192 -0.03632639
-0.07085085 -0.10068018 -0.025175001 0.07957254 0.022002878 0.17952667 0.00770286 -0.007369016
-0.08240313 0.08704691 0.4929394 -0.08650481 -0.035317674 0.017393433 -0.027586978 0.010435886
0.10839218 -0.025756866 -0.0029898512 0.122220024 0.059938435 -0.095139384 0.03206102 0.064643286
-0.031893488 -0.08434187 0.071470566 0.06461248 0.10855749 0.021591991 0.058270097 -0.074482694
0.15043214 0.24780673 -0.038963746 -0.06440467
00000000: 8017 9cbd 194d 9ebd 21ef 2f3e 1d06 81bd
00000010: 8c93 bcbd fb15 a0bc db70 563d 4c57 14b8
00000020: 54fa cd3d b119 c63d 69c9 a23c e439 273d
00000030: c872 2f3e 0826 84bd 7cf8 ec3c fcb7 03bd
00000040: cb30 05bd bf6e 7dbd aaa5 ac3c b8fb 493d
00000050: 2e95 443c 8e02 96bd 469e 163e 272e 0e3e
00000060: f2a2 3b3c d8cc 3ebd 5a93 a2bd 9242 1ebd
00000070: 680a 363e b7d8 38bd 7d5c 86bc 1497 80bd
00000080: 98e8 f53c 70c7 e6bb e9fc 1fbd 729c 75bd
00000090: 11da c53c 17d0 a3bc 1bc9 ba3c c0bf bebd
000000a0: e87d 063e e707 02be 2007 13bb e71f 7b3d
000000b0: 67ca 293c f2a0 223d a3b7 64bd fbca 14bd
000000c0: 401a 91bd 6931 cebd ce3b cebc eef6 a23d
000000d0: 613f b43c d7d5 373e 4668 fc3b c977 f1bb
000000e0: f9c2 a8bd a645 b23d 8e62 fc3e 6f29 b1bd
000000f0: 44a9 10bd ac7c 8e3c 16fe e1bc 47fb 2a3c
00000100: b8fc dd3d 1000 d3bc 61f1 43bb 7e4e fa3d
00000110: 0182 753d 70d8 c2bd 6b52 033d b363 843d
00000120: bfa2 02bd 6ebb acbd 295f 923d 8c53 843d
00000130: 6453 de3d b0e1 b03c a0ac 6e3d 628a 98bd
00000140: e20a 1a3e 0cc1 7d3e 7398 1fbd 98e6 83bd

fc3.weight f4 [10, 84]
-0.020605564 0.1878262 -0.118174285 -0.01663309 0.0117289815 -0.13604046 -0.094956085 -0.042618256
0.109065875 -0.049578022 0.009888731 0.05269391 -0.10607182 0.15016167 0.031372264 0.08414604
-0.022459762 0.06747627 0.07001677 -0.0025339331 0.11135193 -0.08343498 0.27933744 -0.11915441
0.05852298 0.047261197 0.06323514 -0.044055045 -0.108210966 -0.07183048 -0.033715952 0.092136316
-0.14723589 0.07631671 0.07506012 0.17684653 -0.041371945 0.062400017 0.08255456 -0.008440981
0.017121406 0.15865466 0.13138561 0.27540973 -0.01805403 0.20509331 0.022322543 -0.005408932
-0.044019315 -0.06727967 -0.074703865 0.021712674 -0.0700292 -0.1731582 0.018248802 -0.019999431
-0.04052885 0.19190213 -0.16908023 0.11133298 0.0671786 -0.042063996 -0.037921626 0.10207615
-0.0850224 -0.16009042 -0.053361617 0.053719312 0.10061926 -0.019821864 -0.15376513 0.20939137
0.0511159 -0.089722686 -0.16209584 -0.07047382 -0.014553772 0.053349514 -0.16096345 0.19136117
-0.1347437 -0.10136788 -0.058848333 0.033627618 -0.09920449 0.076550886 -0.09365862 0.10183039
0.027299613 -0.12373506 -0.028090464 0.14893223 0.26030153 -0.19098927 -0.12475343 -0.07604737
-0.084833786 0.11721282 -0.12742169 0.10299671 -0.13376066 -0.00809848 -0.05837739 0.06312357
-0.046230167 -0.014044551 -0.29550374 -0.10824524 0.012811296 0.04821463 0.11958841 -0.00530807
0.07590181 -0.09536574 -0.10665111 -0.10280324 0.10592733 0.087873355 0.0633197 -0.018081306
0.14146224 0.33656588 0.07454304 -0.088235095 0.18752362 -0.017549066 -0.031228177 -0.07220451
-0.3011952 -0.10245601 0.09264462 0.14920537 0.08540968 -0.10080291 -0.016136289 -0.04735957
0.0077953464 -0.21205403 0.10444807 0.10224099 0.08610098 -0.12239867 -0.22802866 -0.20287639
0.026642697 -0.014932887 -0.13739851 0.079450004 -0.055526976 0.07801444 -0.09161043 0.045421302
-0.047352873 0.068184465 0.086793326 0.24111357 -0.05504057 -0.03559818 -0.2130422 -0.13427843
0.057606388 -0.067914166 -0.20117843 0.013011042 0.009758823 -0.1182269 -0.08561631 -0.045666385
-0.099170506 0.12547211 -0.18701977 0.09339585 -0.033724353 -0.05296134 0.049808595 0.12607846
-0.12100616 0.19226393 0.06740257 -0.109174214 0.09944154 -0.09311921 -0.116254814 -0.012802097
0.12689169 -0.09021322 0.009607168 -0.014580994 -0.18684612 -0.12926725 0.15884474 0.14833073
-0.17784786 0.004091005 0.0064848387 -0.16748002 0.006540687 0.013009668 0.07040915 -0.123487376
-0.10322667 0.19376771 0.07523927 -0.054759983 0.11018043 -0.028194122 0.14495496 0.08812031
-0.15291314 0.08782461 0.0852443 0.11381484 0.13918924 0.14924899 0.06764469 0.022195509
-0.023834562 0.101292856 -0.098386355 0.02188213 0.028874747 0.17632942 -0.09452194 0.019725965
-0.07251805 -0.04186536 0.1415176 0.015889404 -0.0922328 -0.021877706 -0.08951503 -0.09778948
-0.08253526 -0.13059705 -0.053568773 0.17935939 -0.06014311 -0.045798462 -0.2009827 -0.08809133
-0.075782076 0.04242365 -0.04607182 -0.04997608 -0.035342887 -0.013297436 0.08639718 0.011134904
0.081398495 0.16387613 -0.024461573 -0.020249465 -0.07848957 0.0017584941 0.1368569 0.011355308
00000000: 00cd a8bc 8355 403e 5c05 f2bd 1e42 88bc
00000010: ea2a 403c 314e 0bbe 5678 c2bd 7b90 2ebd
00000020: ee5d df3d 5312 4bbd 5804 223c 92d5 573d
00000030: 2f3c d9bd fbc3 193e 3480 003d c254 ac3d
00000040: 89fd b7bc 0031 8a3d f464 8f3d 5810 26bb
00000050: 7b0c e43d f5df aabd 5105 8f3e 3a07 f4bd
00000060: cbb5 6f3d f594 413d 6d81 813d 1073 34bd
00000070: b69d ddbd dc1b 93bd bd19 0abd f7b1 bc3d
00000080: 01c5 16be ef4b 9c3d 1fb9 993d 4217 353e
00000090: a175 29bd 2997 7f3d 5d12 a93d 0a4c 0abc
000000a0: 3142 8c3c 5e76 223e f389 063e 8102 8d3e
000000b0: 0ce6 93bc fb03 523e c4dd b63c 693d b1bb
000000c0: 994d 34bd ecc9 89bd 57fe 98bd c7de b13c
000000d0: 786b 8fbd 6250 31be 837e 953c d9d5 a3bc
000000e0: 9401 26bd fe81 443e 5e23 2dbe 8c02 e43d
000000f0: ef94 893d 4c4b 2cbd b553 1bbd 4d0d d13d
00000100: 3920 aebd beee 23be b691 5abd c808 5c3d
00000110: 7811 ce3d 7661 a2bc 9b74 1dbe b16a 563e
00000120: e85e 513d 87c0 b7bd 74fc 25be 9454 90bd
00000130: f272 6ebc 0585 5a3d 9ad3 24be 2ff4 433e
00000140: 41fa 09be f799 cfbd f30a 71bd 1dbd 093d
00000150: b92b cbbd b6c6 9c3d 17d0 bfbd 748c d03d
00000160: 70a3 df3c cf68 fdbd f91d e6bc b181 183e
00000170: 3e46 853e b192 43be ba7e ffbd b9be 9bbd
00000180: 56bd adbd 460d f03d d57a 02be f0ef d23d
00000190: 8ef8 08be 7daf 04bc 211d 6fbd ee46 813d
000001a0: d85b 3dbd 1e1b 66bc 444c 97be aeaf ddbd
000001b0: 78e6 513c b47c 453d c5ea f43d 52ef adbb
000001c0: 6872 9b3d 1d4f c3bd e66b dabd 818a d2bd
000001d0: 6ef0 d83d f2f6 b33d c2ad 813d 3f1f 94bc
000001e0: 7adb 103e 5d52 ac3e 05aa 983d 9ab4 b4bd
000001f0: 3106 403e 0fc3 8fbc 3cd2 ffbc f5df 93bd
00000200: 4236 9abe 75d4 d1bd 76bc bd3d 4bc9 183e
00000210: 45eb ae3d c271 cebd 4030 84bc 1cfc 41bd
00000220: 1b70 ff3b b124 59be dfe8 d53d b963 d13d
00000230: b655 b03d 27ac fabd 5880 69be d4be 4fbe
00000240: c941 da3c 11a9 74bc 32b2 0cbe afb6 a23d
00000250: 4170 63bd 09c6 9f3d 409e bbbd b00b 3a3d
00000260: 16f5 41bd 4ca4 8b3d b3c0 b13d 7ae6 763e
00000270: 3972 61bd 66cf 11bd bc27 5abe 4980 09be
00000280: adf4 6b3d 9516 8bbd b801 4ebe 442c 553c
00000290: 78e3 1f3c f220 f2bd 9b57 afbd ad0c 3bbd
000002a0: e819 cbbd c37b 003e 1c82 3fbe 5346 bf3d
000002b0: 8c22 0abd fded 58bd 1904 4c3d b61a 013e
000002c0: 14d2 f7bd d6e0 443e 5c0a 8a3d bb96 dfbd
000002d0: 02a8 cb3d 49b5 bebd 0117 eebd e3bf 51bc
000002e0: e5ef 013e b5c1 b8bd 6267 1d3c 1fe5 6ebc
000002f0: 9754 3fbe a25e 04be 32a8 223e 03e4 173e
00000300: c01d 36be d60d 863b c57e d43b e27f 2bbe
00000310: 4253 d63b 8126 553c ac32 903d f3e6 fcbd
00000320: 8168 d3bd 0b6b 463e 0c17 9a3d 014c 60bd
00000330: 47a6 e13d 5cf7 e6bc 136f 143e 6c78 b43d
00000340: 4395 1cbe 64dd b33d 9094 ae3d c117 e93d
00000350: a087 0e3e bad4 183e 4d89 8a3d 5bd3 b53c
00000360: b340 c3bc a172 cf3d c97e c9bd 2742 b33c
00000370: bc8a ec3c b38f 343e b894 c1bd 5998 a13c
00000380: 5884 94bd 037b 2bbd fde9 103e 7f2a 823c
00000390: 8de4 bcbd e038 b3bc a853 b7bd da45 c8bd
000003a0: 3f08 a9bd 3cbb 05be ee6a 5bbd fda9 373e
000003b0: 9f58 76bd 2b97 3bbd 69ce 4dbe 3a69 b4bd
000003c0: a233 9bbd 6cc4 2d3d ceb5 3cbd b8b3 4cbd
000003d0: b4c3 10bd 7ddd 59bc 01f1 b03d 2c6f 363c
000003e0: 41b4 a63d 25cf 273e a363 c8bc 35e2 a5bc
000003f0: 24bf a0bd 457d e63a 3724 0c3e 9d0b 3a3c

fc3.bias f4 [10]
-0.23051733 -0.041789085 0.042744584 0.23909165 0.33195108 -0.17952912 0.23995407 -0.2481653
-0.074878335 -0.06746621
00000000: bc0c 6cbe 082b 2bbd f214 2f3d 71d4 743e
00000010: 7ef5 a93e 7bd6 37be 85b6 753e 0b1f 7ebe
00000020: d059 99bd b92b 8abd
