cifar_net_cross_entropy.pth (torch, 252293 bytes, 10 tensors)

conv1.weight f4 [6, 3, 5, 5]
00000000: a3b3 5ebb 46fe 913d f9b5 f1bc 2d17 aa3d
00000010: e656 e3bd 1f8f 803d 207c 3a3e b220 013e
00000020: 121c 14be 9acb 0ebe 2b5c dd3c e0c9 393e
00000030: 5074 a73c 33cd 8bbb 0870 ffbd 3579 dd3a
00000040: 5794 6a3e 022e 0e3e 2542 24be ea15 26be
00000050: 2989 883d 3f03 413e 8145 273e 82f8 7dbd
00000060: 8b39 36be b616 d8bc 8280 1c3a 3fcc 41bc
00000070: c0ba babd c7a1 5ebe 8136 99bc 7162 1ebd
00000080: 8506 8fbd 9524 ddbd 47f8 f8bd dfd4 38bd
00000090: 3448 343e 8ac2 783d 121a 7dbd 4713 85be
000000a0: bf78 663d 4ede c43d 02ac f7ba c1e8 09bd
000000b0: f575 92be 8e73 d9bd cb1e c53d 55ad 9bbc
000000c0: d602 37be 4774 7cbe b562 8ebb b60f 753d
000000d0: 7c97 133e 3a45 cebd 6992 1d3d a0ee 943d
000000e0: 12be 223e 60a4 d73d 48b6 48bd 0674 b9bd
000000f0: 938a 06bd 4eda 3d3e c9d9 b03d 64fb 45be
00000100: 70b6 79be 1ad9 ae3d 8c06 013e 8a27 163e
00000110: c260 0ebe 6f28 85be aa17 603d cc4c 263e
00000120: da0f 0c3e 3dfe 223d 4537 4dbe 3d2b 193e
00000130: e186 bb3e b7bf 7d3e 04b2 823e f534 b03e
00000140: 0c71 863e bc47 cd3e 2490 f33e 88bf db3e
00000150: d315 923e 74b8 203e 1f2b 443e c970 9f3e
00000160: b59c 7e3e 66be a03e d5a5 523e ac31 1d3e
00000170: d6a5 433e a306 663e be77 1b3e fc89 5ebd
00000180: 988c adbc 33b4 113e e979 863d ccb9 063e
00000190: f95f 6dbe ad21 9bbe 5ec8 febd 91e1 8cbe
000001a0: 4c38 8fbe cb60 57be 5296 28be ab47 8bbe
000001b0: b1ab 2dbe 1cf0 54bd a124 aabd 2508 42be
000001c0: 4cf6 9bbe 33be 29be 4855 80be f95a 88be
000001d0: 3f98 2dbe 2c4e 4bbe 7586 84be cd7e 5dbe
000001e0: bcd5 18be 8545 d4bd 9a98 d7bd 1ae4 4cbe
000001f0: b7dc 20be 69a0 69bd f021 71bd dcd1 6abe
00000200: 9e9c ffbc 69a7 55bd 00dc 3ebc cbe6 09be
00000210: dc76 63bd ccb9 2fbd 7d0d 29bb c955 1ebd
00000220: 610e a2ba 5637 4dbe 66dc 4ebd aca5 87bd
00000230: 5da0 9a3d 62f7 103d a132 e03c a539 1abd
00000240: 731f 83bc 2dc1 e33d 872e e83c 394a 47bd
00000250: b18f 163e 0a88 3f3e 9db4 c1bd c412 2ebd
00000260: fc25 e8bc 5d0d fabd 3301 a3be 04f8 2ebc
00000270: 36d4 553c 1c74 3bbd 86d0 083d e248 a8bd
00000280: 3c38 d63d c529 c93d 94b2 2c3c 7ed5 233d
00000290: 4c69 acbc 4475 193e d53e f53d a57e 003e
000002a0: bf7f 2b3e 8f74 cd3d 0f5b 273e d4c4 493e
000002b0: b04e 4d3e 79d7 603e dbc9 b33d 90c4 e13d
000002c0: e853 733e 10b1 693e e606 163e de31 20be
000002d0: c3c8 353e 44f4 5e3e f77e 413e e6b1 623e
000002e0: 0967 26bc 0f8b b43d c368 0b3e 8ce8 713e
000002f0: 9b16 583e 5dff e03d 58ec 973d 93ac ce3d
00000300: e940 573e 89d8 643d f5bd d53d 3902 543d
00000310: e9f5 c43c 2d66 523d 934e 623d 51e8 a2bd
00000320: 50a3 9ebd 9f6c 8c3d 2b4a 853e eb7a 3b3d
00000330: 8267 9dbe c978 86bd fae6 11bc 215e 5d3d
00000340: a9fd 1e3e 6b77 adbd 3d54 59bd d771 f83d
00000350: 5f31 dabb 6154 16bd 84fb 88bd ee87 31be
00000360: 91fb 35bd 8829 0e3d 3578 4d3d 3ed2 96be
00000370: d9f5 09be 3e63 07be f39c f9bd 84fc e7bd
00000380: 9cc9 61be efbf 09be 4138 06be 4e66 00be
00000390: 5da7 0fbe 69a6 a4bd 80c5 18be 986d 67be
000003a0: d472 92be bfc0 30be 4fb6 a9be 6b48 84be
000003b0: 0270 8cbe 2314 5bbe 2bcb 4dbe 4810 99be
000003c0: 437f 3cbe 2e81 4fbe b10e b0be 1512 8bbe
000003d0: c30b 43be e21e 8bbe 0970 84be 59e4 41be
000003e0: e65f 88be 2d49 6ebe 01d5 acbd 6b48 983c
000003f0: 5f89 4ebd cf63 2dbd 0225 0abe cd01 43bd
-0.0033981584 0.07128577 -0.029505717 0.08305202 -0.11100559 0.06277298 0.18211412 0.12610129
-0.14463833 -0.13944855 0.027021488 0.18143415 0.020441204 -0.004266405 -0.1247254 0.0016897084
0.2290815 0.13884738 -0.16040857 -0.16219297 0.06666786 0.18848895 0.16335107 -0.062004574
-0.17795388 -0.026378017 0.0005970077 -0.011828481 -0.09117651 -0.217414 -0.018702747 -0.0386681
-0.069836654 -0.10797993 -0.1215673 -0.045124885 0.17605668 0.060732402 -0.06179244 -0.2599127
0.056267496 0.09612714 -0.0018895867 -0.033669237 -0.2860562 -0.106177434 0.09625014 -0.01900355
-0.17872176 -0.24653731 -0.004345263 0.059829436 0.14413255 -0.10071798 0.038469706 0.072720766
0.15892819 0.10529399 -0.049001962 -0.09055333 -0.032847 0.18540308 0.08635289 -0.19334179
-0.24386 0.085375026 0.12600154 0.1466352 -0.13904098 -0.2600741 0.054710068 0.16240233
0.13677922 0.03979324 -0.20040615 0.149579 0.36626342 0.24780165 0.2552644 0.34415403
0.26258123 0.4009379 0.47570908 0.42919564 0.28532276 0.15695363 0.19157074 0.31140736
0.24864466 0.31395262 0.20571072 0.1535098 0.1910623 0.22463469 0.15182397 -0.05433081
-0.021185204 0.14228897 0.06566221 0.13156813 -0.23181142 -0.3029913 -0.12440561 -0.27515844
-0.2797264 -0.21033017 -0.16463593 -0.27203116 -0.16960026 -0.0519868 -0.08307768 -0.1894842
-0.30461347 -0.16576461 -0.25065064 -0.26631907 -0.16952609 -0.19854039 -0.25883833 -0.21630402
-0.14925283 -0.10364822 -0.10527153 -0.20008889 -0.15709196 -0.057037745 -0.058870256 -0.22931617
-0.03120261 -0.052161608 -0.011649132 -0.13466947 -0.055533275 -0.0429018 -0.0025795393 -0.03865603
-0.0012363904 -0.2004064 -0.050503157 -0.06623396 0.07550118 0.035392173 0.027367892 -0.03765263
-0.016006207 0.1112083 0.028342498 -0.04865477 0.14703251 0.18704239 -0.094582774 -0.042498365
-0.028338425 -0.1220958 -0.31836852 -0.010679249 0.013051083 -0.045765027 0.03340199 -0.08217026
0.104599446 0.0982242 0.010540623 0.039998524 -0.021046303 0.1498614 0.11974875 0.12548311
0.1674795 0.100319974 0.1634333 0.1970399 0.20049548 0.21957196 0.08778735 0.110238194
0.23762476 0.2282145 0.14651069 -0.15644023 0.17752366 0.21772867 0.1889609 0.22138175
-0.010156401 0.08815586 0.13614182 0.23623866 0.21102373 0.10986207 0.07418126 0.1009151
0.21020855 0.055870567 0.10436622 0.051759932 0.02404304 0.051366974 0.055250715 -0.07954467
-0.07745993 0.06856655 0.26033148 0.04577152 -0.30743033 -0.06566007 -0.008905167 0.054044846
0.15526451 -0.08470043 -0.05305885 0.12131088 -0.0066587175 -0.036701564 -0.06688598 -0.1733701
-0.044429366 0.034707576 0.050163466 -0.29457277 -0.1347269 -0.13221452 -0.12188139 -0.113274604
-0.22049564 -0.13452123 -0.13107397 -0.12539026 -0.14028688 -0.08039553 -0.1491909 -0.226004
-0.28603232 -0.17261027 -0.33146903 -0.258365 -0.27429205 -0.213944 -0.20097034 -0.29895234
-0.18407921 -0.20264122 -0.3438621 -0.27162233 -0.19047455 -0.27172 -0.25866726 -0.18934764
-0.26635665 -0.23270102 -0.08439065 0.01858922 -0.050423976 -0.042331513 -0.1349068 -0.04760914

conv1.bias f4 [6]
00000000: 989c c63d 2cd4 8ebe db65 33bf a861 debe
00000010: 22f9 21bd 5f87 ef3d
0.09697837 -0.2789625 -0.70077294 -0.4343388 -0.039544232 0.11695742

conv2.weight f4 [16, 6, 5, 5]
00000000: 416e 033e 9537 36bd 1394 9c3c 6bfa 7e3d
00000010: 3678 7f3d 8ed9 613d 4a1f 523d b41c 84bc
00000020: 7316 e8bc 1666 8cbc 8cbc 81bd a75a 223d
00000030: 5507 843d c779 b73d f0ed 1e3c 5fed 0fbd
00000040: 35dc 2e3c e8e6 853d 3296 0f3b 99a0 1f3d
00000050: 849a 943d ee39 9d3d 5414 bd3c 5a68 5f3d
00000060: 4ebd 873c e449 38bd dc18 503c 97e2 6a3c
00000070: 2569 513b 7d2c b53c 79d4 aa3b 1a68 f5bc
00000080: d9b1 843d ee32 053d dff9 18bc 0002 42bd
00000090: c32c 69bd 3554 523d ea9f 22bd a181 123d
000000a0: fefd ad3c 91bf 32bd 291e 4bbd 46ba 67bc
000000b0: ece9 39bd 5404 5ebb 5ca2 4a3d 055c 473d
000000c0: 2911 80bd 7853 293c e996 c2be 493a b4be
000000d0: 518f 823d 7c55 443e 2917 8d3e dfab f3be
000000e0: 4ad0 8dbe df29 823e 4052 893e ad8d 393e
000000f0: b2b4 0dbf e031 0bbe 6b6f 663e dbd9 b23e
00000100: 749a 103e c52b eabe 5a8c 42bc bd6e 3e3e
00000110: 5be6 ec3d feca cd3d 8211 cbbe 6fea 0cbd
00000120: f84e 303e 3ec9 a03d 6322 8b3d 6cf4 cbbe
00000130: a80e c5be 1712 17be 13f6 f03d 3872 ad3e
00000140: b9fb c3be 33de a1be 608a 42bd 3cbf b03e
00000150: ddf0 b93e f2d9 d2be 6f1d 72be 5f62 073e
00000160: 3b76 463e 0e71 783e 0186 8ebe db8e eabc
00000170: 2376 1b3e 6ddd 423e 4f5c 0b3e 7b68 b6bd
00000180: 556e 8ebd e32c b63d 2b08 003e 293b e73d
00000190: a553 1a3d 4c4e 4dbd 8b8a b33c 83bd 9b3d
000001a0: 39cc b3bc 4951 5c3d 83a6 1d3b 983e 2bbd
000001b0: 11a7 f93b bcc7 043d 3eb4 ab3b d090 1a3d
000001c0: 6e7d 26bd 2111 123d e2c2 a2bc e8e2 ef3a
000001d0: 91d8 fc3c 68c9 023d 40b5 7abd 3852 7dbc
000001e0: 9dd7 8fbd 3cf8 cc3b b1a6 873c f33c 573c
000001f0: d6e3 883d 0975 213e 8dfb 0ebd 7d5c 3dbe
00000200: 0ffd a0bd de1a 07bd 0295 f03c f910 4ebe
00000210: 7849 e8bd d5e0 1a3d 4e12 233d 94cd f3bd
00000220: e674 14be 1573 d3bc 46e8 a53d 2fc9 323d
00000230: 7704 21be acf7 c8bd 6e32 9dbd 2d39 713d
00000240: cbb1 67bd 9be8 14be cd74 9fbd 8557 1cbb
00000250: 9d1e fcbd 3de5 d4bc c3ee 97bd 0f41 1dbc
00000260: d90a b2bc f9e0 b43b 28f2 84bc 9b4b 24bd
00000270: b796 f4bd 9eed b8bd 855c acbd 371a 253c
00000280: fcb9 153d e248 f7bc c93e c6bd d863 dfbd
00000290: b9ea f53c 269d a6bd ce82 a1bd 883f 96bd
000002a0: 2e5b 35bd 3a15 6e3d fa35 17bc 755b 2b3b
000002b0: ebd6 ba3d 7f82 c13d 68c4 583b 32b9 e6ba
000002c0: 2db3 9c3d c168 933d 699a 4e3d 90a0 c5bd
000002d0: f5af 193e 52e3 123e 8009 323e f98a 053e
000002e0: 5784 fc3d 24e0 843c 1818 293e 38f7 633e
000002f0: f2a5 1b3d 6c21 e73d 6fe7 44bc 0323 c43d
00000300: 2230 bc3d e305 db3c aa5f 52bd 0f3b a03d
00000310: d548 953d 1acb 3fbc 7371 91bd cd3c 02be
00000320: fcee 2abd aaa9 b5bd f3ba dabd f242 39be
00000330: 3d9e 35be f87b acbd f332 8bbd 2875 04be
00000340: d037 0ebe 1599 ffbd 5530 aabd 0a19 01be
00000350: a119 26be ab6d 08be dea7 6dbe 870d 1a3e
00000360: e1fd aa3d 4360 b5bc c935 8cbc e09a 0bbe
00000370: 23ff 78bd cfcc a6bd 65bb bbbd 9dce 37be
00000380: bc68 5bbe f747 043d 520a ebbd ab90 fabc
00000390: dfb6 163d 2534 ed3c f2f2 03bd 0580 42bc
000003a0: a4c7 b6bd bbd4 043b 555e 013e be4a 493d
000003b0: 142d fe3d 42a0 173d c902 ee3d 3bcd 513e
000003c0: 807f b63d 7528 133e bea6 343e 4c37 503e
000003d0: 74cd 693e 5e48 543d c339 bf3d 815d 633d
000003e0: 774c 4e3e 2276 543e 6952 4ebd b05f 803d
000003f0: e6c6 07bd 4c7b 073c 78cc 9cbd ba46 09bd
0.12835027 -0.0444866 0.019113576 0.062250536 0.0623705 0.055139117 0.05129937 -0.016126968
-0.028331017 -0.017138522 -0.063347906 0.039637234 0.06446711 0.08958774 0.009700283 -0.035138484
0.010672619 0.065381825 0.0021909592 0.038971517 0.07256034 0.07677065 0.023080982 0.054542877
0.01656976 -0.044992343 0.012701239 0.01433625 0.003195354 0.02211594 0.005213317 -0.029956866
0.06479234 0.032519273 -0.009336918 -0.04736519 -0.056927454 0.051349837 -0.039703287 0.035768155
0.021239277 -0.043639723 -0.04958931 -0.014143532 -0.0453891 -0.0033877091 0.049471244 0.04867174
-0.06253273 0.010334842 -0.3800576 -0.35200718 0.06374992 0.19173235 0.27556732 -0.47592065
-0.27697974 0.2542257 0.26820564 0.18120451 -0.55353844 -0.13593245 0.2250344 0.34931836
0.14121419 -0.45736519 -0.011874283 0.18596931 0.11567374 0.10048483 -0.39661795 -0.03440326
0.17217624 0.07850884 0.06793668 -0.39834917 -0.38487744 -0.14752994 0.11765685 0.33876204
-0.38277987 -0.31614837 -0.047495246 0.345209 0.36316577 -0.41181904 -0.2364404 0.1322112
0.19381039 0.24261877 -0.27836612 -0.028632572 0.15181784 0.1902978 0.13609432 -0.08906647
-0.06954638 0.0889528 0.12503116 0.11290581 0.037677426 -0.050123498 0.021916648 0.07604506
-0.021947967 0.053788457 0.0024055548 -0.04180774 0.007618793 0.032417044 0.0052399924 0.03773576
-0.040646963 0.035660867 -0.019868318 0.0018301876 0.030864986 0.031930357 -0.06120801 -0.015461497
-0.07023547 0.006255178 0.016558977 0.01313709 0.06684081 0.15767302 -0.034907866 -0.18492313
-0.07860767 -0.032984607 0.029367927 -0.20123662 -0.11342138 0.037812073 0.03981238 -0.11904445
-0.14497718 -0.025811711 0.08100943 0.043648895 -0.1572436 -0.09812865 -0.07675634 0.058892418
-0.05656604 -0.14541857 -0.0778595 -0.0023855877 -0.123105265 -0.025988216 -0.07418587 -0.009598031
-0.021733688 0.005519983 -0.01622875 -0.040111165 -0.11942809 -0.09029697 -0.08416084 0.010077051
0.03655432 -0.03018612 -0.09679944 -0.109077156 0.030019151 -0.081354424 -0.07886277 -0.073363364
-0.04427641 0.058125712 -0.009229178 0.0026147042 0.091230236 0.09448718 0.0033076052 -0.00176028
0.076513626 0.071977146 0.050440226 -0.096497655 0.15008529 0.14344528 0.17386436 0.13041295
0.12329929 0.01622016 0.16513097 0.22262275 0.038000055 0.112856716 -0.012018069 0.095769905
0.09188868 0.026736205 -0.051360764 0.078237645 0.07289282 -0.011706138 -0.07101717 -0.12718506
-0.04173182 -0.088702515 -0.10680189 -0.18091944 -0.17736144 -0.08422083 -0.06796827 -0.12935317
-0.13888478 -0.1248037 -0.0831 -0.12607208 -0.16220714 -0.13323085 -0.23208568 0.15044223
0.08349205 -0.022140628 -0.01711549 -0.13633299 -0.060790192 -0.08144533 -0.09166602 -0.1794991
-0.21426672 0.032295194 -0.11476578 -0.030586561 0.036795493 0.028955529 -0.032214113 -0.011871343
-0.08924797 0.0020268399 0.12633641 0.049143545 0.12410942 0.037018068 0.11621625 0.20488445
0.089110374 0.14370902 0.17641732 0.20333594 0.2283228 0.051826827 0.09337189 0.055509094
0.20146357 0.20748189 -0.05037156 0.06268251 -0.03314867 0.008269142 -0.07656187 -0.033514716

conv2.bias f4 [16]
00000000: 231b 3b3d f447 cdbd 94ff abbd 3f2f 81bd
00000010: f4a1 013d 915c 77bb 71d3 79bc 16ad 903d
00000020: 2383 b33d 39ca dfbd e76e f83d dd32 26be
00000030: 6d16 d1be e77c 0dbf ae93 9e3f e002 cb3c
0.045680176 -0.100234896 -0.08398357 -0.063078396 0.03164859 -0.0037744383 -0.0152481655 0.070642635
0.08765247 -0.10927243 0.12130528 -0.1623034 -0.40837422 -0.5526871 1.2388818 0.024781644

fc1.weight f4 [120, 400]
00000000: 4e30 37bd 0c31 1abc 7876 5e3c 03dc 03bd
00000010: 2c15 edbc d9a7 70bb 4611 3abd 99fc 4cbc
00000020: aaa3 4cbd 95f7 e4bc 787c 183c 1755 ccbc
00000030: 6cae e63c fb91 04ba 5467 e8bc 5a14 ff3c
00000040: 3238 773c defa 3cbd 803d 47bd 5d05 eeba
00000050: f6c6 20bd 3f5e e3bc be95 a9bc 2c39 3a3d
00000060: 0fc4 1abd b8e2 453d 78e2 7fbc 7cd5 2e3d
00000070: 0f2a 09bd 6598 e8bc 7a8a 943c ec47 3c3d
00000080: 0de4 aebb dc84 503d caeb a53c 350f 0b3d
00000090: 7c67 85ba a4dd 5b3d b045 1d3d 02d1 3e3a
000000a0: f1d3 cc3c f96b 26bd dad8 163d 6c03 c4bc
000000b0: 5036 df3c 9b39 b23b ccf3 debb 2bfc 1c3d
000000c0: 6fa4 2dbd a4da 35bc 69a4 48bc 3262 b3bc
000000d0: 5308 cb3c 4121 44bd 06a5 703c 8a75 13bd
000000e0: 98cb 26bd 380b 253d 5344 33bd 5b51 87ba
000000f0: bfa9 a0b9 6e6b a8bc 04ca da3c 6787 96bc
00000100: fd78 3fbc ee08 f63c 6368 49bd f849 7dbc
00000110: cf43 d1ba 87ad 27bd 371c f13c 971b 4cbd
00000120: b513 38bd 62fe 7a3c 95c1 133b efdb 8fbc
00000130: 5e0f 453d 3298 37bd e29e 473c 3a26 403d
00000140: 8a59 02bd d2d0 90bb b9a1 0f3c 345b 413d
00000150: f487 af3c 7abb 8fbb 4ea6 b0bb fbb3 cbbc
00000160: 06a8 23bd 33ef ab3c 20a1 22bd 0705 d7bc
00000170: 929a d438 596d e3bc 70c9 eb3c 6f89 1b3d
00000180: e6e0 33bd 1506 42bd 369a 903c 4f7f 99bb
00000190: 9ee4 ec3c bf7d f9bc a8e3 68bc 3d22 29bd
000001a0: 36eb df3c 10a8 00bc 1635 89bc b7ca 083d
000001b0: c2ee d83c 348c 093d b5ec deba 1078 c53b
000001c0: 8e76 0fbd 2888 c0bb 2664 57bd c26f 143d
000001d0: bd74 26bd 7d14 0abd fae8 563c 7fe4 1c3d
000001e0: 7d49 033d 79c0 1c3c 0262 443d 3c4b 0f3d
000001f0: 2f17 233d b469 96bc b1ca 53bc 83c3 32bd
00000200: 06ca 2f3d fc2b 0dbd fae5 0a3d 2517 403d
00000210: d64c f4bc c527 e23c 26dd 2dbb 870c 0a3d
00000220: 52b1 42bd cdf4 54bc af85 183d 0e5a 8cbc
00000230: 1967 00bc 346b 44bd 30d4 903b e585 f3bb
00000240: 77c1 dc3c e9b0 303d 8ebf 46bd 5771 d4bc
00000250: 7de3 eabc 5169 03bd 7f57 a0bc 4a01 043d
00000260: 6bc4 153d 733d bbbc 5c2e 183d 7f3e bf3b
00000270: 4f24 06bd 5bfb 113d bec5 3dbc 236c 4bbd
00000280: 2c1f c1bc 98e9 efbc 1ef4 13bd 967d 1cbd
00000290: 88f8 56bb 7c37 333d 0a71 2d3d fab3 513c
000002a0: 825d 1c3b f21b 6cbc d907 e3ba fac6 353d
000002b0: 64b8 ce3b 44bd 3b3d 7b02 9a3c 63cc 0c3d
000002c0: 7072 103d 8e1c 0abc dea0 323d d231 863c
000002d0: b7f8 a73c 8088 24bd b742 5e3d 3e15 423d
000002e0: 1680 543d f99f 09bd 5960 07bc 8e4d 91bc
000002f0: 3bee 283d 418b 1abc 5a61 b83c 3fa4 1a3d
00000300: 57cf 3f3a e873 e93b 9ad1 133d 413c 543b
00000310: 0277 f43c 982a d93c 6d2b 5fbc 8f90 11bc
00000320: 0feb 44bd 539c 0ebd c592 2abd ed8f 373d
00000330: 0be6 cc3b 5859 603c 826d b4bc 9b0d 48bd
00000340: 2551 8a3c 7ee8 1f3d a075 223c d55f afbc
00000350: ca8e f7bc 5492 2dbc 7814 ec3a 089d 1ebd
00000360: 8a4f 10bd c312 ae3c d352 d1bc 0c6c 22bd
00000370: 8c29 6cbc c80a 053d 8f55 fe3c 8355 ff3c
00000380: 0ea4 abba c94d 51bc 8c53 283d e14c b4bc
00000390: eda9 1a3d 0d53 04bc b980 773c 3e61 21bb
000003a0: 8470 bd3c bdc6 aabc 59fa af3c 4db2 1e3d
000003b0: cf19 2dbd e718 ef3c 96fc 84bc 1d16 dcb9
000003c0: ee72 a63c 1416 19bd c2bb 15bd c207 28bb
000003d0: 29d0 56bc de1d 21b9 60e7 3ebd a96c f23c
000003e0: 3ccc e8bc 90e3 db3c b3d0 863c 7ef2 023d
000003f0: 9d21 31bd 95c0 9dbc d9b5 3dbd caa8 58bc
-0.0447238 -0.009411108 0.01357805 -0.03219224 -0.02894076 -0.0036721139 -0.04542663 -0.012511396
-0.04996077 -0.027950088 0.009307019 -0.024942918 0.028159343 -0.0005057153 -0.028369583 0.031137634
0.015089082 -0.046137683 -0.048642635 -0.0018159557 -0.039252244 -0.027754901 -0.020701285 0.04546468
-0.037784632 0.04831192 -0.015617959 0.042684063 -0.033487376 -0.02839298 0.018132437 0.045967028
-0.0053372444 0.050907955 0.020254035 0.03395005 -0.0010177935 0.05367817 0.038396537 0.00072790694
0.025003405 -0.040630314 0.0368279 -0.023927413 0.027247578 0.005438996 -0.006803965 0.038326424
-0.042393144 -0.011099491 -0.01224623 -0.02189741 0.024784243 -0.047883276 0.014687782 -0.036000766
-0.040721506 0.040293902 -0.04376633 -0.0010323928 -0.0003064405 -0.020559039 0.026707657 -0.018375112
-0.011686561 0.030033555 -0.049171817 -0.01545953 -0.0015965643 -0.040936973 0.0294324 -0.049831
-0.04494067 0.015319439 0.0022545804 -0.017560927 0.04811036 -0.04482288 0.012183877 0.046911456
-0.031823672 -0.0044194246 0.008766585 0.04720612 0.021427132 -0.0043863626 -0.005390919 -0.024866095
-0.03995516 0.020988083 -0.039704442 -0.026247514 0.00010137739 -0.027762102 0.028782576 0.037972864
-0.04391565 -0.04736908 0.017651659 -0.004684366 0.028917607 -0.030455468 -0.014214434 -0.041292418
0.027333837 -0.007852569 -0.016748946 0.03339645 0.026481036 0.033580974 -0.00170078 0.0060262755
-0.035025172 -0.005875606 -0.052585743 0.036239393 -0.040638674 -0.033710945 0.013117069 0.03830385
0.032052506 0.009567373 0.04794503 0.03498386 0.03981703 -0.01836095 -0.012926743 -0.043643486
0.042917274 -0.034465775 0.03391073 0.046897072 -0.029821794 0.027606854 -0.002652952 0.033703353
-0.047532387 -0.012997818 0.037236866 -0.017132785 -0.00783708 -0.0479538 0.004419826 -0.007431733
0.02694772 0.043137465 -0.048522525 -0.02593295 -0.028672928 -0.03208286 -0.019572971 0.03222779
0.036564272 -0.02285645 0.037153587 0.0058363075 -0.03274947 0.035640102 -0.01158279 -0.049663674
-0.023574434 -0.02928619 -0.03612148 -0.038205706 -0.0032801945 0.043754086 0.04234413 0.012799257
0.0023859446 -0.01441096 -0.0017321064 0.044379212 0.006308602 0.045834795 0.01880001 0.034374606
0.035265386 -0.0084296595 0.043610446 0.016381178 0.020504339 -0.04016924 0.054262843 0.04738354
0.051879965 -0.033599827 -0.008262717 -0.017737176 0.04124282 -0.009432615 0.022507358 0.037754294
0.0007316968 0.007124413 0.036088564 0.0032384547 0.029841904 0.026509568 -0.013621193 -0.008884563
-0.04807573 -0.03481705 -0.041643877 0.044814993 0.006253009 0.013693176 -0.022024874 -0.0488411
0.016884396 0.03904008 0.009915739 -0.021408001 -0.030219454 -0.010593969 0.0018011471 -0.038723975
-0.035232104 0.02124918 -0.025552189 -0.039653823 -0.014414202 0.032480985 0.031046657 0.031168705
-0.0013095157 -0.012774893 0.0410953 -0.022009315 0.03775971 -0.0080764415 0.0151063735 -0.0024624611
0.02312494 -0.020846719 0.02148168 0.03874426 -0.04226094 0.029186679 -0.016233724 -0.00041978146
0.020318475 -0.03737457 -0.036556013 -0.002563939 -0.013111153 -0.00015365283 -0.046607375 0.029592829
-0.028417699 0.026841909 0.016456937 0.03196954 -0.043244947 -0.01925687 -0.046316 -0.013223836

fc1.bias f4 [120]
00000000: fb0e 32bc f807 013e 9d4f bcbc 8fcc 87bc
00000010: 7eda ab3d e703 a1bc 3c43 f0bc 54a7 d33d
00000020: 7f73 123d df6b a2bc a995 01bd e48a 1bbd
00000030: ab26 41bc c392 993d 1756 f63d 3ebd 0d3c
00000040: 9dcf 85bd 58fe 51bd 90e0 663d d99d e5bb
00000050: 0fcf 3ebd 2682 b93d 70a9 3f3d 2818 59bd
00000060: 189f 563d ec31 95bd 1c95 fcbc 1ff0 173d
00000070: 46f1 93bb b7ae 75bd 8bb7 1abc 3f0e d43c
00000080: fe56 bc3b 8a9b 003e 4658 053d ddba ffbc
00000090: 5847 3ebc 5464 c13c dfeb 063d 7a7b 6fbc
000000a0: f544 e9bc 5a0f dd3d d980 13bd 87fd b1bc
000000b0: fad5 123c 396a 8ebb cc55 823d 7c58 053d
000000c0: 2f43 64bd 884f e4bb 6d28 693d 8f1d 333c
000000d0: 0c59 133e f051 dd3d 9a90 863e f07b f83c
000000e0: 61d0 ff3d 2b63 863c 517f 4eb6 5993 8bbd
000000f0: 9d68 f8bd e339 893d b0ec 823d 8b8c 903d
00000100: 5b92 debc 6667 4d3d 88a7 8cbd 1208 ba3d
00000110: 35fd 39bd c107 283d 1272 8f3b 3371 8c3c
00000120: 97fa d5bb 401f a73d ba47 e63d 5cfe 473c
00000130: aaed 0b3d a0df 72bb 93cd 52bd ba8a 453d
00000140: 2947 89bd 0aea c03d d1b2 04bd 9e45 cc3d
00000150: 9ccd 5abb 6de8 c73c 8af6 f53c 8500 8d3d
00000160: e5a9 85bc ef7e 2bbd b9ff b4bc ac81 47bd
00000170: 6d26 aebb b116 27bc 09cc b33d 161f df3c
00000180: 1bb4 acbb 0195 24bd 1704 cb3c c509 9a3d
00000190: b2fa 563d c9fd 723d fb21 e2bc 035d c2bc
000001a0: 086d b23d a04a 2d3e 69f8 8fbd 2e27 a73c
000001b0: 85ef 7cbc c295 f13d fc4e 9a3d 4039 e03d
000001c0: 2297 0f3d 7975 db3c 960a 393d e1d3 48bd
000001d0: 68db 9b3d d300 af3d 1ace ec3c 9388 633d
-0.010867829 0.12600696 -0.022987181 -0.016577033 0.083912835 -0.019655181 -0.029328935 0.1033465
0.035754677 -0.019826828 -0.031636868 -0.037974253 -0.011789004 0.07498696 0.12028139 0.008651076
-0.0653374 -0.05126795 0.056366503 -0.0070073423 -0.046584185 0.09058027 0.046792448 -0.053001553
0.052397817 -0.072849125 -0.03083282 0.03709423 -0.004514846 -0.059981074 -0.009443174 0.0258857
0.005747675 0.12559333 0.032554887 -0.031217033 -0.011613689 0.02360741 0.032939788 -0.014616841
-0.028475264 0.10793944 -0.03601155 -0.021727337 0.008962149 -0.004346159 0.06364021 0.03255509
-0.055728134 -0.0069674887 0.05692332 0.01093234 0.14389437 0.10806644 0.26282197 0.030332536
0.12490917 0.016404709 -3.07705e-06 -0.06815214 -0.121293284 0.06700494 0.06392801 0.070580564
-0.027169397 0.050147437 -0.068678916 0.090835705 -0.045407493 0.04102302 0.004377612 0.017143821
-0.006530117 0.08160257 0.112441495 0.01220664 0.0341622 -0.003705956 -0.051465582 0.048228003
-0.06703026 0.094196394 -0.032397095 0.09974216 -0.0033386713 0.024402821 0.030024786 0.06884865
-0.016316364 -0.0418691 -0.022094594 -0.04870765 -0.0053146393 -0.010198281 0.08779151 0.027236503
-0.0052704937 -0.040181164 0.024782224 0.07521395 0.052485175 0.05932406 -0.027604094 -0.023725992
0.08712202 0.16922998 -0.07029802 0.020404425 -0.015437965 0.11796142 0.07534596 0.109484196
0.03505624 0.026789414 0.04517611 -0.04903019 0.07610208 0.08545079 0.02890687 0.05555017

fc2.weight f4 [84, 120]
00000000: e0ab a9bd cea1 46be aa56 dabc 1a55 0f3c
00000010: 2509 ddbc 1548 333d e598 e0bd 3c87 203d
00000020: b46f 863d ff6c 9cbd a70e ae3d d9fc 643c
00000030: 3d3e 83bd fcc6 24bd fe07 ddbd 3699 0dbd
00000040: 6999 b7bd bbe0 87bc 0b20 29bd f9dc 05bd
00000050: f827 b0bc f81c 6a3d 1ef8 78bd d047 fb3d
00000060: 2d4b 83bd 213e 33bc 54bf 873d 74a3 743c
00000070: d581 63bd 7d9f 20bc 2019 6b3d c789 023e
00000080: 3962 f13d 600d 41bc cd5a 5fbd f8b4 853d
00000090: daee 9bbd cec0 2e3d 0cb2 073d 402c 9d3d
000000a0: 3c43 a8bd c4a7 46bb dceb a83c 341d 023c
000000b0: 883d d03d f830 37bd 5e1f 96bd c39c a1bd
000000c0: f96d 993c 068b ea3d 181a 9d3d 0402 50bd
000000d0: 8079 363e e0da 9d3d 95c9 a6bc 4a3d 143d
000000e0: 1092 02be 5291 24bd aa90 bcbd db63 993d
000000f0: 5a3d 0c3d 85e0 d1bc 8699 fc3d 27ce 2abd
00000100: 8c6a 023e 28c1 21bc b33d 3d3e 1ebf e33d
00000110: 188f 2b3c 75e5 9f3d 64e0 3cbd 5600 a33d
00000120: 5958 28bc 39c9 203c 84fa 1f3d 1f64 41bd
00000130: 0e03 26bd 3be0 9e3d f6e3 9eba f333 033e
00000140: 9cc9 a03d ee9c 063e db5a 8ebd fd4b 44bd
00000150: 5666 f63d dbf6 6a3d 4214 38bd 32cc c4bd
00000160: 387c 583d af1e 783d e44d 093d 4645 843d
00000170: 900e 823d adc9 92bd 391f dcbc 16bf 63bd
00000180: 4c00 3dbd 2168 d43c 8386 893a fc33 813d
00000190: be2f 1c3d f2aa 3a3c 8d81 eabb 38ce 42bd
000001a0: 4c49 4d3d 4ce7 10be 73db 72bd 6af7 c93d
000001b0: 7cb1 553d 5394 d33d a74c 2fbb 7f6f 85bd
000001c0: 45b9 71bd 5127 863d 4b7d 1e3d 94a4 273d
000001d0: 5dc3 f8bd de80 053e dfb6 9ebd f36e 4d3b
000001e0: 63e8 80bd 4522 603d 216d 64bb 39e6 783d
000001f0: a3de a23d 14cc ae3c dfc1 f83c 2f55 cabc
00000200: 169d d03c 863a 9cbc 3a3d 2cbd 2b93 c1bd
00000210: 117f 91bd 1ff7 393d 191f 123e b1f0 11bd
00000220: 9c02 4a3d b3ac c4bd 73d9 f93d 3864 0bbe
00000230: 32b0 d1bd ab0b 62bd 576b 58bd 2ec0 b03d
00000240: a5b0 b9bd cf4b cdbd ae0b 283d 4f5a 70bd
00000250: 51ad 3ebd cdfc 083e 7dec 23bc cd40 893d
00000260: 6dad 83bd 3851 b43d a494 a5bd 049f 403d
00000270: 3be2 a73d 19f2 743d ada0 8abd 6a17 1abe
00000280: 0424 d03c 1ee8 173d d93b f6bd 298e 393d
00000290: b1cc ee3c 0a21 a03c ccb3 febb f615 03be
000002a0: 3892 c13d 6baa 9d3c e2b3 8cbc dbdb da3d
000002b0: abbc eb3d 9ada b7bd 8ff0 223d 9f4f 3bbd
000002c0: 5055 89bd e0b2 623d e4d7 8a3d 7821 8cbd
000002d0: 8f75 42bd 6e65 8abc f9da b23d bd98 303e
000002e0: 3d9b 99bd 0814 c5bd 2624 c63c b003 68bd
000002f0: f476 a8bd 22d6 0a3d cdec 943d 3a15 b23c
00000300: b48a 703d e75a d7bd 5281 abbd ef65 0bbe
00000310: e25a 1d3d 8cb5 083d a154 75bd b16b 75bd
00000320: 7db4 c1bd d544 f63d 4dc6 0ebe a11e b33d
00000330: a76a fcbc 4b4d e1bd a8e2 bebc fad8 5d3d
00000340: 61a7 bf3d 41eb 703d d724 a13c 8d21 463d
00000350: e2ac 5cbd fbcf a4bd 9bd8 9f3c b47d 8ebc
00000360: ceb3 90bd 3188 a7bc e900 aabc cec2 23bd
00000370: fbd5 6d3d 0353 ff3d 651a ec3c 55ab aebc
00000380: 86b8 a8bd 566b 46bd 5605 6bbd a165 c53c
00000390: 44d6 d9bd 29fe 41bd a204 73bd 3e99 94bd
000003a0: 5e11 343d c7e8 ffbd 6868 d93d 4d88 8dbc
000003b0: 885b 1c3d 74e6 7e3d 49ce a4bd 7b3a aabc
000003c0: 0ea7 8c3d 760a 75bd 586e e9bb dda0 d7bd
000003d0: ca69 6bbd bad1 313c 8f26 b5bd 70a1 4fbd
000003e0: 19ee 933d 96c2 3a3d c6fe 18bd b500 143c
000003f0: 8ab7 9c3d 4e6c 01be 2f03 12be 3680 5ebd
-0.08284736 -0.19397661 -0.026652653 0.008748317 -0.0269819 0.043769915 -0.10966662 0.03919147
0.065642744 -0.07637977 0.084988885 0.013976299 -0.064083554 -0.04022883 -0.1079254 -0.03456994
-0.089648075 -0.016586652 -0.041290324 -0.03268144 -0.021503434 0.057156533 -0.060783498 0.122695565
-0.06410823 -0.010940106 0.0662829 0.014931548 -0.05554374 -0.00980365 0.057397008 0.1274787
0.117863126 -0.011782974 -0.054529954 0.06528658 -0.07613917 0.04266434 0.033128783 0.07674456
-0.08215949 -0.0030312398 0.020620279 0.007941533 0.10167986 -0.044724435 -0.073302016 -0.07891228
0.018729197 0.11452298 0.076709926 -0.050783172 0.17819786 0.07707763 -0.020359794 0.036191262
-0.12751031 -0.04017765 -0.0920728 0.07489749 0.034238197 -0.025619755 0.1233397 -0.04170051
0.12735957 -0.009872712 0.18480568 0.11120437 0.010471128 0.07807437 -0.046112433 0.079590484
-0.01027497 0.0098136 0.03905727 -0.047214624 -0.040530257 0.07757612 -0.0012122381 0.12812786
0.07850954 0.13145801 -0.06950923 -0.04792403 0.12031238 0.057364326 -0.044941194 -0.0960926
0.05285284 0.060576137 0.033521548 0.06458525 0.06350434 -0.07167373 -0.026870357 -0.055602156
-0.04614286 0.025928559 0.0010492358 0.06308743 0.038131468 0.011393296 -0.007156557 -0.047559947
0.05011873 -0.14150733 -0.059291314 0.098616436 0.052171215 0.10331025 -0.002674857 -0.06515407
-0.059014577 0.06550468 0.038693707 0.04092844 -0.121466376 0.1303744 -0.07749724 0.0031346648
-0.06294324 0.054720182 -0.0034855085 0.060766432 0.07952621 0.021337546 0.030365882 -0.024698822
0.02546553 -0.019070875 -0.042050578 -0.09451898 -0.07104314 0.04540169 0.14269675 -0.03562993
0.049318895 -0.09603252 0.12199678 -0.13612449 -0.10238685 -0.05518691 -0.052836742 0.08630405
-0.090668954 -0.10024225 0.041026764 -0.058679875 -0.046552006 0.13377686 -0.010005114 0.06701813
-0.06429563 0.08804554 -0.080849916 0.04702665 0.08197447 0.059801195 -0.06768928 -0.15047994
0.025407799 0.0370866 -0.12023134 0.04530159 0.029150339 0.019547004 -0.0077728983 -0.12801346
0.09451717 0.0192463 -0.017175619 0.10686465 0.11510595 -0.08977242 0.039780196 -0.04573023
-0.06705725 0.05534637 0.06779459 -0.06842321 -0.047475394 -0.016894069 0.08733172 0.17245765
-0.075003125 -0.09622961 0.024187159 -0.05664414 -0.082258135 0.03389562 0.07271729 0.021738637
0.058726028 -0.10515385 -0.08374275 -0.13613103 0.03841675 0.03337626 -0.05989516 -0.059917156
-0.094582535 0.120248474 -0.13942833 0.087460764 -0.030812575 -0.110010706 -0.023301437 0.054162003
0.09358097 0.058818106 0.019670887 0.04837184 -0.05387581 -0.080474816 0.019512465 -0.017393924
-0.07065545 -0.020450683 -0.020752387 -0.039980702 0.058065396 0.12467005 0.02882118 -0.021321932
-0.0823832 -0.048442207 -0.057378136 0.024096312 -0.10636571 -0.047361527 -0.05933059 -0.07255791
0.043961875 -0.12495571 0.10615617 -0.017276907 0.03817323 0.062231496 -0.08047158 -0.020779839
0.06867801 -0.05982443 -0.0071237497 -0.10528729 -0.057473935 0.010853225 -0.08845245 -0.05069107
0.07223148 0.045595728 -0.037352346 0.009033372 0.07652195 -0.12638971 -0.14259027 -0.05432149

fc2.bias f4 [84]
00000000: e34d 223d eef3 2d3e 6b59 c53c 84d4 d3bd
00000010: d2a0 a53e d4e9 d8bc 3eee a2bd bd6f f93e
00000020: 0fb2 b93c a391 d83d 8a78 1c3d 9d37 a03d
00000030: 1007 643c 84ec a03d cd0a d83d 09ac 183f
00000040: f417 eb3d ee19 083d 6b42 6bbd 533f 0a3e
00000050: c9d5 2b3c 11ae d73c 5f1d 0f3e 5c26 50bc
00000060: da8d 9a3c 9b4f 6c3d b7d2 ca3d 930f c0bd
00000070: 9546 743d 0c90 f2bb 0a77 90bd 3803 6b3d
00000080: d036 50bd 329d 923b 6505 b13d b4f6 a13e
00000090: 32d0 2bbc 6ec7 4dbc d1f6 1abd 630a 47bc
000000a0: c8b3 383c 6ba9 2e3e 1ceb 3ebd 6131 b0bd
000000b0: 92cc ac3e 60b3 96bd 3269 b93d 6f03 a53d
000000c0: 014c 8c3e ffbf 5e3d e1db 90bc 6df3 433e
000000d0: d935 91bd 3c14 293d 6c80 acbd 2180 b1bd
000000e0: adf4 473e b55b ac3e b4b9 f83d 8276 43bd
000000f0: be20 51bd 9f17 f9bb ca3a b3bc 1adc 4abd
00000100: c80c 03bd a30f b93c f53a 13bc 15e8 d23d
00000110: 38da 833a c5d0 6fbd ec8d a93b 51e1 0f3e
00000120: b736 bd3d 0482 28be fb55 233e c756 673e
00000130: 72e1 173e 252c d8bd 4751 ad3c 15e9 3b3d
00000140: 7eae 693c 2262 b7bd 30d9 29bb a84b 24bd
0.03962506 0.16987583 0.02409049 -0.103432685 0.3234926 -0.026478685 -0.07955597 0.48718062
0.022667913 0.10574653 0.038200893 0.078231074 0.013917699 0.07857612 0.10548935 0.59637505
0.11479178 0.033227853 -0.057436388 0.13500719 0.010487982 0.026328119 0.13976048 -0.012704458
0.018866468 0.057693105 0.09903472 -0.093779705 0.059637625 -0.0074024256 -0.07053955 0.057376117
-0.050833523 0.0044743055 0.08643607 0.31633532 -0.010486649 -0.012559755 -0.03783304 -0.0121484725
0.011273332 0.17056815 -0.046610937 -0.08603168 0.33749825 -0.07358432 0.090532675 0.080572955
0.27401736 0.05438232 -0.017682971 0.19135828 -0.07090349 0.041279063 -0.08422932 -0.08667017
0.1952693 0.33663717 0.12144795 -0.04772044 -0.051056616 -0.007601693 -0.021878619 -0.04952631
-0.03199461 0.022590464 -0.008986224 0.102981724 0.0010059541 -0.058548708 0.005174389 0.14050795
0.09238952 -0.16455847 0.15950768 0.22591697 0.14832094 -0.10555295 0.02115692 0.04587658
0.014262794 -0.08954264 -0.0025916807 -0.040111214

fc3.weight f4 [10, 84]
00000000: be8e 2b3e 10e2 0ebe 1209 1b3e f77d da3c
00000010: bd7e 003d 3280 8c3c 841c a7bd 3368 05be
00000020: 61fb f83d 44a4 653e e4e1 8e3c cf16 59bd
00000030: 2715 b2bd 036f 0d3e 5ce0 44be 3e23 8ebe
00000040: 2a66 893c b5d9 da3d f2b3 74bc 04c7 c0bd
00000050: 76bf 713e 81a7 9b3d 1d79 a0bd af6b fbbc
00000060: 2c06 17be c003 f63d 48f5 f2bd f8c8 37bc
00000070: 09a8 9f3d 5b5c f7bc d30a c4bc 36d9 a4bd
00000080: 32ff dd3d 7360 0b3d 366b 233e d250 27be
00000090: f9ca 0d3e 9e56 04bc 856a 043d 5f16 9dbd
000000a0: 94c1 f7bd f0bc b939 1a39 a4bc 18b6 263d
000000b0: 1b41 e8bd 9671 733d 9ab3 283e 4340 03bc
000000c0: 8023 28be 53bc a43d 0940 573e 1f5b 2abe
000000d0: fe08 193c 2218 c3bd 33f8 1cbd a97a b13d
000000e0: db4f 053e 3f0b 45be bf69 9fbd 082e dd3b
000000f0: 60cc 06bd 4ab2 9f3d 7d99 7a3d af3a 1e3d
00000100: 3bf5 f1bc 6558 453e 0a92 8d3d e3dc 3ebe
00000110: db68 ca3c f56a fdbc 3f27 673e b62f e5bd
00000120: 006c 0fbe 8453 443e c1b8 af3e 878c a83e
00000130: 52ad fabd 651b 24bd a67f 0cbe ed75 f53c
00000140: 6f99 893e 3609 883d 0257 9b3d ac69 ba3d
00000150: d12e d73e c50b da3d 2f66 553e 69f3 a13d
00000160: 9740 70be 0ae9 b13c cb1d 053e b889 8fbe
00000170: 4a9c 94bd 3789 823c 9482 12be 6949 53be
00000180: 5f0b 3fbe 5319 8b3e a35b 833c 0ad7 24be
00000190: bb0b c3bd 06a2 433e e7b3 033e ef29 c63b
000001a0: 152a dc3a 2d89 32be e807 aabd 9b0d 7d3d
000001b0: 1d0f a2bd 28e4 ca3d 6ea7 f53c 74f0 1f3c
000001c0: 216e ac3d 3105 823c f3bd a03d ae9b 2b3d
000001d0: f709 f4bd cc96 5abd ad18 043e 4c17 90be
000001e0: 14f4 0dbe cfc1 383e df84 c63d ba7d 75bd
000001f0: 6b79 9fbd 50f3 22bd 2c90 823d 3ad5 e1bc
00000200: 9d45 09be ede0 5d3d ff07 abbd 9ae4 92bd
00000210: 0dfc 74bd 8f83 ad3e 3995 03be af21 01bd
00000220: f414 9a3d 29b9 2d3e abe1 c8bd efb8 90bc
00000230: bb5d a6be 4905 5dbe bf4e 973b e400 c93d
00000240: 739d 2abc 2014 e3bd 8967 763b 84b5 90bd
00000250: 5723 a9bd 1a8b 6abe 213e 5cbd 0bbc bbbc
00000260: 9c3a d3bc 873d 55bd e42f c8bd a389 a03d
00000270: a2ed d4bd 74db 0cbe fb7f 28be 767f 253b
00000280: 9998 a53d acbe 59bd b2aa 4dbc 358c 733e
00000290: d8d5 d23d 74bd d6bc 2810 093e a893 073c
000002a0: 4cf9 bfbd 868f 49be c9c4 c9bc 9647 2cbd
000002b0: bf38 ae3c 3a95 203d c705 f2bb fa7d 053e
000002c0: 40f5 e43d cf05 15be e014 023e f99a d83d
000002d0: 3e4e 84bd b123 8abd bfa9 3bbd a8bd a03e
000002e0: ecd8 10be c539 79bd 3bdc 17be 95eb 0fbe
000002f0: 85f0 a3bc 44c5 073c 2e61 b83d 59c1 12bd
00000300: 84a0 703d 6127 bd3d 1666 df3c bce9 903d
00000310: 0ff4 b7bc 711b 99bd 0993 83bc 3ab1 2ebd
00000320: deee a23e 98eb 4f3c 7095 45be 15e4 653e
00000330: 4581 0f3e f6f0 ed3d cde9 67bd 118c 70bd
00000340: 56fb bebd 4535 1c3e f519 0cbc 2e04 eebb
00000350: f7f6 cb3d f04d 89bc d1b8 69bd 1d29 933c
00000360: 3a07 42be 5299 8ebd 4e35 a3bc 3985 07be
00000370: ec84 843c 4892 14be 1953 7cbd d39d 623e
00000380: e8a5 d23d 4921 b33d 43a6 cd3d d9e7 88bd
00000390: 915b 1d3c 5390 edbc ab22 02be f668 41bd
000003a0: a44d 8a3d abb7 4a3e 4010 34bd 6ebb 1cbd
000003b0: 55ee 79bd 160f 0e3d 5d33 133e 99f6 003b
000003c0: 4103 4b3d c2f3 ea3d 08d1 5c3e f9df 0e3d
000003d0: edd1 55be c57d c0bd 6266 d3bd 5fee 513c
000003e0: 9338 c7bb 4bd8 23bc 3155 83bd d210 61bd
000003f0: 8026 6cbe b084 673e 7e73 863c f83b 9abc
0.1675367 -0.13953424 0.15140179 0.026671393 0.031370867 0.017150972 -0.08159736 -0.1302803
0.12157322 0.22425944 0.017441697 -0.053000268 -0.08695441 0.13811879 -0.19226211 -0.27761263
0.016772348 0.106860556 -0.01493548 -0.09412959 0.23608193 0.07600308 -0.078356005 -0.030690996
-0.14748448 0.12012434 -0.1186319 -0.011217348 0.07795722 -0.030195406 -0.023930943 -0.08049242
0.1083969 0.034027528 0.15958866 -0.16339424 0.13846959 -0.008077292 0.032328147 -0.076702826
-0.12097469 0.0003542672 -0.02004676 0.040701002 -0.11340543 0.059434496 0.16474763 -0.008010927
-0.16419792 0.080437325 0.21020521 -0.16636322 0.009340523 -0.09526087 -0.03832264 0.08665974
0.13018744 -0.19242571 -0.07783841 0.006749872 -0.03290975 0.07797678 0.061181534 0.038630184
-0.02953588 0.19272001 0.0691262 -0.18638949 0.024708202 -0.03093479 0.22573565 -0.11190741
-0.14006042 0.19172484 0.34320644 0.32919714 -0.122400895 -0.040065188 -0.13720569 0.029963458
0.26874873 0.06642382 0.07584955 0.091021866 0.42027906 0.10646776 0.20839761 0.07907755
-0.23462139 0.021717567 0.12999646 -0.2803476 -0.07256372 0.01593457 -0.14307624 -0.20633473
-0.18656681 0.27167758 0.016034907 -0.16097656 -0.09523722 0.19104776 0.12861596 0.0060474793
0.0016797209 -0.17435141 -0.08302289 0.061780553 -0.07913039 0.099067986 0.029987063 0.009761918
0.08419443 0.015871616 0.0784873 0.041896515 -0.11915963 -0.053366467 0.12900038 -0.28142774
-0.1386264 0.18042682 0.09693312 -0.059934355 -0.077868305 -0.039782822 0.06375155 -0.027567495
-0.13405462 0.054169584 -0.083511345 -0.071725085 -0.059810687 0.33889434 -0.12849893 -0.031526264
0.07523528 0.16965164 -0.09808668 -0.017666308 -0.32493386 -0.21584047 0.0046175416 0.09814623
-0.010413515 -0.11087823 0.0037598333 -0.07065871 -0.08258694 -0.22904626 -0.05377019 -0.022916814
-0.025784783 -0.05206063 -0.097747594 0.07838752 -0.10396887 -0.1375559 -0.1645507 0.0025252975
0.08085746 -0.053160354 -0.012552904 0.23783953 0.10294694 -0.026213385 0.1338507 0.00827495
-0.093737215 -0.19683656 -0.024629967 -0.042060457 0.021267293 0.039204814 -0.0073859426 0.13036337
0.1117959 -0.14552997 0.12703276 0.10576434 -0.06460236 -0.06745089 -0.04581618 0.31394696
-0.14145249 -0.06084611 -0.14830105 -0.14054711 -0.02001215 0.008286778 0.090029106 -0.035828922
0.05874683 0.092360266 0.027270358 0.07075831 -0.022455243 -0.07475937 -0.016061323 -0.042649485
0.31822866 0.012690447 -0.19295287 0.22450288 0.14014156 0.11618225 -0.056619454 -0.058727328
-0.09325282 0.15254696 -0.0085511105 -0.007263682 0.09959214 -0.016760796 -0.05706102 0.01796394
-0.18948069 -0.06962837 -0.019922879 -0.13234414 0.016176663 -0.14508927 -0.061602686 0.22130518
0.1028555 0.08746583 0.100414775 -0.066848464 0.009604351 -0.028999483 -0.12708537 -0.04721924
0.0675309 0.19796626 -0.04396081 -0.038264684 -0.061018307 0.034682356 0.14375062 0.0019678234
0.04956365 0.11472274 0.21564114 0.034881566 -0.20880862 -0.09398989 -0.10322262 0.01281318
-0.006079742 -0.010000299 -0.06412733 -0.05494768 -0.23061562 0.2260921 0.016412493 -0.018827423

fc3.bias f4 [10]
00000000: 6e03 b6be 04a7 92be 9e8f ebbd 5e2a 673e
00000010: 5d44 f73e 5460 c1bc 9eae c63e 457c d4bd
00000020: f1da 953d 72d6 5fbe
-0.35549492 -0.28643048 -0.11502002 0.22574756 0.48294345 -0.023605503 0.38805097 -0.10375265
0.073171504 -0.21859148
