blob-pets/blob_CE_CNN.pth (torch, 7557 bytes, 8 tensors)

conv1.weight f4 [6, 3, 3, 3]
0	0xbe84042c	-0.25784433
1	0xbe430ac5	-0.19047077
2	0xbee08b13	-0.43856105
3	0xbe111b61	-0.141706
4	0xbf679ef7	-0.90476936
5	0x3d543478	0.05180785
6	0x3c94cb6f	0.018163411
7	0xbe0cbd5c	-0.1374411
8	0xbcd13a8a	-0.025540609
9	0x3ea34a9a	0.31892854
10	0x3e6d3768	0.23165667
11	0x3f03c5d9	0.51473767
12	0x3eef060d	0.46684304
13	0xbe5e74ed	-0.21724291
14	0x3ed974a3	0.424718
15	0x3f11d1d3	0.5696079
16	0x3c128110	0.008941904
17	0x3e7fa48a	0.2496511
18	0xbe9fe16a	-0.31226665
19	0x3e85df48	0.26146913
20	0xbec6bec8	-0.3881743
21	0xbe7eed35	-0.24895175
22	0x3f85a46a	1.04408
23	0xbeebb78a	-0.46038467
24	0xbf02b592	-0.51058304
25	0xbe56f99c	-0.20993656
26	0xbe529eb8	-0.20568359
27	0xbf06aec8	-0.52610445
28	0x3eafd135	0.343393
29	0x3c80e77e	0.015735384
30	0x3e629c42	0.2212992
31	0x3f454c21	0.7706929
32	0x3e64c831	0.22341992
33	0xbe469cb4	-0.19395715
34	0x3dc87f85	0.097899474
35	0xbf0cf91e	-0.5506762
36	0xbe931766	-0.2872879
37	0x3bcdfc34	0.0062861685
38	0x3f10ea19	0.56607205
39	0xbf4743f9	-0.77838093
40	0xbed53ae2	-0.41646487
41	0xbd5f14e8	-0.054463297
42	0xbe902551	-0.2815347
43	0x3df50f7a	0.119658425
44	0x3ebcb818	0.36859202
45	0xbcb12d57	-0.021628065
46	0x3d4a3808	0.04936984
47	0x3e8769ae	0.26447815
48	0x3c1e39d3	0.009657341
49	0x3eaaef0c	0.33385503
50	0xbe4294b5	-0.1900204
51	0xbe757d07	-0.23973475
52	0x3e4275d8	0.18990266
53	0x3e68bdc7	0.22728644
54	0xbde4de8f	-0.11175262
55	0xbe93002a	-0.28711063
56	0xbc2c0393	-0.010498899
57	0xbdcc1cdd	-0.09966443
58	0xbe6ea818	-0.2330631
59	0xbcbdec2f	-0.02318391
60	0xbe92f01e	-0.2869882
61	0xbe3db704	-0.18526846
62	0xbe3ec4f3	-0.18629818
63	0xbdae50ef	-0.085115306
64	0xbe0a8ae7	-0.1352955
65	0xbe0d9222	-0.13825276
66	0x3e4ea70b	0.2018091
67	0xbe525875	-0.20541556
68	0x3e48176b	0.19540183
69	0x3e3d17c4	0.18466097
70	0x3eae63ee	0.34060615
71	0x3e1b3f64	0.151609
72	0x3f41b29d	0.7566317
73	0x3ee6fdd3	0.45115528
74	0x3f098a77	0.53726906
75	0x3ee707c3	0.4512311
76	0xbf8074fc	-1.0035701
77	0x3edd5b7d	0.43233863
78	0x3ee0d357	0.4391124
79	0xbd6597ef	-0.0560531
80	0x3e2f7204	0.17133337
81	0x3ea30cc1	0.31845668
82	0x3e8a717a	0.270397
83	0xbdbb8a1d	-0.091572024
84	0xbe3b2000	-0.18273926
85	0x3ee28b75	0.44247022
86	0x3e07baef	0.13254903
87	0xbf5fe371	-0.87456423
88	0x3e72663e	0.23671815
89	0xbdf2b5f7	-0.11851113
90	0x3ef95f4b	0.48705515
91	0xbe08532f	-0.13312982
92	0xbe210a02	-0.15726474
93	0x3cc21b8a	0.023694772
94	0xbe9b3d8d	-0.30320397
95	0xbeefe852	-0.46856934
96	0x3ea02864	0.31280816
97	0xbe88ad1f	-0.2669458
98	0xbeb0c954	-0.345286
99	0x3f00cb3d	0.50310117
100	0xbe3058bd	-0.17221351
101	0xbe9f8b93	-0.31161174
102	0xbe94a270	-0.2903018
103	0x3f0cfbbd	0.5507162
104	0x3cbd7e22	0.023131434
105	0x3ee57c97	0.44821617
106	0x3df22642	0.11823703
107	0xbe0d8ace	-0.13822481
108	0xbe94b6a2	-0.29045588
109	0x3ed03d84	0.40671933
110	0xbf84a33c	-1.0362315
111	0x3e9a8ce0	0.30185604
112	0x3eecc911	0.46247151
113	0x3e40b52e	0.18819115
114	0x3e07808b	0.13232629
115	0x3e930c4f	0.28720328
116	0x3e9e4e50	0.30919123
117	0x3dd5470b	0.10413941
118	0x3e693377	0.22773539
119	0xbe93c18c	-0.28858602
120	0x3e800bb2	0.25008923
121	0xbeff9600	-0.49919128
122	0xbd393c79	-0.045223687
123	0x3e90168e	0.28142208
124	0xbe8ba1c1	-0.27271846
125	0x3e38f2e1	0.18061401
126	0xbed58ce1	-0.41709045
127	0x3f003644	0.500828
128	0xbe800473	-0.25003394
129	0x3e5e122c	0.2168662
130	0x3e7631b8	0.24042404
131	0x3f054d71	0.5207129
132	0x3cab607b	0.020920029
133	0xbe684bbe	-0.22685143
134	0xbe2fccf4	-0.17168027
135	0x3e970c8e	0.29501766
136	0x3e4a08c5	0.19729908
137	0x3dd8a313	0.10577979
138	0x3e340ea3	0.17583708
139	0x3be64614	0.007027397
140	0x3ccf584a	0.025310654
141	0xbdb96f59	-0.09054441
142	0xbe31c1a9	-0.17359032
143	0xbe188d1f	-0.14897583
144	0xbf5c2511	-0.8599406
145	0xbf036547	-0.5132641
146	0xbeaa68ee	-0.3328318
147	0xbeaebcfd	-0.34128562
148	0x3e51c999	0.2048706
149	0xbf0b8e2a	-0.545138
150	0x3e2a63f0	0.16639686
151	0x3eb21bf2	0.34786946
152	0xbe6f6061	-0.2337661
153	0xbe9a7575	-0.30167738
154	0xbe5567c9	-0.20840372
155	0x3e837ffe	0.25683588
156	0xbe0833fb	-0.13301079
157	0xbc9bb0a9	-0.019005137
158	0xbe873a2d	-0.26411572
159	0x3f139be2	0.57659733
160	0x3e072e6c	0.13201302
161	0x3e889c32	0.26681668

conv1.bias f4 [6]
0	0x3cbe1436	0.023202997
1	0x3e4a7e42	0.19774726
2	0xbe2233d6	-0.15840086
3	0x3e468df3	0.19390087
4	0x3e666ea3	0.22503142
5	0x3d8b0861	0.067887075

fc1.weight f4 [32, 6]
0	0xbe9498fa	-0.29022962
1	0xbe5f3c92	-0.2180045
2	0x3ef09b20	0.4699335
3	0x3f1cd778	0.6126628
4	0xbdfc8fef	-0.12332141
5	0xbe9168a5	-0.2840015
6	0xbfac5473	-1.3463272
7	0x3e333eb4	0.17504388
8	0xbee3e510	-0.44510698
9	0xbea748f6	-0.32672852
10	0x3e8e3583	0.277752
11	0x3ebf80a6	0.37402838
12	0x3f44bc2e	0.7684964
13	0xbe8beb23	-0.27327833
14	0xbf144334	-0.57915044
15	0x3eb9e6ec	0.36308992
16	0xbf0cd3a7	-0.55010456
17	0x3d6c10b0	0.057633102
18	0xbeb8414a	-0.35987312
19	0xbea16d16	-0.31528538
20	0xbe29af54	-0.16570789
21	0xbe94a677	-0.29033253
22	0x3e04f9b4	0.12985879
23	0xbde26390	-0.11054146
24	0x3eaa947c	0.3331641
25	0xbf38dd6e	-0.72212875
26	0x3f0da03d	0.5532263
27	0xbe2719f8	-0.163185
28	0x3e57ca07	0.21073161
29	0xbebc360a	-0.3675998
30	0xbf92d63a	-1.1471627
31	0x3eac60d1	0.33667615
32	0xbe8161c4	-0.25269902
33	0x3d59f3db	0.053211074
34	0xbf010b1e	-0.5040759
35	0x3e90a16f	0.28248164
36	0xbfabf3a2	-1.3433726
37	0xbbb172b2	-0.005415284
38	0xbdf3a729	-0.11897118
39	0x3d576ff7	0.052597012
40	0xbe0e912d	-0.13922568
41	0x3e9349b9	0.28767183
42	0xbec40aaf	-0.382894
43	0xbdef6df3	-0.11690893
44	0x3eb118f6	0.34589356
45	0xbf457593	-0.7713253
46	0xbeb3d906	-0.35126513
47	0xbeee58a2	-0.46551996
48	0xbf56224e	-0.83646095
49	0x3e9aa5a3	0.30204496
50	0xbdbc114d	-0.09182987
51	0x3e547c93	0.20750646
52	0xbef96991	-0.48713353
53	0xbf34d2e4	-0.70634294
54	0xbf8d5293	-1.1040825
55	0xbf64d0d2	-0.89381135
56	0x3e576a19	0.21036567
57	0x3e820c9c	0.25400245
58	0x3e8e73dc	0.2782277
59	0x3e9dba08	0.30805993
60	0xbedc1360	-0.42983532
61	0xbee9dd2a	-0.45676547
62	0x3ee8bfb5	0.4545876
63	0xbef23be4	-0.47311318
64	0x3e536061	0.20642234
65	0xbed22e2f	-0.4105086
66	0xbcd27a26	-0.02569301
67	0x3e81a1fd	0.253189
68	0xbeaf15ff	-0.3419647
69	0xbfa110bc	-1.2583232
70	0x3eabe477	0.33572742
71	0xbe7a83e8	-0.2446438
72	0xbead0de4	-0.3379966
73	0x3f3515d1	0.70736414
74	0x3dc55a4b	0.09636363
75	0xbf234084	-0.6377032
76	0xbf0c44b4	-0.5479233
77	0xbd31043f	-0.04321694
78	0x3e25796a	0.16159597
79	0x3ee8862a	0.4541486
80	0x3e16a739	0.14712228
81	0xbee0d04a	-0.43908912
82	0x3f39d413	0.72589225
83	0x3f1892b0	0.5959883
84	0x3d409788	0.04701951
85	0xbe404dec	-0.18779725
86	0xbe4b4f42	-0.19854453
87	0xbcf8a330	-0.030351251
88	0xbe79f62b	-0.24410312
89	0xbe4b48c4	-0.19851977
90	0xbf810cbd	-1.0082012
91	0x3e82416b	0.25440535
92	0x3f1c610b	0.61085576
93	0x3d8d0ea9	0.06887562
94	0xbd85968e	-0.06522857
95	0x3e1520f5	0.14563353
96	0xbcdf578b	-0.027263423
97	0xbf1da79d	-0.6158388
98	0x3eecfb6e	0.46285576
99	0x3de4ba02	0.11168291
100	0xbe8928a5	-0.26788822
101	0x3e43e8c9	0.19131769
102	0xbef4136c	-0.47671068
103	0x3e80e2dc	0.2517308
104	0xbe672a1a	-0.22574654
105	0x3ec82eb9	0.39098147
106	0x3f0c92c9	0.54911476
107	0x3e54ed76	0.20793709
108	0xbe23e7f1	-0.16006447
109	0xbf734ea4	-0.9504187
110	0xbe1c69e9	-0.15274777
111	0x3f4005bb	0.75008744
112	0x3e4f63ea	0.20252958
113	0x3c52a15a	0.012855852
114	0xbfae2989	-1.3606426
115	0xbd3a1998	-0.045434564
116	0xbd848bde	-0.0647199
117	0x3ec769bc	0.38947856
118	0x3e549aba	0.20762148
119	0x3e8e643d	0.2781085
120	0xbf1dc096	-0.6162199
121	0x3e8698ef	0.26288554
122	0xbe1e72ef	-0.15473531
123	0x3f0965a9	0.53670746
124	0xbf2a78b7	-0.66590446
125	0xbe97903a	-0.29602224
126	0x3e5965b1	0.21230198
127	0x3e612c05	0.21989448
128	0xbf656783	-0.8961107
129	0x3eca488f	0.39508483
130	0x3f221e63	0.63327616
131	0xbf0837ff	-0.53210443
132	0xbed37a14	-0.41304076
133	0xbe9c790a	-0.30561095
134	0x3ef9c39c	0.4878205
135	0xbd92d542	-0.07169582
136	0x3d944171	0.072390445
137	0xbf28ad39	-0.65889317
138	0x3dc67a64	0.09691313
139	0xbf206fc4	-0.6267054
140	0x3efb23fe	0.49050897
141	0xbee5243a	-0.447542
142	0xbe9e702b	-0.30944952
143	0xbe7fcda9	-0.24980797
144	0x3e811d37	0.25217602
145	0x3dac374f	0.08408987
146	0xbe6c25da	-0.23061314
147	0xbea9408a	-0.33057052
148	0xbec60694	-0.38676894
149	0xbd9e64cd	-0.0773407
150	0xbf1923b2	-0.5982009
151	0xbef6c149	-0.4819434
152	0x3ee60e44	0.4493276
153	0xbe009e5a	-0.12560406
154	0xbef802a1	-0.48439506
155	0x3edd8af6	0.4327008
156	0x3f3c4fa2	0.7355901
157	0xbeac3088	-0.33630776
158	0xbf85ac73	-1.0443252
159	0xbdade47b	-0.08490845
160	0x3e9c26f9	0.30498484
161	0xbe86773f	-0.26262853
162	0x3e15ff5e	0.14648196
163	0x3f0163ca	0.5054289
164	0xbf2c6b8f	-0.6735162
165	0x3df4f362	0.11960484
166	0x3f0fac6e	0.5612248
167	0xbf039922	-0.5140554
168	0x3e96d8a3	0.29462156
169	0xbf5f2d35	-0.87178355
170	0xbf3c1d59	-0.7348228
171	0xbf4f9680	-0.8108902
172	0x3f073213	0.5281078
173	0xbe276f0b	-0.16350953
174	0xbf710969	-0.94154984
175	0x3d98dcd9	0.07463998
176	0xbf20941f	-0.62726015
177	0x3e6c61e3	0.23084216
178	0xbe89b9cf	-0.26899573
179	0x3da08d27	0.07839423
180	0xbf1d8b3d	-0.61540586
181	0x3b85403e	0.004066496
182	0xbe81ad57	-0.2532756
183	0xbd801b97	-0.06255262
184	0x3ee16942	0.44025618
185	0xbde07aad	-0.109608985
186	0x3f10c950	0.5655718
187	0x3eafba1a	0.34321672
188	0x3e006902	0.12540057
189	0xbe6ec205	-0.233162
190	0x3e470db9	0.19438829
191	0xbeaef83a	-0.34173757

fc1.bias f4 [32]
0	0xbd14e893	-0.036354613
1	0xbd815900	-0.063158035
2	0x3eac6fb0	0.3367896
3	0xbe1f328a	-0.15546623
4	0x3e837719	0.25676802
5	0xbb8cae4e	-0.0042932397
6	0x3efc3d4d	0.4926552
7	0x3f124f7f	0.5715255
8	0x3e6e79e0	0.23288679
9	0xbf01b318	-0.506639
10	0x3f2c3bc2	0.67278683
11	0x3e68aca9	0.22722115
12	0xbc9f63fe	-0.01945686
13	0xbee852bb	-0.45375618
14	0xbdaa4eac	-0.08315787
15	0xbebdfb46	-0.3710577
16	0x3e905cbf	0.2819576
17	0xbe076ad8	-0.13224351
18	0xbddf5317	-0.1090452
19	0x3d9090e8	0.07058889
20	0x3d9cc563	0.07654836
21	0xbca33b38	-0.019925699
22	0xbe96822d	-0.2939619
23	0x3ed55180	0.41663742
24	0x3ecb9efd	0.39769736
25	0x3e7f36bb	0.24923222
26	0x3ea10204	0.3144685
27	0xbe98b31c	-0.2982415
28	0x3e820a3d	0.25398436
29	0x3e403f5c	0.1877417
30	0x3f0af087	0.54273266
31	0xbe6d54ec	-0.23176926

fc2.weight f4 [16, 32]
0	0x3e40d16e	0.18829891
1	0xbea2e076	-0.31811875
2	0x3eca2877	0.39483997
3	0xbd894442	-0.06702472
4	0xbdb5a112	-0.08868612
5	0xbc7d757f	-0.015469908
6	0x3d2320ff	0.03982639
7	0x3ebc9136	0.36829537
8	0x3f74135f	0.9534206
9	0x3f19a4a6	0.6001686
10	0x3ec91d35	0.39280096
11	0x3e003c38	0.12522972
12	0x3ed64b84	0.4185449
13	0x3d95801e	0.07299827
14	0xbd9b4038	-0.07580608
15	0xbe430aef	-0.1904714
16	0x3ebc4129	0.36768463
17	0x3e25a4e2	0.16176179
18	0x3dcda514	0.10041252
19	0xbeddc866	-0.43316954
20	0xbe2d1eb9	-0.16906251
21	0xbea104b7	-0.3144891
22	0xbf22287c	-0.63343024
23	0x3f09c47c	0.53815436
24	0x3ebd1069	0.36926582
25	0x3f0dd270	0.5539923
26	0xbf0fbf43	-0.5615122
27	0x3ea8fe7a	0.3300665
28	0xbe0ababd	-0.13547798
29	0xbe1d5789	-0.15365423
30	0xbe7b7ef8	-0.24560153
31	0xbe1cd38f	-0.15315078
32	0x3dc5c805	0.09657291
33	0xbefee578	-0.49784446
34	0xbebc2961	-0.3675032
35	0x3de5ea32	0.1122631
36	0x3e239aff	0.15977095
37	0xbccc3828	-0.024929121
38	0x3ea160e2	0.31519228
39	0x3f03a899	0.51429135
40	0xbeb35e66	-0.35032958
41	0x3f2d9169	0.67800003
42	0x3f2ee0c4	0.68311715
43	0x3ea6bc90	0.32565737
44	0xbf19a2b4	-0.6001389
45	0xbfbd72d1	-1.4800664
46	0x3e059463	0.13044886
47	0x3dfee788	0.12446505
48	0x3e7abfb4	0.24487191
49	0xbf1b5c9f	-0.60688204
50	0xbed7a926	-0.42121238
51	0xbdea08fb	-0.11427494
52	0xbf4fa3d4	-0.81109357
53	0xbe136827	-0.143952
54	0x3f614aa1	0.880045
55	0x3ea2be48	0.31785798
56	0x3e5df24a	0.21674457
57	0x3ef0a13f	0.4699802
58	0x3e2a2af0	0.16617942
59	0x3eb5f221	0.35536292
60	0x3ea509ba	0.32233983
61	0x3eb852f5	0.3600079
62	0x3e83d7e7	0.25750658
63	0xbd7ef5ed	-0.06224625
64	0x3ed02fbc	0.40661418
65	0x3f039cf2	0.51411355
66	0xbeaea0b4	-0.34106982
67	0xbbf00ae0	-0.007325515
68	0xbe3f4f02	-0.18682483
69	0x3e2504ca	0.16115108
70	0x3f0f919a	0.56081545
71	0xbec5e557	-0.38651535
72	0x3e4b71e4	0.19867665
73	0xbeab7537	-0.33487865
74	0xbe5e2206	-0.21692666
75	0x3cdf3fb3	0.027252054
76	0xbe93f22b	-0.28895697
77	0x3d136cc4	0.0359924
78	0x3ceaac28	0.028646544
79	0xbe371912	-0.17880657
80	0x3e3e9f8e	0.18615553
81	0x3ebc8b83	0.3682519
82	0x3ec0fff2	0.3769527
83	0x3f1c47e1	0.6104718
84	0x3de8fdc2	0.113765255
85	0x3e2fa042	0.17150977
86	0xbf166d50	-0.5876055
87	0xbed4f9e5	-0.41596904
88	0xbded1aec	-0.115774006
89	0x3e412598	0.18861997
90	0xbf06f8d2	-0.5272342
91	0x3f021ce2	0.5082532
92	0xbf4835a8	-0.7820687
93	0x3e1ed642	0.1551142
94	0x3f1ac2a7	0.60453266
95	0xbf008c1e	-0.502138
96	0x3e5aaae6	0.21354255
97	0xbf43b122	-0.7644216
98	0x3eb1935d	0.34682742
99	0xbd9bd581	-0.07609082
100	0xbda484ac	-0.08033118
101	0xbe16c342	-0.14722922
102	0xbd33eae5	-0.043925185
103	0x3f132825	0.5748313
104	0x3dbeb01b	0.09310933
105	0x3f1b20bc	0.60596824
106	0x3f651264	0.89481187
107	0x3f27be80	0.65525055
108	0xbe09767a	-0.13424101
109	0xbea4b36b	-0.32168135
110	0xbd3aaed4	-0.045576885
111	0x3eb1ec5b	0.34750637
112	0x3df6464b	0.12025126
113	0xbe182a51	-0.14859892
114	0xbf163684	-0.58676934
115	0xbeec6666	-0.46171874
116	0xbed03b7b	-0.4067038
117	0xbe4966a8	-0.19668067
118	0x3f59a011	0.85009867
119	0x3e43ae0d	0.19109364
120	0x3eca2678	0.39482474
121	0x3e5a79f2	0.21335581
122	0x3eab2917	0.33429787
123	0xbf09988f	-0.5374841
124	0x3f21cb58	0.632009
125	0xbdd63006	-0.104583785
126	0x3e3f9266	0.1870819
127	0xbe72ea74	-0.2372225
128	0xbebad15c	-0.36487854
129	0x3e2f750b	0.17134492
130	0x3e0ff92d	0.14059897
131	0xbe0bd152	-0.13654068
132	0x3cd433d0	0.025903612
133	0xbb89b8f9	-0.0042029587
134	0xbefccea3	-0.493764
135	0x3dfe080d	0.12403879
136	0xbec4e763	-0.38457784
137	0xbeb6c716	-0.35698766
138	0x3d40d26f	0.047075685
139	0xbf42d160	-0.7610073
140	0xbe4e8805	-0.20169075
141	0xbe2cf76e	-0.16891262
142	0xbdc3d88e	-0.09562789
143	0x3aa53b01	0.0012606086
144	0x3c865832	0.016399477
145	0xbd051bd7	-0.032497253
146	0xbf424474	-0.758857
147	0xbecbb35e	-0.39785284
148	0xbe3d99be	-0.18515679
149	0x3e326851	0.17422606
150	0x3d247268	0.04014817
151	0xbf14cb4f	-0.58122724
152	0x3e7ac8d2	0.2449067
153	0x3d8966f8	0.06709093
154	0x3d9666ba	0.07343812
155	0x3e5d2ee7	0.21599923
156	0xbf7d6a9a	-0.98990786
157	0x3c871e3f	0.016493915
158	0xbe7598dc	-0.23984092
159	0x3de7c022	0.11315943
160	0xbea0ce4d	-0.31407395
161	0x3eaa11da	0.33216745
162	0xbe9b5d1e	-0.3034448
163	0xbe241da3	-0.1602693
164	0xbea30f99	-0.31847838
165	0x3e936da1	0.28794578
166	0x3e403a0e	0.18772146
167	0xbe3dd618	-0.18538702
168	0xbe2e3325	-0.17011698
169	0xbf58aee2	-0.8464185
170	0xbf2b822d	-0.6699551
171	0xbf0c9914	-0.5492108
172	0xbed17776	-0.40911454
173	0x3e20ad5b	0.1569113
174	0x3e0e19b5	0.13876994
175	0xbdf14c38	-0.11782116
176	0xbe11da37	-0.14243399
177	0x3c9c1016	0.01905064
178	0xbc0825f8	-0.008309834
179	0x3dc4ca5b	0.09608909
180	0x3e4a1f1e	0.19738433
181	0x3d86546b	0.0655907
182	0x3e254343	0.1613894
183	0x3e3a32cc	0.1818344
184	0xbe86b305	-0.26308456
185	0xbe54de3c	-0.207879
186	0xbe227eb4	-0.15868646
187	0x3e24cd97	0.16094051
188	0xbec25711	-0.3795705
189	0x3e27c6ec	0.16384476
190	0xbdbe684f	-0.09297239
191	0x3d57c35c	0.052676544
192	0xbf2fd1ab	-0.686793
193	0x3e94b437	0.29043743
194	0xbf73c16d	-0.9521702
195	0x3d7dbc04	0.061946884
196	0xbefdad54	-0.495463
197	0x3e8b7890	0.2724042
198	0x3e6e0ec5	0.23247822
199	0xbcc0ccf3	-0.023535227
200	0xbe480f01	-0.19536974
201	0xbeed63e9	-0.46365288
202	0xbe3d3adc	-0.18479484
203	0x3dc4072f	0.09571683
204	0xbf08db14	-0.53459287
205	0x3e83bd57	0.25730392
206	0xbca0c640	-0.019625783
207	0xbee57035	-0.4481217
208	0xbe868458	-0.26272845
209	0x3e8313ec	0.25601137
210	0xbca2d6ec	-0.019877873
211	0x3eb1d026	0.34729117
212	0x3dd99548	0.10624176
213	0x3e1fd6d1	0.1560929
214	0x3dc1827e	0.094487175
215	0xbd67fbba	-0.05663655
216	0xbed2915f	-0.41126534
217	0x3e1675ec	0.14693421
218	0xbeb1190d	-0.34589425
219	0x3eaba3da	0.33523446
220	0xbf4b6d7c	-0.79463935
221	0x3e4b7586	0.1986905
222	0x3e8959b9	0.26826265
223	0xbdbcaf8a	-0.09213169
224	0xbe80ebfb	-0.2518004
225	0xbdf195b9	-0.117961355
226	0x3d53b8bb	0.051689845
227	0xbb91e4a0	-0.004452303
228	0xbcbcc9b7	-0.023045404
229	0xbcbf0c00	-0.023321152
230	0xbe35114a	-0.17682377
231	0xbe4b5c50	-0.19859433
232	0x3a5d2ca3	0.00084371323
233	0x3d214d0c	0.03938012
234	0x3a8d7232	0.0010791479
235	0xbc478b6b	-0.012179236
236	0xbe0c3297	-0.13691173
237	0x3c28dcfc	0.010306593
238	0x3e14b3ff	0.14521788
239	0x3d96b58b	0.07358845
240	0xbd97dad8	-0.07414788
241	0x3dc600be	0.0966811
242	0xbd4d7c11	-0.050167147
243	0x3ba3deed	0.00500094
244	0x3d0bbacc	0.03411369
245	0xbe2a6515	-0.16640122
246	0xbc95759d	-0.018244559
247	0xbe1c3460	-0.15254354
248	0x3d89cefe	0.06728934
249	0xbde22bad	-0.11043487
250	0x3d4b4261	0.04962385
251	0xbd61a427	-0.05508819
252	0xbba0fcb1	-0.0049129357
253	0xbe44416c	-0.19165581
254	0xbd833dbf	-0.064082615
255	0xbd007e18	-0.031370252

fc2.bias f4 [16]
0	0x3e0414ec	0.12898606
1	0x3e29f4ff	0.16597365
2	0x3daa450e	0.083139524
3	0x3e0f421e	0.13990065
4	0x3d10de0c	0.03536801
5	0xbe1ac61d	-0.15114637
6	0x3d70584a	0.05867795
7	0xbe58fdd0	-0.21190572
8	0x3cadf4fd	0.021234984
9	0xbe28fdf5	-0.16503127
10	0xbe3f7f58	-0.18700922
11	0xbe2850b9	-0.16437043
12	0x3ebacf72	0.36486393
13	0x3e84eede	0.2596349
14	0x3e5482d5	0.20753033
15	0x3cf12f74	0.029441573

fc3.weight f4 [3, 16]
0	0x3da9a862	0.082840696
1	0x3f29054f	0.66023725
2	0xbf1ebbad	-0.6200512
3	0x3f051b8d	0.51995164
4	0xbd918d7b	-0.071070634
5	0xbd5e21cb	-0.054231446
6	0xbf141caf	-0.5785627
7	0xbe2e68fb	-0.17032234
8	0x3d64afc3	0.055831682
9	0x3e3e1f3c	0.18566602
10	0xbf3afaac	-0.73038745
11	0xbd5c3cf8	-0.05376908
12	0x3f1729a4	0.59047914
13	0xbe15fe65	-0.14647825
14	0xbf3c8912	-0.7364665
15	0xbf107070	-0.56421566
16	0x3e400bb6	0.18754467
17	0xbf23a852	-0.6392871
18	0x3d0d0f63	0.034438502
19	0xbe07f113	-0.13275556
20	0xbec1487d	-0.37750617
21	0xbd8cf03d	-0.06881759
22	0xbd8f0cc9	-0.069848605
23	0xbc1916c3	-0.009343806
24	0x3d68b930	0.056817234
25	0xbd9b0be8	-0.0757063
26	0xbed4dd54	-0.4157511
27	0xbc50d647	-0.0127464
28	0xbea25afe	-0.31710047
29	0xbedf1ea1	-0.43578056
30	0x3e4c1a83	0.19931988
31	0x3e49109d	0.19635244
32	0xbe70de2b	-0.2352225
33	0xbf1502ad	-0.5820721
34	0x3d995d42	0.07488491
35	0xbec44d9f	-0.3834047
36	0x3e1b3dff	0.15160368
37	0x3e5825cd	0.2110817
38	0x3e28f27f	0.16498755
39	0x3c5a7a5b	0.013334836
40	0xbea0690c	-0.31330144
41	0x3ca4a6f0	0.020099133
42	0x3e710d6e	0.2354028
43	0xbdcf90d2	-0.10135044
44	0x3c90c896	0.017673772
45	0x3ed7befd	0.421379
46	0xbccb928a	-0.024850149
47	0x3c246917	0.010034821

fc3.bias f4 [3]
0	0x3e24a7ed	0.16079684
1	0xbda63ff4	-0.08117667
2	0xbe43de3c	-0.19127744
