blob-pets/blob_Hinge.pth (torch, 62009 bytes, 6 tensors)

fc1.weight f4 [128, 48]
0	0x3e0e4b09	0.13895811
1	0xbea3b428	-0.31973386
2	0xbe541d6e	-0.20714352
3	0x3e358968	0.17728198
4	0x3e1176e9	0.14205517
5	0xbecdb46e	-0.4017672
6	0xbe98656d	-0.29764882
7	0xbe53033b	-0.20606701
8	0x3e659696	0.22420725
9	0xbe0d18bf	-0.13778971
10	0xbea4da81	-0.32197955
11	0x3dd354de	0.103189215
12	0x3d9fc4c1	0.078012
13	0xbea00ce2	-0.3125983
14	0xbda53a32	-0.080677405
15	0x3ea1f78a	0.3163417
16	0x3ded2c6f	0.11580741
17	0x3d81115b	0.063021384
18	0x3d74d488	0.059772998
19	0x3d5d2c5f	0.053997394
20	0xbde2a88a	-0.110673025
21	0x3efc3aba	0.49263555
22	0x3ed0279d	0.40655223
23	0x3e37c3a7	0.17945729
24	0xbd76fded	-0.060300756
25	0x3f5c3d1e	0.8603076
26	0x3f154dae	0.58321655
27	0x3dfc034d	0.12305317
28	0xbef4f79e	-0.47845167
29	0xbe9b9ad1	-0.30391553
30	0x3e979e2e	0.2961287
31	0x3e96add2	0.2942949
32	0x3e308cba	0.17241183
33	0xbd833bcf	-0.06407892
34	0x3d7dd064	0.061966315
35	0xbdd1b017	-0.102386646
36	0x3ce3ab00	0.0277915
37	0xbea823c3	-0.32839784
38	0xbeb2aa22	-0.34895426
39	0xbdc7a82c	-0.09748873
40	0x3e4c59f4	0.1995619
41	0xbdc8185c	-0.09770271
42	0xbf4df16d	-0.8044651
43	0xbeb7c8c6	-0.35895365
44	0x3d973d1b	0.07384702
45	0x3d981141	0.07425166
46	0x3e02259e	0.12709662
47	0x3e5142cf	0.20435642
48	0xbd46d121	-0.048539285
49	0x3dae8d1e	0.0852301
50	0xbe9ecebc	-0.310171
51	0x3e782b50	0.24235272
52	0x3cac4eca	0.021033663
53	0x3d0f7ab0	0.035029113
54	0xbdb127d0	-0.08650172
55	0x3ceda372	0.0290086
56	0xbd8e6d2c	-0.06954417
57	0xbf45a2df	-0.77201647
58	0xbe5f36b6	-0.21798214
59	0x3e98acd5	0.2981936
60	0x3ebd698b	0.36994585
61	0x3dd75739	0.10514683
62	0xbe0e025d	-0.13868089
63	0xbc83e577	-0.016100628
64	0xbe247863	-0.16061549
65	0xbe765dfa	-0.24059287
66	0xbf02045c	-0.507879
67	0xbc904975	-0.017613152
68	0xbddf9fb6	-0.10919134
69	0x3e5ec175	0.21753486
70	0xbbb57a7f	-0.0055382843
71	0xbd55b398	-0.052173227
72	0xbe17f64a	-0.14840046
73	0xbf37a2eb	-0.7173297
74	0x3d914f95	0.07095257
75	0x3cd30f57	0.02576415
76	0x3e08343e	0.13301179
77	0x3ec7ba3d	0.39009276
78	0x3b85c69d	0.0040825144
79	0xbeee5d88	-0.46555734
80	0xbe960570	-0.29301023
81	0x3e218b08	0.15775692
82	0xbe938b6e	-0.28817314
83	0x3e36af5d	0.17840333
84	0xbe720612	-0.23635128
85	0x3ddc4ed9	0.107572265
86	0x3e91d726	0.28484458
87	0x3ec0489f	0.37555405
88	0x3e64dcf2	0.22349909
89	0xbe6a65aa	-0.22890344
90	0x3f0601f6	0.5234674
91	0x3f018588	0.5059438
92	0x3f07a491	0.52985483
93	0x3f45da89	0.77286583
94	0x3f062067	0.5239319
95	0xbe53368e	-0.2062628
96	0x3dccc506	0.09998517
97	0xbe746cc5	-0.23869617
98	0xbef1f9be	-0.4726085
99	0xbe22f5b6	-0.15914044
100	0xbd5b54b6	-0.053547584
101	0xbe52ba71	-0.20578934
102	0xbd47179f	-0.04860651
103	0x3ccf36d6	0.025294703
104	0xbd400d69	-0.04688779
105	0xbea2a454	-0.31765997
106	0xbe9f1fb4	-0.31078875
107	0x3c7f32da	0.015576089
108	0x3e48536d	0.19563074
109	0x3db2ec13	0.08736434
110	0xbd12dd25	-0.03585543
111	0x3dbb1477	0.09134763
112	0x3e0301b5	0.1279362
113	0x3ec31eb3	0.3810936
114	0xbe1d07c9	-0.15335001
115	0x3d68293b	0.056679945
116	0x3d8eb0de	0.069673285
117	0x3e6bdb22	0.23032811
118	0x3e93730e	0.28798717
119	0xbbc0d3c3	-0.005884619
120	0x3df6ed9d	0.1205704
121	0xbcf212e8	-0.02955003
122	0x3e1f7f1b	0.1557583
123	0x3eb471fc	0.35243213
124	0x3d97adbf	0.07406186
125	0x3eed32b1	0.46327737
126	0xbe4057b4	-0.18783456
127	0x3d253035	0.040329177
128	0xbe24f2e8	-0.16108286
129	0x3ee156f2	0.44011647
130	0x3c147d0f	0.009063019
131	0xbea2e22b	-0.31813177
132	0xbdce56ce	-0.100751504
133	0x3f47745f	0.77911943
134	0x3f143e4b	0.5790755
135	0xbe002025	-0.12512262
136	0xbf0e14e9	-0.55500656
137	0xbe8b71eb	-0.2723535
138	0xbc2917ad	-0.010320586
139	0x3d89a9f1	0.06721867
140	0xbe4f17cd	-0.20223923
141	0x3e5b4084	0.2141133
142	0xbe736e1e	-0.23772475
143	0xbed2d2d5	-0.41176477
144	0x3ef368e2	0.47540957
145	0x3d820228	0.063480675
146	0x3d554d27	0.05207553
147	0x3f537c9e	0.82612026
148	0x3ea162c3	0.31520662
149	0xbeaa0bdd	-0.33212176
150	0xbe25a300	-0.16175461
151	0x3e18978a	0.14901558
152	0x3c747a48	0.014921732
153	0xbe843774	-0.25823557
154	0xbb7903fd	-0.0037996762
155	0x3ddb8b5b	0.10719939
156	0x3e1d2ab9	0.15348329
157	0x3ead68db	0.3386906
158	0xbeb9798b	-0.36225542
159	0xba7a5adf	-0.0009550284
160	0xbe470695	-0.19436105
161	0xbea5e6d9	-0.32402685
162	0xbe9f557e	-0.31119913
163	0x3d9d3201	0.07675553
164	0x3d1ccefa	0.038283326
165	0x3f0edca8	0.55805445
166	0x3f239d9f	0.63912386
167	0xbdbbf8be	-0.09178303
168	0xbea68039	-0.325197
169	0x3eb44271	0.3520694
170	0x3f3a87f9	0.7286373
171	0xbe78b6b2	-0.24288443
172	0xbe2a4810	-0.16629052
173	0x3e26a073	0.16272144
174	0xbe3bbf57	-0.18334709
175	0xbe650e7e	-0.2236881
176	0xbe073aea	-0.13206068
177	0xbed234e0	-0.41055965
178	0xbea5b104	-0.32361615
179	0x3d514936	0.05109521
180	0x3e05d570	0.13069701
181	0xbe634069	-0.2219254
182	0xbe925645	-0.28581443
183	0xbda3f7b6	-0.080062315
184	0xbd0c7560	-0.034291625
185	0xbed86589	-0.42264965
186	0x3e4f5196	0.20245966
187	0x3e360993	0.1777709
188	0x3dcc873c	0.099867314
189	0x3d30f7a8	0.043204933
190	0xbca434a0	-0.020044625
191	0x3e3ea3ed	0.1861722
192	0xbd9ce26f	-0.07660376
193	0xbebd160c	-0.36930883
194	0xbe960eb5	-0.29308096
195	0xbe3c4803	-0.18386845
196	0xbe87d61e	-0.26530546
197	0xbe346107	-0.17615138
198	0xbe5acc6d	-0.21367045
199	0x3d5ce5b6	0.053930007
200	0x3de511d3	0.1118504
201	0xbf2b0530	-0.6680479
202	0xbebcfd4e	-0.36912006
203	0xbdf02e11	-0.117275365
204	0x3d2a65cf	0.041601
205	0xbef7c7cd	-0.48394623
206	0x3d2ec7a1	0.04267085
207	0xbd9c1129	-0.076204605
208	0x3e6f3428	0.2335974
209	0x3e7a9ae8	0.24473155
210	0x3e399839	0.18124475
211	0x3eb28a26	0.34871024
212	0x3e677ae4	0.22605473
213	0xbad433cb	-0.0016189752
214	0xbda735a1	-0.08164526
215	0x3efc066c	0.4922365
216	0x3f094845	0.536259
217	0xbd739a91	-0.059473578
218	0xbd3296ef	-0.043600973
219	0x3ee0b2d9	0.4388645
220	0x3e80a6f8	0.25127387
221	0xbdb2f593	-0.08738246
222	0x3ee063b0	0.43826056
223	0x3ec715ea	0.38883907
224	0xbddc45f1	-0.10755528
225	0xbdb468b6	-0.088090345
226	0xbd2ba10a	-0.041901626
227	0xbe5c431f	-0.2150998
228	0xbe6d6107	-0.23181544
229	0x3ee15977	0.4401357
230	0x3e87cc2d	0.2652296
231	0xbe84ccef	-0.25937602
232	0xbe6dbd28	-0.23216689
233	0x3eb912a6	0.3614704
234	0xbd32b523	-0.043629777
235	0xbe51e4cf	-0.2049744
236	0xbeef1b76	-0.4670064
237	0xbcdf813c	-0.027283303
238	0xbd80dc06	-0.06291966
239	0xbef044a9	-0.46927384
240	0x3e5591c4	0.20856386
241	0x3e40e695	0.1883796
242	0x3dd94c55	0.10610262
243	0xbe3d5ad5	-0.18491681
244	0x3e31b772	0.17355135
245	0xbe304dd7	-0.17217194
246	0x3e788d5e	0.24272677
247	0x3e8f3b71	0.27975038
248	0xbe9e5378	-0.30923057
249	0x3f445970	0.7669897
250	0xbe06447b	-0.1311206
251	0x3f0c9736	0.5491823
252	0xbee4d59f	-0.4469423
253	0x3e4213bd	0.18952842
254	0x3de2b52e	0.110697135
255	0xbda8df05	-0.082456626

fc1.bias f4 [128]
0	0xbebb7332	-0.36611325
1	0xbf07fee7	-0.53123325
2	0xbe25db4f	-0.16196941
3	0xbe912021	-0.28344825
4	0xbe841223	-0.25795087
5	0xbe8e3fc8	-0.27783036
6	0xbe9504f8	-0.29105353
7	0xbe209431	-0.1568153
8	0xbedb21ff	-0.42799374
9	0xbea62a42	-0.32454115
10	0xbf575d0f	-0.8412637
11	0xbcb3592c	-0.021893106
12	0xbe8d435c	-0.27590454
13	0xbefc1c7c	-0.49240482
14	0xbd86d880	-0.06584263
15	0xbe74f2c4	-0.23920733
16	0xbf219616	-0.6311964
17	0xbf217693	-0.63071555
18	0xbe301445	-0.17195232
19	0xbe965d9a	-0.29368287
20	0xbe29614a	-0.16541019
21	0xbf9311fa	-1.1489861
22	0xbf2df817	-0.6795668
23	0xbdbb03c3	-0.09131577
24	0xbf0ac424	-0.54205537
25	0xbf16e9b8	-0.58950377
26	0xbea5eb30	-0.32405996
27	0xbe9ce61a	-0.30644304
28	0xbf0c2261	-0.5473996
29	0xbeee7314	-0.46572173
30	0xbeb221ed	-0.34791508
31	0xbee56540	-0.4480381
32	0xbe1d7b29	-0.15379013
33	0xbf060a55	-0.52359515
34	0xbed1124e	-0.40834278
35	0xbf2743bd	-0.65337735
36	0xbe156b23	-0.1459165
37	0xbe8243a2	-0.25442225
38	0xbe96da34	-0.2946335
39	0xbec9808e	-0.39355892
40	0xbf09aea9	-0.53782135
41	0xbee2c62a	-0.44291812
42	0xbf552e82	-0.8327409
43	0xbe4d1fbc	-0.20031637
44	0xbee23ba6	-0.44186133
45	0xbed14592	-0.4087339
46	0x3e553ed6	0.20824751
47	0xbe98cc07	-0.2984316
48	0x3920f3da	0.00015349631
49	0xbe586ae8	-0.21134531
50	0xbef09c4d	-0.46994248
51	0xbf6281c4	-0.88479257
52	0xbe8adffd	-0.27124014
53	0xbf5151af	-0.81765264
54	0xbee18d10	-0.44052935
55	0xbe9b4098	-0.3032272
56	0xbe9da6ea	-0.30791408
57	0xbea14aed	-0.31502476
58	0xbf04061f	-0.5157184
59	0xbe657b7f	-0.22410391
60	0xbed32d13	-0.41245326
61	0xbf1e6e88	-0.6188741
62	0xbec9eae3	-0.39437017
63	0xbe58ad23	-0.21159796
64	0xbec0ae72	-0.3763309
65	0xbf19101e	-0.5979022
66	0xbe4f61e0	-0.2025218
67	0xbeb2cb94	-0.34920943
68	0xbf22a765	-0.63536674
69	0xbee5ece1	-0.44907287
70	0xbf0db7a6	-0.5535835
71	0xbec69ec5	-0.38793007
72	0xbe5d2318	-0.21595418
73	0xbe6565a4	-0.22402054
74	0xbde56738	-0.11201328
75	0xbecb4c65	-0.39706722
76	0xbed2db10	-0.41182756
77	0xbf3eaa27	-0.7447838
78	0xbeb464e0	-0.35233212
79	0xbedd58e9	-0.43231896
80	0xbf28f5c8	-0.6600003
81	0xbe8da2d6	-0.27663296
82	0xbef7911e	-0.48352903
83	0xbe81dd50	-0.2536416
84	0xbec23d56	-0.3793742
85	0xbd567b75	-0.05236383
86	0xbeb0f768	-0.34563756
87	0xbf0cb9ef	-0.5497121
88	0xbea2a178	-0.31763816
89	0xbf3987a0	-0.7247257
90	0xbf2b4fec	-0.66918826
91	0xbf411cc1	-0.754345
92	0xbf4b2a1a	-0.79361117
93	0xbf1e6374	-0.61870503
94	0xbeb5e662	-0.3552733
95	0xbee5da95	-0.44893327
96	0xbf084901	-0.53236395
97	0xbf0488fa	-0.5177151
98	0xbf253c5b	-0.6454522
99	0xbe862165	-0.26197353
100	0xbf06c94a	-0.5265089
101	0xbecdcf4e	-0.40197223
102	0xbe5ee983	-0.21768765
103	0xbeaac252	-0.3335138
104	0xbec2dbb1	-0.38058236
105	0xbf327fae	-0.69726074
106	0xbf425281	-0.7590714
107	0xbefbe302	-0.4919663
108	0xbead8d9f	-0.3389711
109	0xbf06919e	-0.52565944
110	0xbeb7680c	-0.3582157
111	0xbe9f835e	-0.31154913
112	0xbe2312ed	-0.15925188
113	0x3c84cb41	0.0162102
114	0xbf1ac315	-0.6045392
115	0xbf3b5b61	-0.7318631
116	0xbe869487	-0.26285192
117	0xbee5b8e0	-0.4486761
118	0xbf26ddab	-0.6518199
119	0xbedbda69	-0.4294007
120	0xbf16b3a9	-0.5886789
121	0xbe84c246	-0.2592947
122	0xbe971fbc	-0.295164
123	0xbe4f064d	-0.20217247
124	0xbf6298f2	-0.88514626
125	0xbe8b6881	-0.27228168
126	0xbecf0499	-0.40433195
127	0xbe382d1a	-0.17985955

fc2.weight f4 [64, 128]
0	0xbe7c6a10	-0.24649835
1	0x3e94a737	0.29033825
2	0x3e7d32b1	0.24726368
3	0xbef526f3	-0.47881278
4	0xbe7a0d20	-0.2441907
5	0x3c88e3a0	0.016710103
6	0xbdaba63a	-0.083813146
7	0x3e87d27d	0.26527777
8	0x3e8fcb4f	0.280848
9	0xbe99f5fe	-0.3007049
10	0xbdd983a9	-0.10620815
11	0xbd000725	-0.031256814
12	0xbeac26fb	-0.3362349
13	0xbe5e85ed	-0.21730776
14	0x3dfe6dac	0.12423262
15	0x3cb4123e	0.021981355
16	0x3df6de8e	0.12054168
17	0xbeacf86a	-0.33783275
18	0xbedac976	-0.42731827
19	0xbe8a786d	-0.27045003
20	0xbeeec278	-0.46632743
21	0xbed51422	-0.41616923
22	0xbeb07f83	-0.34472284
23	0xbf187504	-0.5955355
24	0xbe07283e	-0.13198945
25	0x3e5253b6	0.20539746
26	0x3ed0a64e	0.4075188
27	0xbd245831	-0.04012317
28	0xbea03b83	-0.31295404
29	0x3e7cf0ec	0.2470128
30	0xbe30c57b	-0.17262833
31	0xbe76ed84	-0.24114043
32	0xbd269c8d	-0.040676642
33	0xbe1c254d	-0.15248604
34	0xbdcd5f21	-0.1002791
35	0x3dd22bc5	0.102622546
36	0xbd72c2d0	-0.05926782
37	0x3d35b661	0.044363383
38	0x3da42191	0.08014215
39	0xbc177154	-0.009243328
40	0xbe56a4e6	-0.20961341
41	0x3e5685f4	0.20949537
42	0xbeee5a24	-0.46553147
43	0xbe9cdafa	-0.30635816
44	0x3e00f930	0.12595057
45	0x3ce8c225	0.028412888
46	0x3c2b8257	0.010468087
47	0xbe6e368b	-0.23262994
48	0xbde155f3	-0.11002722
49	0xbc2757c3	-0.010213795
50	0xbf3757b1	-0.7161818
51	0xbeb72649	-0.35771397
52	0xbe8d52f9	-0.27602366
53	0xbe287f75	-0.16454871
54	0x3e36e931	0.17862393
55	0xbd9eea62	-0.07759549
56	0x3dfb1f39	0.122618146
57	0x3e1731d9	0.14765109
58	0xbe118f4c	-0.1421482
59	0xbb99b476	-0.004690702
60	0xbe51f31c	-0.20502895
61	0xbe863495	-0.26211992
62	0x3e7c9873	0.2466753
63	0x3daa13d5	0.08304564
64	0xbedaa1ce	-0.42701572
65	0xbe52c39f	-0.20582436
66	0x3ca15847	0.019695414
67	0xbe199539	-0.1499833
68	0xbdddfc30	-0.108391166
69	0xbea2b06f	-0.31775233
70	0xbe441c27	-0.19151364
71	0xbe9c39b4	-0.30512774
72	0xbea3abb5	-0.3196694
73	0xbe437015	-0.19085725
74	0xbef659d7	-0.48115417
75	0xbe148b3f	-0.14506243
76	0xbf2e610b	-0.68116826
77	0xbe95b0c4	-0.29236424
78	0xbe169cf2	-0.14708307
79	0xbe847dfc	-0.25877368
80	0xbf031cab	-0.5121562
81	0x3da075ec	0.07834992
82	0xbe9a8bd6	-0.3018481
83	0xbe2b9a98	-0.16758192
84	0x3d960fdf	0.07327246
85	0xbdd1e09b	-0.10247918
86	0xbc9fdcc0	-0.019514441
87	0xbe5d5417	-0.21614109
88	0x3db742d3	0.089482926
89	0xbe9bb099	-0.3040817
90	0x3bc5d468	0.0060372837
91	0x3b62bd81	0.0034597816
92	0xbe0fd643	-0.14046578
93	0xbe1e8632	-0.15480879
94	0x3e9a8d11	0.3018575
95	0xbec10e90	-0.37706423
96	0xbf130edd	-0.57444555
97	0xbe9f7ed9	-0.31151465
98	0xbe28900b	-0.16461198
99	0xbd1e1370	-0.038592756
100	0xbe264233	-0.1623619
101	0x3e4f9ea7	0.20275365
102	0x3e158d59	0.14604701
103	0xbe1a0197	-0.15039669
104	0x3d941850	0.072312
105	0xbd47cfbb	-0.04878209
106	0xbb65ee00	-0.0035084486
107	0xbebfb7ae	-0.37444824
108	0xbe93e98c	-0.2888912
109	0x3db60be0	0.08888984
110	0xbe843204	-0.2581941
111	0x3e249405	0.1607209
112	0x3eb75160	0.35804272
113	0x3d08aba1	0.033366803
114	0x3e4158cf	0.18881534
115	0xbe518694	-0.20461494
116	0xbdfca7ab	-0.123366676
117	0xbe67caac	-0.22635907
118	0x3c17effc	0.009273525
119	0x3e9d68fb	0.30744156
120	0xbea782b9	-0.3271692
121	0xbd2f3ab0	-0.042780578
122	0xbe745648	-0.23861039
123	0xbe80a6fa	-0.25127393
124	0xbe097c15	-0.1342624
125	0xbeff9181	-0.49915698
126	0xbcf3d5b4	-0.029764988
127	0xbf045c42	-0.51703274
128	0x3e78d8bf	0.24301432
129	0x3ca46d4f	0.020071654
130	0x3dbedfc1	0.093200214
131	0xbdc88ed2	-0.09792866
132	0xbf265a06	-0.64981115
133	0xbe023468	-0.12715304
134	0xbca2a09c	-0.019851975
135	0x3d818bb0	0.063254714
136	0x3e2f1b35	0.17100222
137	0xbd9e62d5	-0.077336945
138	0x3e65ee20	0.22454119
139	0xbd8d1eed	-0.06890664
140	0xbead57cd	-0.3385605
141	0x3df83ab7	0.12120574
142	0xbcb2e538	-0.021837816
143	0x3e7877ab	0.242644
144	0x3df3c92d	0.119036056
145	0x3e8441ef	0.25831553
146	0x3b69aa18	0.0035654362
147	0xbe6914ba	-0.22761813
148	0x3df2ad1a	0.11849423
149	0xbe90313b	-0.2816256
150	0xbf2fbeb5	-0.6865037
151	0xbe180d17	-0.14848743
152	0xbf1e09de	-0.61733806
153	0x3e134ede	0.14385554
154	0x3df8b453	0.12143769
155	0x3e630197	0.22168575
156	0x3de0ae5f	0.10970759
157	0xbcc57a50	-0.024106175
158	0x3ebf429f	0.37355515
159	0xbd909be7	-0.07060986
160	0xbe5e2b84	-0.21696287
161	0xbf068446	-0.52545583
162	0x3d26bf95	0.04071005
163	0xbdf7d095	-0.12100331
164	0xbeb90bb6	-0.36141747
165	0xba6dbd17	-0.0009069009
166	0x3e2ba042	0.16760352
167	0xbe1538ac	-0.145724
168	0x3da5c9d9	0.0809514
169	0xbe3eff6c	-0.18652123
170	0xbdf7f77e	-0.12107752
171	0x3de338af	0.11094796
172	0x3e2eccea	0.17070356
173	0xbe61144e	-0.21980402
174	0xbea0ba64	-0.31392205
175	0x3e8a9822	0.27069193
176	0xbe5aa8af	-0.2135341
177	0x3e2c208c	0.1680929
178	0xbecead12	-0.40366417
179	0xbe52fc65	-0.20604093
180	0xbe3a23a8	-0.18177664
181	0x3e0a87a8	0.13528311
182	0x3cb554a8	0.022135094
183	0x3dd7846c	0.10523304
184	0x3cfe3765	0.031032274
185	0x3d886ea1	0.06661726
186	0xbd62292a	-0.05521504
187	0xbe5ab3dc	-0.21357673
188	0x3e96a424	0.29422104
189	0xbc8a32e3	-0.016869968
190	0x3ec2e7a0	0.3806734
191	0x3df31623	0.118694566
192	0xbdbe1391	-0.09281076
193	0xbebde3c6	-0.3708784
194	0x3c4e0a4e	0.012575699
195	0xbee8c897	-0.45465538
196	0x3e0b9861	0.13632347
197	0x3d30d484	0.04317142
198	0x3ee31b0e	0.4435658
199	0x3e4f8175	0.20264228
200	0x3e7c9aa6	0.24668369
201	0xbf5ccf3b	-0.8625371
202	0x3d870399	0.06592483
203	0x3bfe330c	0.00775755
204	0xbea04dfd	-0.313095
205	0x3ee5052b	0.44730505
206	0xbe1e5985	-0.15463836
207	0xbdf3b28b	-0.11899289
208	0x3e41ac73	0.1891344
209	0xbea727eb	-0.32647642
210	0x3e327f27	0.17431317
211	0xbe299324	-0.16560036
212	0x3e66456d	0.22487421
213	0xbe45d858	-0.1932081
214	0x3ddb10a9	0.10696537
215	0xbe993642	-0.29924208
216	0xbee733c3	-0.4515668
217	0xbb6fbc47	-0.0036580728
218	0xbe23f701	-0.16012193
219	0x3dc2877e	0.09498499
220	0xbd408fa6	-0.047011994
221	0xbe988dde	-0.29795736
222	0x3ee65fa5	0.44994846
223	0xbeafdfa3	-0.3435031
224	0xbe2d0190	-0.16895127
225	0x39ea1ff0	0.00044655753
226	0x3e1f14e9	0.1553532
227	0xbdc4ba4d	-0.096058466
228	0x3e06480c	0.13113421
229	0xbe858173	-0.26075324
230	0x3e2a60a2	0.16638425
231	0x3d27ba92	0.04094941
232	0x3d9303ff	0.071784966
233	0xbe089037	-0.13336264
234	0x3eb058cd	0.3444275
235	0x3dfc4566	0.12317924
236	0xbf3f983e	-0.7484168
237	0xbf504c8b	-0.81366795
238	0xbf4000ea	-0.75001395
239	0x3dd5401e	0.1041262
240	0xbdfeeba5	-0.124472894
241	0xbedb48ff	-0.4282913
242	0x3ddb6dd3	0.10714307
243	0x3e305bff	0.17222594
244	0xbecc2761	-0.39873794
245	0xbdf5c73f	-0.12000894
246	0xbdf1fd43	-0.11815884
247	0x3ddf3785	0.108992614
248	0x3dafe312	0.08588232
249	0xbda9ae05	-0.08285145
250	0x3ddb2417	0.10700243
251	0xbeed6963	-0.46369466
252	0xbe87bcda	-0.2651127
253	0x3e9ed1c3	0.3101941
254	0xbe4dd8f7	-0.20102297
255	0xbe9be43f	-0.30447575

fc2.bias f4 [64]
0	0x3c0fac0e	0.008769048
1	0xbda17840	-0.07884264
2	0x3ed4093e	0.414133
3	0xbe06f398	-0.13178861
4	0x3ede92a1	0.43471244
5	0xbe4ee512	-0.20204571
6	0x3e940d36	0.2891633
7	0x3ed210b6	0.41028374
8	0x3f1f92da	0.6233345
9	0x3f14302c	0.57886004
10	0x3e4cab51	0.19987227
11	0x3e9f429e	0.31105512
12	0x3f2fae67	0.6862549
13	0x3e406d94	0.187918
14	0x3e19d8ae	0.15024063
15	0x3ead19e3	0.33808812
16	0xbe05f961	-0.13083412
17	0x3ecfe11b	0.4060143
18	0x3ea6b255	0.32557932
19	0xbea99af4	-0.33126032
20	0xbe0b95aa	-0.13631311
21	0x3e943e21	0.2895365
22	0x3e074860	0.13211203
23	0x3f033e35	0.51266795
24	0x3f2dd328	0.67900324
25	0x3f0cc1db	0.549833
26	0x3f057c3b	0.52142686
27	0xbe490443	-0.19630532
28	0x3e7911c1	0.24323179
29	0x3f23135d	0.6370142
30	0x3f4aabf8	0.79168653
31	0xbe226884	-0.15860182
32	0x3ebff1cb	0.3748916
33	0x3e4e922e	0.2017295
34	0x3e8196e8	0.25310445
35	0x3e186730	0.14883113
36	0xbc32805a	-0.010894859
37	0xbe1b78f8	-0.15182865
38	0x3ec7c5cd	0.39018098
39	0x3e6f89d2	0.23392418
40	0x3e54e7a9	0.20791496
41	0x3f0fa9c6	0.5611843
42	0x3c837edd	0.016051704
43	0x3ea41747	0.3204901
44	0xbe01d3d3	-0.12678461
45	0xbe2bf01b	-0.16790812
46	0x3e81c219	0.25343397
47	0x3e8511f6	0.25990266
48	0x3eeb7b64	0.45992577
49	0x3ea76046	0.32690638
50	0x3e61576e	0.22006008
51	0x3e78799c	0.2426514
52	0x3efe4f95	0.4967009
53	0x3ee453ac	0.44595087
54	0x3efd5c27	0.4948437
55	0x3f3bbb15	0.7333234
56	0x3f39d441	0.725895
57	0xbed5238b	-0.4162868
58	0x3e8864d3	0.26639423
59	0x3ede6fcc	0.4344467
60	0xbe9a1a71	-0.30098298
61	0x3f05b4e7	0.5222916
62	0xba5af857	-0.00083530456
63	0x3f2f6a02	0.6852113

fc3.weight f4 [3, 64]
0	0xbeaa6c76	-0.33285874
1	0xbca78d1c	-0.020453028
2	0x3aa84c91	0.0012840201
3	0x3eaf0b09	0.34188107
4	0x3dc84c11	0.097801335
5	0xbe584de6	-0.21123466
6	0xbd83d086	-0.06436257
7	0xbe0eaf21	-0.13933994
8	0x3d9b41a9	0.07580883
9	0x3d9ed571	0.077555545
10	0xbde4da04	-0.11174396
11	0x3c88cf27	0.01670034
12	0x3e1ea918	0.15494192
13	0xbdb308f2	-0.087419406
14	0xbd963fac	-0.07336363
15	0xbe24e9f0	-0.16104865
16	0x3cb4e27a	0.022080649
17	0x3db6b033	0.08920326
18	0xbddabac1	-0.10680152
19	0xbd930e55	-0.07180468
20	0xbd028218	-0.03186235
21	0xbcae1487	-0.021250023
22	0xbde654e8	-0.11246663
23	0x3e104a96	0.14090952
24	0x3e4a5a0f	0.19760917
25	0x3e1af0a4	0.1513086
26	0x3d84f352	0.06491722
27	0x3eac3f93	0.33642253
28	0xbd37617b	-0.0447707
29	0x3db7f1a1	0.08981634
30	0x3e4ba5eb	0.19887511
31	0x3cfe1b21	0.031018795
32	0x3dc7efa7	0.09762507
33	0xbe363857	-0.1779493
34	0xbdbd5b95	-0.092459835
35	0xbe1dabc7	-0.15397559
36	0x3ecec2de	0.40383047
37	0xbdaff560	-0.085917234
38	0xbdc0c175	-0.09411899
39	0xbe141a77	-0.1446322
40	0xbd9c4917	-0.07631128
41	0x3e250b25	0.16117533
42	0xbe40a2b1	-0.18812062
43	0xbd252149	-0.040314946
44	0xbe231018	-0.15924108
45	0xbdf9ace9	-0.12191183
46	0xbdd67484	-0.10471442
47	0x3d1a6863	0.037697207
48	0x39fe3507	0.00048486164
49	0x3d920f86	0.07131867
50	0xbe4faae3	-0.20280032
51	0xbd871701	-0.065961845
52	0x3e1f5642	0.15560248
53	0xbc00642f	-0.007836386
54	0x3dee5a84	0.11638358
55	0x3e4c87c8	0.19973671
56	0x3e59d70e	0.21273443
57	0xbd99a154	-0.07501474
58	0xbd23686b	-0.039894503
59	0x3d75b84b	0.05999021
60	0xbdfbf80f	-0.12303173
61	0x3e19720a	0.14984909
62	0xbdf8bce5	-0.12145404
63	0x3e18deed	0.1492879
64	0xbd99eb72	-0.07515611
65	0x3d603d70	0.05474609
66	0xbe3d6235	-0.18494494
67	0xbedf399f	-0.4359865
68	0x3dbad435	0.091225065
69	0xbe571a7a	-0.21006194
70	0x3cb31b09	0.021863477
71	0x3cac3113	0.021019494
72	0xbd76f401	-0.060291294
73	0xbd9b348d	-0.07578383
74	0xbe06089e	-0.13089225
75	0x3d2e71a1	0.042588834
76	0xbe5721d1	-0.21008994
77	0xbd8da8f5	-0.069169916
78	0x3d80bb92	0.06285776
79	0x3d07203e	0.032989733
80	0xbcac7b0e	-0.02105477
81	0xbe5112ae	-0.20417282
82	0x3e0f4dfa	0.1399459
83	0xbda8f4b6	-0.082498
84	0xba5162f8	-0.0007987465
85	0xbe397b09	-0.1811334
86	0x3cc42e07	0.023947729
87	0xbe259265	-0.16169126
88	0x3d8c5093	0.06851306
89	0x3cdb74a9	0.026789026
90	0x3cc016e0	0.023448408
91	0xbe6a0501	-0.22853471
92	0x3d308afc	0.043101296
93	0xbdb8cfc6	-0.09024005
94	0xbdcbea93	-0.09956851
95	0x3d0fa9ee	0.035074167
96	0xbe9f25a3	-0.31083402
97	0xbeab0735	-0.33403936
98	0xbf032dc1	-0.5124169
99	0x3bbc7b5e	0.005752011
100	0xbee21584	-0.4415704
101	0xbd926f3c	-0.071501225
102	0x3d19018b	0.037354987
103	0xbdabf6db	-0.08396693
104	0x3d1084c6	0.035282873
105	0xbe968e2c	-0.29405344
106	0x3d235341	0.03987432
107	0xbe5cf8f0	-0.21579337
108	0xbdc3bd6e	-0.09557615
109	0xbd0995b8	-0.03359005
110	0xbc268fea	-0.010166148
111	0x3cf759d5	0.030194202
112	0x3e0fe49c	0.14052051
113	0x3d2b60cd	0.041840363
114	0x3ddb7e92	0.10717501
115	0xbc0910d9	-0.008365833
116	0xbea321ab	-0.31861624
117	0x3d5a03f8	0.05322644
118	0xbec92614	-0.39286864
119	0xbe48042b	-0.1953284
120	0xbd1d06ab	-0.038336437
121	0x3d0884ff	0.03332996
122	0x3d542c08	0.051799804
123	0x3caf9d95	0.021437446
124	0xbe2feb3f	-0.17179583
125	0x3d18d5d6	0.037313305
126	0xbea106ec	-0.31450593
127	0xbde66aba	-0.11250825
128	0x3d1ed37b	0.038775902
129	0x3e1523a3	0.14564376
130	0x3c4590ae	0.01205842
131	0xbf397dca	-0.72457564
132	0xbe817a7b	-0.25288758
133	0x3c1c299d	0.009531406
134	0x3d3ee9ce	0.046609692
135	0xbde024c2	-0.10944511
136	0xbe6f4b61	-0.23368599
137	0xbdfc6228	-0.12323409
138	0x3e150949	0.14554323
139	0x3e13a715	0.14419205
140	0x3d7bf28f	0.06151062
141	0x3ddc2b83	0.10750487
142	0x3d0d7590	0.034535944
143	0xbd6c2e4d	-0.057661343
144	0xbd4e19ce	-0.050317578
145	0x3d4e2612	0.050329275
146	0xbc8f7662	-0.017512504
147	0xbd3aec5f	-0.045635577
148	0xbc88693a	-0.016651738
149	0x3e38cb47	0.18046294
150	0x3d73c133	0.05951042
151	0x3d8d7b4f	0.06908285
152	0xbdcb84b9	-0.09937424
153	0x3bb35cf5	0.005473728
154	0xbe228e05	-0.15874489
155	0xbef85fab	-0.4851049
156	0xbc7dbe28	-0.015487231
157	0xbe00f389	-0.12592901
158	0xbdb71085	-0.08938698
159	0x3c8019ff	0.015637396
160	0x3e188568	0.1489464
161	0x3e8e82bf	0.27834126
162	0x3e19f04b	0.1503307
163	0xbd14341a	-0.0361825
164	0xbea3eb76	-0.3201558
165	0xbda1544f	-0.07877409
166	0xbdc0d351	-0.094153054
167	0x3ce99612	0.028513942
168	0x3c2090d8	0.009800158
169	0x3e0747c1	0.13210966
170	0xbca3fedc	-0.020018987
171	0x3d9d2020	0.07672143
172	0xbda3375f	-0.079695456
173	0xbcaca4ee	-0.021074738
174	0x3bcc9b63	0.0062441095
175	0x3e2800d3	0.16406564
176	0xbd2db268	-0.04240647
177	0xbde68b7c	-0.11257073
178	0xbd508a92	-0.0509134
179	0x3d66360e	0.056203894
180	0x3da812f1	0.08206738
181	0xbdcf8182	-0.101321235
182	0xbc0f6f00	-0.008754492
183	0xbd8f7c09	-0.0700608
184	0xbd8c5e6b	-0.06853946
185	0xbe4da9d2	-0.20084313
186	0x3d66861f	0.05628025
187	0xbded57ab	-0.11588987
188	0xbd534d99	-0.051587675
189	0xbe9c92ad	-0.30580655
190	0x3e13452e	0.14381859
191	0xbe0cf7ba	-0.13766375

fc3.bias f4 [3]
0	0xbf106e31	-0.5641814
1	0x3e9f367d	0.3109626
2	0x3d0798b5	0.033104617
