blob-pets/blob_CE.pth (torch, 62033 bytes, 6 tensors)

fc1.weight f4 [128, 48]
-0.2887621 -0.61524945 -0.50691754 -0.20041753 -0.18202555 -0.45264894 -0.4039103 -0.2924097
0.44418934 -0.12657888 -0.6216418 -0.47200713 -0.29911965 -0.20407781 -0.33449677 0.00093807414
-0.12978391 0.008054409 0.17884828 0.259441 -0.0012914867 0.20701107 0.5056247 0.42839026
0.06745898 0.11093692 -0.09732273 -0.134936 -0.29567787 -0.01009301 -0.1576402 0.3669623
-0.23168766 -0.15000124 -0.17020822 -0.13928677 0.15091076 0.3882808 0.3583989 0.17189474
0.32317436 0.3603995 0.0034359542 -0.15643252 0.017163021 0.13216208 -0.30505285 -0.13166277
0.1486896 0.23623681 -0.046413794 0.011121699 0.08539099 -0.12755182 -0.17692338 0.3937094
0.16022472 -0.043368723 -0.28884867 0.45614374 -0.023135025 -0.40890637 -0.42873517 -0.12171908
-0.35316175 -0.26793146 -0.33784297 -0.54545283 -0.4216621 0.1798719 -0.2591127 -0.15199645
0.116613224 0.2605862 -0.012309415 -0.25773275 -0.047278855 -0.49436525 -0.3964708 -0.23394917
-0.21511719 0.19457941 -0.21485709 -0.10090417 -0.062490575 0.18576579 -0.275823 0.17173354
0.17887278 0.5098591 0.108635984 0.10921248 0.21114159 -0.16042373 -0.04464 0.3031585
-0.1562626 0.19930069 -0.08649615 0.035772104 -0.1510448 -0.20937008 -0.12029219 0.009672523
-0.061779544 -0.010299325 0.005808757 0.11008764 0.039238714 -0.13574207 -0.17054586 -0.2726988
-0.4667348 0.16014852 -0.18533297 -0.10243855 -0.16690414 0.04595239 -0.2736316 0.0013295559
0.25392675 0.5181745 0.44258824 0.27187565 0.046853717 -0.015765771 -0.17292723 -0.28751844
-0.01672307 0.30400807 0.14656666 0.24555093 0.23859923 -0.008737502 -0.22497775 0.44822928
0.4884287 -0.0028210543 0.16884793 0.61101294 0.007871139 -0.28046626 -0.19681457 -0.2651711
0.49802855 0.71216863 0.0073104026 0.1716395 0.13411893 -0.23949224 0.2838693 0.26583752
-0.32651436 0.3218768 0.06521562 0.56748885 -0.18655941 -0.06889513 -0.14297956 -0.4218309
-0.3081068 -0.4620944 -0.71414334 -0.5508921 -0.5085348 -0.38170797 -0.021807758 -0.03754422
-0.45695937 -0.021416984 -0.23819244 0.4897644 0.07696374 -0.05443679 0.038556945 -0.3134181
0.12967281 0.21770945 -0.2723759 -0.16677217 -0.12825432 -0.2122871 0.046151407 0.076682486
0.022183102 0.0109196585 0.06834394 0.7024562 0.37581477 0.052439403 -0.051290773 0.11048718
-0.032063574 0.5839424 0.2508823 -0.11510223 0.12578207 -0.055432953 -0.2882968 0.085647635
-0.086540125 -0.16510393 -0.3887935 0.11008342 -0.08205653 0.13449103 -0.37176254 0.23001973
-0.32028517 0.6144046 0.1891807 -0.35544607 0.09231906 0.12235906 -0.08318583 -0.010238539
-0.1320472 0.10907542 -0.020371562 0.0465216 -0.07446348 0.32797742 -0.3772646 -0.09283172
-0.1176628 0.7828121 0.14687817 -0.7155148 0.16476752 0.3216087 0.1197994 -0.1602799
-0.10247947 0.5433683 0.17139973 0.09821814 -0.035930924 0.55390745 -0.10913218 0.055223
-0.19392355 -0.257759 0.28722656 0.07362559 -0.13122293 -0.5612928 -0.22082081 -0.0401463
0.021572886 -0.15197979 0.058409397 -0.13847539 0.12453967 -0.7530895 0.46150288 0.21925917
00000000: a0d8 93be fd80 1dbf 59c5 01bf 413a 4dbe
00000010: e864 3abe 9ac1 e7be 55cd cebe b9b6 95be
00000020: c96c e33e e59d 01be eb23 1fbf ebaa f1be
00000030: 3626 99be c6f9 50be 2943 abbe 17e9 753a
00000040: 13e6 04be a4f6 033c 0124 373e 73d5 843e
00000050: 1a47 a9ba b6fa 533e 9f70 013f f855 db3e
00000060: ef27 8a3d e532 e33d 2451 c7bd aa2c 0abe
00000070: 1763 97be 275d 25bc 6f6c 21be 7ce2 bb3e
00000080: 883f 6dbe ed99 19be 104b 2ebe 31a1 0ebe
00000090: 5a88 1a3e becc c63e 1080 b73e 2d05 303e
000000a0: 1c77 a53e 4986 b83e bf2d 613b d92f 20be
000000b0: 7799 8c3c 7f55 073e e32f 9cbe 9bd2 06be
000000c0: 1642 183e 10e8 713e 641c 3ebd c937 363c
000000d0: 79e1 ae3d f29c 02be 672b 35be 4794 c93e
000000e0: f311 243e 67a3 31bd f9e3 93be ac8b e93e
000000f0: aa85 bdbc 2d5c d1be 2d83 dbbe da47 f9bd
00000100: 9ed1 b4be 502e 89be c1f9 acbe cca2 0bbf
00000110: 18e4 d7be 5730 383e 6baa 84be f5a4 1bbe
00000120: ead2 ee3d 8e6b 853e 6ead 49bc 8cf5 83be
00000130: 79a7 41bd 711d fdbe 38fe cabe 5f90 6fbe
00000140: ae47 5cbe d33f 473e 7f03 5cbe d8a6 cebd
00000150: 1ef6 7fbd 6339 3e3e ac38 8dbe ebda 2f3e
00000160: 6d2a 373e 2086 023f 8b7c de3d cbaa df3d
00000170: 8035 583e 1e46 24be 6fd8 36bd 9737 9b3e
00000180: 4e03 20be 7b15 4c3e e524 b1bd c585 123d
00000190: 7dab 1abe 1c65 56be c05b f6bd 8079 1e3c
000001a0: 8c0c 7dbd 80be 28bc 6357 be3b a175 e13d
000001b0: c6b8 203d f8ff 0abe 93a3 2ebe 2d9f 8bbe
000001c0: ddf7 eebe f9fd 233e edc7 3dbe 4dcb d1bd
000001d0: ebe8 2abe 9338 3c3d 7119 8cbe 7e44 ae3a
000001e0: b002 823e 16a7 043f ed9a e23e 4933 8b3e
000001f0: afe9 3f3d 3827 81bc d613 31be 9e35 93be
00000200: d2fe 88bc f2a6 9b3e 9215 163e b471 7b3e
00000210: 5b53 743e bd27 0fbc 9160 66be 4f7e e53e
00000220: 5413 fa3e 70e1 38bb 79e6 2c3e 586b 1c3f
00000230: f3f5 003c 4699 8fbe c289 49be 82c4 87be
00000240: 99fd fe3e af50 363f 1a8c ef3b 44c2 2f3e
00000250: 7956 093e 743d 75be 5157 913e db1b 883e
00000260: e42c a7be 09cd a43e c48f 853d f346 113f
00000270: 6e09 3fbe e418 8dbd 3c69 12be 38fa d7be
00000280: 2dc0 9dbe a397 ecbe 19d2 36bf 4407 0dbf
00000290: 562f 02bf 3a6f c3be 2fa6 b2bc f8c7 19bd
000002a0: 94f6 e9be ac72 afbc b8e8 73be 66c2 fa3e
000002b0: 2a9f 9d3d 1df9 5ebd e3ed 1d3d 5678 a0be
000002c0: f3c8 043e 3aef 5e3e db74 8bbe 53c6 2abe
000002d0: 1a55 03be ca61 59be 4209 3d3d b50b 9d3d
000002e0: 56b9 b53c 5ee8 323c e8f7 8b3d 2bd4 333f
000002f0: cb6a c03e b3ca 563d 4616 52bd 1a47 e23d
00000300: 1855 03bd 407d 153f a573 803e b8ba ebbd
00000310: 04cd 003e aa0d 63bd a39b 93be 0768 af3d
00000320: f33b b1bd 0111 29be f10f c7be 6b73 e13d
00000330: 410d a8bd 04b8 093e a957 bebe 4b8a 6b3e
00000340: 6bfc a3be 9f49 1d3f 96b8 413e 07fd b5be
00000350: c611 bd3d 6397 fa3d 555d aabd 8cbf 27bc
00000360: 6237 07be ef62 df3d 43e2 a6bc 6f8d 3e3d
00000370: 4f80 98bd a8ec a73e d328 c1be 8f1e bebd
00000380: 32f9 f0bd 6066 483f 3b67 163e fa2b 37bf
00000390: d1b8 283e e5a9 a43e 6359 f53d 6a20 24be
000003a0: c2e0 d1bd 2f1a 0b3f 6983 2f3e 9826 c93d
000003b0: 4e2c 13bd e1cc 0d3f b180 dfbd 8331 623d
000003c0: e593 46be fdf8 83be 5c0f 933e 03c9 963d
000003d0: 4e5f 06be e3b0 0fbf da1e 62be 7270 24bd
000003e0: 9fb9 b03c 97a0 1bbe b13e 6f3d 7ecc 0dbe
000003f0: a80e ff3d 79ca 40bf 1b4a ec3e 7a85 603e

fc1.bias f4 [128]
-0.53864133 -0.63352674 -0.7206694 -0.3619839 -0.34243187 -0.29979903 -0.35303804 -0.2134279
-0.0762978 -0.14774798 -0.10440307 -0.092635326 0.04589203 -0.69350815 -0.42038208 -0.15666209
-0.18914 -0.68075246 -0.6745272 -0.35209915 -0.31507805 -0.49718052 -0.16713418 -0.33313316
-0.08743018 -0.21990144 -0.1934127 -0.27996883 -0.5652186 -0.26959908 0.052099854 -0.8255114
-0.37002406 -0.90120345 -0.27811822 -0.6662031 -0.54826033 -0.11294236 -0.14092861 -0.38684613
0.0073151463 -0.5472596 -0.43504757 -0.17496741 -0.30008224 -0.28030273 -0.4914237 -0.20873126
-0.38480377 -0.3647771 -0.14611627 -0.3866844 -0.32125244 -0.3096245 -0.25879994 -0.5670901
-0.17933545 -0.43666187 -0.5600295 -0.5130911 -0.09490403 -0.17972417 -0.28726643 -0.60252374
0.0278546 -0.5061494 -0.4452937 -0.17729935 -0.241712 -0.53087676 -0.30408317 -0.6395166
-0.15690279 -0.35541084 -0.5890858 -0.2892371 -0.22422208 -0.4025558 -0.4623117 -0.5421282
-0.61394686 -0.10787647 -0.3001797 -0.3846798 -0.5298191 -0.6510921 -0.26350802 -0.53719395
-0.16648242 -0.40015596 -0.12245675 -0.5778396 -0.4811861 -0.28031254 -0.6784557 -0.7733971
-0.26792017 -0.39112467 -0.010532669 -0.5622328 -1.0176104 -0.21296453 -0.37342554 -0.24954045
-0.39180735 -0.6324693 -0.3348752 -0.51711833 -0.26575568 -0.5247804 -0.7208999 -0.38375625
-0.48633203 -0.07479481 -0.41245905 -0.5889004 -0.1325012 -0.01814298 -0.35608983 -0.44711554
-0.7128108 -0.32066083 -0.26864663 -0.26844054 -0.39947417 -0.5380944 -0.4466934 -0.41934076
00000000: 66e4 09bf cf2e 22bf ca7d 38bf f455 b9be
00000010: 3b53 afbe 427f 99be 67c1 b4be d88c 5abe
00000020: 0542 9cbd 3f4b 17be 47d1 d5bd 97b7 bdbd
00000030: 48f9 3b3d c089 31bf 523c d7be 076c 20be
00000040: ebad 41be cb45 2ebf d1ad 2cbf 5746 b4be
00000050: e951 a1be 728e febe 3925 2bbe 6e90 aabe
00000060: 980e b3bd d82d 61be fb0d 46be 1358 8fbe
00000070: 2bb2 10bf e408 8abe a866 553d b754 53bf
00000080: cb73 bdbe 45b5 66bf 8365 8ebe 498c 2abf
00000090: ca5a 0cbf 534e e7bd 974f 10be b210 c6be
000000a0: e5b3 ef3b 3519 0cbf 8ebe debe a82a 33be
000000b0: 61a4 99be d783 8fbe e39b fbbe a6bd 55be
000000c0: 0005 c5be 10c4 babe 819f 15be 7ffb c5be
000000d0: 337b a4be 1a87 9ebe 6d81 84be d12c 11bf
000000e0: b6a3 37be 2592 dfbe 185e 0fbf f059 03bf
000000f0: 0b5d c2bd 9d09 38be 9614 93be ff3e 1abf
00000100: 552f e43c 0293 01bf 89fd e3be f68d 35be
00000110: 5a83 77be 8ae7 07bf cab0 9bbe 5cb7 23bf
00000120: 20ab 20be 69f8 b5be 54ce 16bf e316 94be
00000130: 799a 65be cb1b cebe 1fb4 ecbe eac8 0abf
00000140: 9f2b 1dbf 57ee dcbd 27b1 99be c0f4 c4be
00000150: 39a2 07bf f9ad 26bf 86ea 86be 8b85 09bf
00000160: 5e7a 2abe 3ee1 ccbe 9bca fabd 4ced 13bf
00000170: 065e f6be 2085 8fbe 46af 2dbf 5afd 45bf
00000180: d52c 89be 7e41 c8be 3791 2cbc 7dee 0fbf
00000190: 0f41 82bf 6013 5abe a231 bfbe 8887 7fbe
000001a0: f99a c8be 82e9 21bf c374 abbe de61 04bf
000001b0: 2111 88be 0258 06bf e58c 38bf b37b c4be
000001c0: 8300 f9be 052e 99bd d52d d3be 2dc2 16bf
000001d0: 65ae 07be 96a0 94bc 6851 b6be 54ec e4be
000001e0: c57a 36bf a82d a4be 0d8c 89be 0a71 89be
000001f0: e187 ccbe 8ec0 09bf ffb4 e4be d5b3 d6be

fc2.weight f4 [64, 128]
0.1111981 -0.2981095 0.36356777 -0.040588636 0.22362767 0.23196472 -0.2974909 0.0936579
0.46800968 -0.016429568 -0.12240977 -0.053482953 -0.26231092 -0.27600145 0.20093846 0.23461615
0.046435744 0.07791412 -0.13295323 -0.20895629 -0.23517582 -0.49663347 -0.47816992 -0.23867255
-0.19231379 -0.4055761 -0.61362976 -0.44773325 -0.1419278 -0.031713247 0.20349988 -0.26447248
0.0684272 -0.08820278 0.37795985 -0.07296004 0.09728096 0.14479087 -0.7201955 -0.25310177
-0.5872127 -0.04402968 0.013758489 -0.539278 -0.5379871 -0.14339644 -0.28601572 -0.20134957
-0.15597568 -0.75605416 0.27191913 -0.042349294 -0.46100646 -0.08599805 -0.41262406 0.15415217
-0.35776836 -0.3824094 -0.0008633491 0.2753731 -0.08361687 -0.12175961 -0.249735 0.26737443
0.45974305 -0.5051873 -0.19385156 0.28892568 -0.018239072 0.028791003 0.14889164 -0.00014031395
0.001234729 0.24443558 0.1748827 -0.16947141 0.3577919 -0.37760338 0.15015066 0.34439468
-0.7420973 0.11843008 -0.44925907 -0.60690075 0.107086375 0.2526668 0.19770546 -0.0012492466
-0.15175052 0.4330665 0.47357085 -0.35349306 -0.119481705 0.003940693 -0.2748847 -0.24489224
-0.004646726 0.30077645 0.22433488 0.13190047 -0.1134819 0.034591034 -0.41810086 0.123781264
0.10213464 -0.017989967 0.120972 0.15790305 -0.019121975 -0.07435907 -0.047949668 -0.68679696
0.22764958 -0.054731794 0.37920356 0.050197497 -0.13877203 0.29287788 0.03684965 -0.059953023
0.13639925 0.66174376 0.41933694 -0.69639075 -0.3890857 -0.16803972 0.199575 0.055780347
-0.13517204 0.2857967 0.338596 0.05914277 0.09757307 -0.19718954 0.009872084 0.058606774
0.31823948 -0.0121262185 -1.333393 0.031685207 0.12274688 -0.043270662 -0.12837441 -0.04668415
0.11248125 -0.32262993 0.0040876325 -0.034373835 -0.68111086 0.044619795 0.14093667 0.09342138
0.15318878 -0.07601748 -0.322894 0.05922044 -0.7038308 0.14248465 0.15776709 -0.30402023
-0.1728287 0.083819926 0.061799034 0.24813466 -0.57007724 -0.06928046 0.25471544 -0.33249393
-0.31918952 0.06944798 0.23281646 -0.084263764 -0.18205473 0.13801134 0.2222476 -0.39257857
-0.32386592 0.14086758 0.054865424 0.08367533 0.15317541 0.043635875 -0.2711872 -0.23170674
-0.06657229 -0.2744495 -0.39348403 0.11331252 0.44400027 0.14343703 -0.12313017 0.07081665
-0.030642325 -0.025811689 -0.51827615 -0.2678311 0.065387614 0.01756216 -0.05352149 0.24503227
-0.46956488 -0.6307523 -0.03160167 -0.1960827 0.38931924 0.70952094 -0.47804645 0.32673523
-0.6480828 -0.031019902 -0.044752527 -0.33791026 -0.17267361 -0.0059134522 0.29368266 -0.56397253
-0.07543036 0.18977542 -0.1770884 0.26894084 -0.41412345 -0.12981458 0.26217976 -0.23973733
-0.9627688 0.28327382 0.14460273 -0.00026066002 -0.36946464 -0.20275715 0.0028477532 -0.52896565
0.11608606 0.117502294 0.28572255 -0.55217355 0.19913217 0.44131187 -0.045566656 -0.020091731
0.1387428 0.2443681 -0.14138882 0.10883041 0.22891688 0.23087603 -0.117358305 0.03712552
0.03462836 -0.75154483 -0.66791964 0.17098643 0.10243738 -0.10794876 0.2393853 0.1214708
00000000: d4bb e33d cfa1 98be 8e25 ba3e 4540 26bd
00000010: a7fe 643e 2988 6d3e ba50 98be b7cf bf3d
00000020: f79e ef3e 4d97 86bc f9b1 fabd f110 5bbd
00000030: 9e4d 86be 1050 8dbe d0c2 4d3e 373f 703e
00000040: 6833 3e3d 7091 9f3d e424 08be a3f8 55be
00000050: eed1 70be be46 febe b0d2 f4be 9466 74be
00000060: e8ed 44be aca7 cfbe d716 1dbf 4b3d e5be
00000070: 8555 11be c0e5 01bd 4662 503e f068 87be
00000080: 8f23 8c3d a9a3 b4bd f483 c13e 136c 95bd
00000090: 3d3b c73d 0f44 143e bb5e 38bf 8e96 81be
000000a0: 9253 16bf 7758 34bd 496b 613c 1f0e 0abf
000000b0: 86b9 09bf 84d6 12be a770 92be 952e 4ebe
000000c0: 17b8 1fbe c48c 41bf fc38 8b3e 7476 2dbd
000000d0: 0a09 ecbe bf1f b0bd 7643 d3be 11da 1d3e
000000e0: 6a2d b7be 2acb c3be 6152 62ba b4fd 8c3e
000000f0: 523f abbd 1a5d f9bd 88ba 7fbe 4de5 883e
00000100: 7163 eb3e f453 01bf 0681 46be 11ee 933e
00000110: 1b6a 95bc 1cdb eb3c 0d77 183e 3d21 13b9
00000120: a1d6 a13a 524d 7a3e 7314 333e ea89 2dbe
00000130: 8030 b73e 3b55 c1be 18c1 193e 8054 b03e
00000140: 17fa 3dbf 788b f23d 4905 e6be d95d 1bbf
00000150: 1a50 db3d 8b5d 813e 4d73 4a3e c3bd a3ba
00000160: 7d64 1bbe e4ba dd3e e177 f23e 0bfd b4be
00000170: d3b2 f4bd ee20 813b b0bd 8cbe 08c5 7abe
00000180: 9043 98bb 5fff 993e 0bb8 653e eb10 073e
00000190: 3369 e8bd 54af 0d3d 5111 d6be 0881 fd3d
000001a0: f72b d13d b25f 93bc 2bc0 f73d 56b1 213e
000001b0: b0a5 9cbc 9149 98bd df66 44bd edd1 2fbf
000001c0: f91c 693e 722e 60bd f826 c23e e49b 4d3d
000001d0: 411a 0ebe 17f4 953e a9ef 163d 4d91 75bd
000001e0: 3fac 0b3e 0a68 293f 55b3 d63e aa46 32bf
000001f0: 3e36 c7be 9b12 2cbe 645d 4c3e ef79 643d
00000200: 8a6a 0abe f253 923e 745c ad3e b03f 723d
00000210: 64d4 c73d 0eec 49be 85be 213c a80d 703d
00000220: 49f0 a23e 0cad 46bc 9fac aabf 59c8 013d
00000230: b762 fb3d 943c 31bd 9574 03be e137 3fbd
00000240: 925c e63d c02f a5be 8cf1 853b 94cb 0cbd
00000250: 485d 2ebf 3fc3 363d b451 103e b553 bf3d
00000260: 85dd 1c3e 0daf 9bbd 5d52 a5be 2291 723d
00000270: 412e 34bf 7fe7 113e b28d 213e 8aa8 9bbe
00000280: 02fa 30be c8a9 ab3d fc20 7d3d 0317 7e3e
00000290: 95f0 11bf eae2 8dbd 106a 823e a53c aabe
000002a0: cf6c a3be be3a 8e3d 7067 6e3e 7b92 acbd
000002b0: 8e6c 3abe d852 0d3e e094 633e 0f00 c9be
000002c0: c1d1 a5be 973f 103e 91ba 603d f95d ab3d
000002d0: 04da 1c3e 88bb 323d 0cd9 8abe 8844 6dbe
000002e0: 0e57 88bd a584 8cbe bd76 c9be 6510 e83d
000002f0: 0154 e33e 28e1 123e ac2b fcbd 5208 913d
00000300: 9d05 fbbc 0973 d3bc bfad 04bf 2821 89be
00000310: f1e9 853d 85de 8f3c 5a39 5bbd bde9 7a3e
00000320: cf6a f0be fc78 21bf c170 01bd e7c9 48be
00000330: da54 c73e 2aa3 353f 81c2 f4be d749 a73e
00000340: c1e8 25bf 731d febc 6d4e 37bd 9302 adbe
00000350: 5ad1 30be a2c5 c1bb 935d 963e 8160 10bf
00000360: 3c7b 9abd 7d54 423e a956 35be 9db2 893e
00000370: fd07 d4be 1dee 04be 6d3c 863e b47d 75be
00000380: 0478 76bf 4409 913e bd12 143e 32a9 88b9
00000390: 782a bdbe 929f 4fbe 5fa1 3a3b 4b6a 07bf
000003a0: 87be ed3d 0ba5 f03d 3a4a 923e 3f5b 0dbf
000003b0: 4ee9 4b3e a1f3 e13e 1aa4 3abd 6a97 a4bc
000003c0: 9812 0e3e a23b 7a3e 3bc8 10be 7ae2 de3d
000003d0: 3069 6a3e c46a 6c3e 8d59 f0bd ee10 183d
000003e0: 78d6 0d3d 3e65 40bf c8fc 2abf 1117 2f3e
000003f0: b0ca d13d 3d14 ddbd 6c21 753e afc5 f83d

fc2.bias f4 [64]
0.3216589 0.20118329 0.06872089 0.12291257 0.115535386 0.052341558 0.13460587 0.45502478
0.05844658 -0.021508532 0.37463784 0.47550622 0.49115553 0.11211795 -0.03617724 0.05257374
-0.33250463 0.3198943 0.17945617 -0.077433206 0.1359579 -0.15585661 0.20003492 -0.10479714
0.23730794 0.003583354 0.55584204 0.20695905 -0.18054385 0.095821284 0.41258523 0.080212325
0.19659069 -0.16579399 0.16201165 -0.18549146 0.4784851 0.14474978 0.6122818 0.49786633
0.59121263 0.40684643 -0.027442388 0.38356104 -0.24831668 0.5096082 -0.62091774 0.4702201
0.33677608 0.540097 -0.00042265662 -0.077383526 0.50930864 0.5294702 0.10661417 0.3909667
0.61312884 0.25286934 -0.08992505 0.2712007 0.2812191 -0.08677372 -0.30858696 0.37048578
00000000: 7ab0 a43e fe02 4e3e 8abd 8c3d 96b9 fb3d
00000010: d19d ec3d 1a64 563d 1fd6 093e 02f9 e83e
00000020: ae65 6f3d a932 b0bc 88d0 bf3e 8d75 f33e
00000030: bd78 fb3e 199e e53d 962e 14bd 9057 573d
00000040: 0c3e aabe 30c9 a33e 5cc3 373e 4d95 9ebd
00000050: 8c38 0b3e e098 1fbe f4d5 4c3e e29f d6bd
00000060: da00 733e b4d6 6a3b aa4b 0e3f 13ed 533e
00000070: 7de0 38be f33d c43d 5f3e d33e 5c46 a43d
00000080: 124f 493e e6c5 29be 62e6 253e 79f1 3dbe
00000090: 00fc f43e 4939 143e 80be 1c3f 56e8 fe3e
000000a0: b659 173f 2d4e d03e dcce e0bc 1d62 c43e
000000b0: ba46 7ebe af75 023f 77f4 1ebf b0c0 f03e
000000c0: ea6d ac3e cc43 0a3f 0398 ddb9 417b 9ebd
000000d0: 0d62 023f 5c8b 073f 8858 da3d ca2c c83e
000000e0: 03f6 1c3f 1778 813e a02a b8bd d1da 8a3e
000000f0: f3fb 8f3e 6cb6 b1bd 1cff 9dbe 50b0 bd3e

fc3.weight f4 [3, 64]
0.14873691 -0.36106655 0.07955648 -0.14734185 -0.22361594 -0.4586724 0.13628708 0.1870031
-0.060673576 -0.10497047 -0.049527545 0.16949041 0.24758086 -0.1306085 0.09642456 -0.16383618
-0.40385112 -0.3227437 -0.460827 -0.3702105 0.072264776 -0.19932616 0.17577404 -0.074964575
-0.10609695 0.11232168 0.22154158 0.03874409 -0.19198509 -0.2621061 0.15197194 -0.06958174
-0.24106802 -0.08652205 -0.016881272 -0.14027086 -0.00028451666 -0.08983706 0.031555895 0.12141385
0.22095 0.060921267 -0.16688296 -0.079471886 -0.11789073 0.16615987 -0.5022455 0.10462981
0.1524287 0.15356505 -0.088884644 -0.21607547 0.29707652 0.08804658 -0.1546479 0.06280656
0.17331798 -0.08949668 -0.22012325 0.0722728 -0.16657855 -0.195476 0.0007986905 0.1436004
0.27140766 0.09881398 0.15353821 0.04474843 -0.015301051 -0.045789953 0.057857223 -0.1518971
0.12268411 0.0080857985 0.08022852 -0.065754384 -0.36863026 0.004903184 0.024606043 0.062259868
-0.060784537 -0.4241798 -0.019539982 -0.084255576 -0.060438056 -0.021771533 -0.24223743 -0.061885383
0.12097632 0.05443086 0.110094994 -0.09634602 0.16868225 0.22787619 -0.28885394 0.17228337
-0.047967006 0.06129166 0.12524584 0.13158351 -0.025313267 0.066734545 -0.33216602 -0.21114543
-0.24750802 -0.17861606 0.053631555 -0.34024635 -0.010860809 -0.27144396 -0.27160355 -0.062087838
0.16063781 -0.11416604 -0.06521414 -0.005224468 -0.3093098 -0.12912746 -0.0007386367 -0.09917703
-0.3222476 0.09194195 -0.020773953 -0.21962465 -0.19626424 0.008598461 -0.15314597 -0.1666581
-0.2097507 -0.0024591712 -0.12668711 0.12034077 0.013398658 -0.110251196 -0.10980089 -0.19923605
0.10053887 -0.015386141 -0.030357055 -0.40002397 -0.33010763 -0.13287424 -0.16002929 0.08422294
0.07220282 0.43175548 0.047865573 0.14526515 -0.15961401 -0.0100963665 0.03093937 0.020505907
-0.09829483 -0.16984525 -0.43927673 -0.41710728 -0.13737579 -0.13931303 -0.25138843 -0.047340643
0.22086321 0.07103972 0.09238822 -0.11639406 -0.2196694 0.083359115 -0.06843998 0.036871236
-0.26997343 0.15756314 -0.014565482 0.13993421 -0.07397904 -0.033552475 0.17435691 -0.25227994
-0.1170309 -0.20779528 0.03365576 -0.004833091 0.032208484 -0.30686742 -0.016441075 -0.035692785
-0.1902675 0.05568396 0.04102681 0.13284887 0.14680137 -0.033971116 -0.30427516 0.032011617
00000000: 7d4e 183e b7dd b8be 82ee a23d c8e0 16be
00000010: 94fb 64be 1cd7 eabe d78e 0b3e be7d 3f3e
00000020: db84 78bd c2fa d6bd 65dd 4abd e58e 2d3e
00000030: d685 7d3e 3cbe 05be 3d7a c53d acc4 27be
00000040: 93c5 cebe aa3e a5be 84f1 ebbe 3b8c bdbe
00000050: 8eff 933d 281c 4cbe 1cfe 333e 0787 99bd
00000060: 5c49 d9bd e908 e63d ccdb 623e 1fb2 1e3d
00000070: bd97 44be c532 86be 889e 1b3e df80 8ebd
00000080: 89da 76be 7932 b1bd 984a 8abc 2aa3 0fbe
00000090: 2e2b 95b9 7efc b7bd c140 013d d3a7 f83d
000000a0: b840 623e 9488 793d 5ee3 2abe 28c2 a2bd
000000b0: b270 f1bd d025 2a3e 2993 00bf 2748 d63d
000000c0: 4516 1c3e 2840 1d3e 2709 b6bd e342 5dbe
000000d0: 6a1a 983e c451 b43d 055c 1ebe baa0 803d
000000e0: 457a 313e 094a b7bd fd67 61be c303 943d
000000f0: 9193 2abe dc2a 48be 365f 513a fc0b 133e
00000100: f2f5 8a3e fc5e ca3d 1f39 1d3e 214a 373d
00000110: 42b1 7abc 3f8e 3bbd b2fb 6c3d ea8a 1bbe
00000120: cf41 fb3d 4c7a 043c da4e a43d 3caa 86bd
00000130: 1bbd bcbe e3aa a03b 9d92 c93c 3404 7f3d
00000140: 35f9 78bd 182e d9be 5012 a0bc 308e acbd
00000150: e58d 77bd 375a b2bc 170d 78be 877b 7dbd
00000160: 6fc2 f73d e5f2 5e3d 7c79 e13d 1051 c5bd
00000170: 0abb 2c3e 6058 693e aae4 93be 0d6b 303e
00000180: 0d79 44bd f70c 7b3d 7240 003e d4bd 063e
00000190: c55d cfbc 1fac 883d aa11 aabe 8236 58be
000001a0: be72 7dbe 21e7 36be c3ac 5b3d c534 aebe
000001b0: 89f1 31bc b4fa 8abe 9f0f 8bbe d14f 7ebd
000001c0: 3d7e 243e e3cf e9bd fe8e 85bd 0432 abbb
000001d0: db5d 9ebe fd39 04be 12a1 41ba 541d cbbd
000001e0: a3fd a4be 104c bc3d 232e aabc 49e5 60be
000001f0: 7ef9 48be 8fe0 0c3c 4cd2 1cbe 6ca8 2abe
00000200: e3c8 56be 0c2a 21bb 44ba 01be 3975 f63d
00000210: 0b86 5b3c 61cb e1bd 4adf e0bd 8904 4cbe
00000220: 53e7 cd3d 2716 7cbc 5caf f8bc f1cf ccbe
00000230: de03 a9be 2f10 08be b8de 23be 147d ac3d
00000240: 12df 933d 0e0f dd3e b10e 443d 63c0 143e
00000250: db71 23be 3b6b 25bc 9074 fd3c 01fc a73c
00000260: cd4e c9bd eaeb 2dbe e1e8 e0be 168f d5be
00000270: 3dac 0cbe 13a8 0ebe fcb5 80be 43e8 41bd
00000280: f729 623e 467d 913d 0936 bd3d 0260 eebd
00000290: 04f1 60be 2fb8 aa3d 432a 8cbd 4b06 173d
000002a0: f539 8abe 3b58 213e 0fa4 6ebc ea4a 0f3e
000002b0: 5382 97bd 526e 09bd 9e8a 323e d62a 81be
000002c0: e6ad efbd 49c8 54be 9fda 093d e85e 9ebb
000002d0: 0bed 033d ba1d 9dbe 6faf 86bc 9932 12bd
000002e0: 7cd5 42be dd14 643d ba0b 283d 8909 083e
000002f0: 1953 163e 4c25 0bbd f4c9 9bbe 9d1e 033d

fc3.bias f4 [3]
-0.08935629 0.010384483 -0.022510385
00000000: 6e00 b7bd ae23 2a3c b367 b8bc
