blob-pets/blob_CE_fc1_frozen.pth (torch, 62105 bytes, 6 tensors)

fc1.weight f4 [128, 48]
0.04247488 -0.10905884 -0.042853482 -0.055717967 0.052686244 0.035376757 -0.07504652 0.0929316
-0.10486056 -0.058981955 0.08131181 0.09101272 0.03250371 -0.025576286 -0.1329701 -0.016652286
0.0115569085 0.11648521 0.088358 0.13841206 -0.024704918 -0.014756709 -0.10015012 0.072349265
0.009261847 -0.06570763 -0.07385857 0.088527724 -0.024425797 0.039163783 -0.014785543 -0.060765654
-0.13206364 0.11050576 -0.117442235 0.020939097 -0.112789854 0.087708265 -0.1414921 -0.069340415
-0.061861522 0.12967262 -0.019389644 0.10308668 -0.083079964 0.11505455 -0.071298 0.07439625
-0.044147268 0.023768604 0.09837514 -0.09190804 -0.13358007 -0.072187126 -0.11277971 0.011677787
-0.0019498616 -0.09418996 -0.06450325 -0.06997611 -0.045715332 0.12618601 -0.019562796 -0.021287195
-0.09394339 -0.12444758 -0.05900258 -0.013143092 0.021762714 -0.02735766 -0.08005065 0.12062785
-0.104358524 -0.006250441 0.1189419 0.13803196 0.024819776 -0.14412792 0.012468919 -0.02668608
0.0066865385 0.12458858 -0.026951142 0.016740292 0.1355297 0.07346268 0.0017159581 -0.007707715
0.13267165 -0.03026031 0.0570212 -0.014430016 0.021988839 -0.033810996 -0.012915552 -0.107564434
0.13525441 -0.061043277 -0.09286131 0.09567441 -0.14081308 -0.06788417 -0.116959445 -0.07194383
-0.083691925 -0.09418188 -0.075216204 0.016544253 0.039687917 0.11631107 -0.059911437 0.082228854
-0.00029695034 -0.024928398 0.082940474 -0.07134916 0.07004875 0.0808914 0.11307824 0.01461862
-0.014779329 -0.06328967 0.059377283 -0.09764914 0.019025296 0.09986383 0.05166401 -0.12154051
-0.1066059 0.09705062 -0.11817852 0.04676658 -0.029537521 -0.08110168 -0.08288693 -0.07165041
0.039562553 -0.08200632 -0.07010677 0.061194196 0.014722139 0.045294374 0.13156936 -0.014036953
0.07428217 0.040101692 0.06242317 -0.13928403 0.04311958 -0.053616002 -0.005214244 0.056324765
0.055190206 0.083803326 0.070215896 0.09457435 0.11593753 0.05807306 0.04918863 0.086593375
-0.051629633 0.039234906 -0.14119928 -0.026310153 0.10988784 0.036145493 -0.08169778 -0.03761927
0.0889094 -0.03593363 -0.13860373 0.11109674 0.098885655 0.033833012 -0.075900465 0.0566649
-0.058158524 -0.13545018 -0.080519676 -0.02219943 0.05289562 -0.093130544 -0.119176984 0.11539939
0.1217483 0.056513384 -0.022515163 0.025672898 -0.06657781 -0.10707999 -0.13445887 -0.059361063
-0.085679576 -0.052633867 0.034923404 -0.04498148 -0.0021841228 -0.06795021 0.098094046 0.1251249
-0.114312276 -0.048554868 -0.056712188 0.13047948 -0.061172046 0.054097563 -0.10428726 -0.122893944
0.0033973306 -0.13046017 -0.08893791 -0.084936775 0.01878345 0.101474345 0.13973528 0.072183326
-0.038596228 0.02024065 0.07466489 0.018189356 -0.1162742 0.083839804 0.018112168 -0.07952996
-0.09792966 -0.08677407 0.044046953 -0.041152224 -0.039304495 0.05878365 -0.096556455 -0.011455506
0.033112094 0.1369406 0.11041933 0.118554264 -0.13797441 -0.08100574 -0.087935284 -0.13976294
-0.041434012 -0.14328776 0.0643886 0.083805144 -0.09993057 0.11276662 0.06875615 -0.11448522
0.11395496 -0.09160061 0.09173131 -0.11167623 0.016040772 0.043058857 0.01145564 -0.01526989
00000000: 24fa 2d3d 3e5a dfbd 2287 2fbd 8638 64bd
00000010: 88cd 573d 38e7 103d fdb1 99bd ec52 be3d
00000020: 22c1 d6bd 1097 71bd ce86 a63d e064 ba3d
00000030: 9c22 053d 5c85 d1bc 5029 08be 606a 88bc
00000040: 3059 3d3c cc8f ee3d 0af5 b43d e4bb 0d3e
00000050: f861 cabc 20c6 71bc 821b cdbd da2b 943d
00000060: 00bf 173c b991 86bd 2943 97bd 064e b53d
00000070: 9c18 c8bc 346a 203d 103f 72bc 68e5 78bd
00000080: b13b 07be d850 e23d 8e85 f0bd 7888 ab3c
00000090: 5efe e6bd 64a0 b33d 4ee3 10be 5902 8ebd
000000a0: 8262 7dbd e6c8 043e 08d7 9ebc 1c1f d33d
000000b0: d425 aabd b8a1 eb3d b004 92bd 105d 983d
000000c0: c4d3 34bd 60b6 c23c e878 c93d 483a bcbd
000000d0: 37c9 08be d8d6 93bd 0cf9 e6bd 3054 3f3c
000000e0: 8092 ffba aae6 c0bd 481a 84bd a24f 8fbd
000000f0: 0040 3bbd e836 013e 2842 a0bc 7c62 aebc
00000100: 6465 c0bd 5fde febd b0ac 71bd 2056 57bc
00000110: b847 b23c 2c1d e0bc 98f1 a3bd bc0b f73d
00000120: ecb9 d5bd 80d0 ccbb d097 f33d 4058 0d3e
00000130: d852 cb3c 4596 13be 704a 4c3c c49c dabc
00000140: c01a db3b 4c28 ff3d a4c8 dcbc f022 893c
00000150: 4cc8 0a3e 9a73 963d 00ea e03a 0091 fcbb
00000160: 14db 073e 78e4 f7bc 108f 693d e06b 6cbc
00000170: f021 b43c 667d 0abd c09b 53bc be4a dcbd
00000180: 2280 0a3e 8408 7abd 122e bebd f2f0 c33d
00000190: 4e31 10be db06 8bbd 6f88 efbd 4957 93bd
000001a0: ac66 abbd 6ee2 c0bd f40a 9abd d087 873c
000001b0: cc8f 223d 8034 ee3d b265 75bd 9a67 a83d
000001c0: 00b0 9bb9 a436 ccbc b2dc a93d 821f 92bd
000001d0: b875 8f3d 64aa a53d 9095 e73d f082 6f3c
000001e0: 0025 72bc 049e 81bd 9835 733d 46fc c7bd
000001f0: f0da 9b3c 6885 cc3d a49d 533d 3bea f8bd
00000200: 3254 dabd 7ac2 c63d 9407 f2bd 508e 3f3d
00000210: acf8 f1bc a318 a6bd 9fc0 a9bd 73bd 92bd
00000220: 580c 223d eef2 a7bd 2394 8fbd c4a6 7a3d
00000230: 2035 713c 9886 393d 1eba 063e 40fb 65bc
00000240: 4021 983d ac41 243d 70af 7f3d 79a0 0ebe
00000250: 289e 303d 749c 5bbd 40dc aabb ccb4 663d
00000260: 200f 623d 14a1 ab3d 5acd 8f3d 32b0 c13d
00000270: a870 ed3d 04de 6d3d 047a 493d de57 b13d
00000280: 9879 53bd c8b4 203d 8b96 10be 6488 d7bc
00000290: e00c e13d 4c0d 143d 2a51 a7bd aa16 1abd
000002a0: 2216 b63d 242f 13bd 23ee 0dbe b086 e33d
000002b0: 9084 ca3d 7c94 0a3d b471 9bbd 7419 683d
000002c0: a237 6ebd 74b3 0abe 80e7 a4bd 94db b5bc
000002d0: 14a9 583d 3abb bebd 1013 f4bd 8456 ec3d
000002e0: 2c57 f93d 947a 673d b871 b8bc f84f d23c
000002f0: f259 88bd c14c dbbd 96af 09be 9624 73bd
00000300: c678 afbd 9c96 57bd d80b 0f3d 803e 38bd
00000310: 8023 0fbb 7b29 8bbd 88e5 c83d be20 003e
00000320: 8e1c eabd 78e1 46bd 0a4b 68bd 6a9c 053e
00000330: 8a8f 7abd 6895 5d3d 8f94 d5bd d2af fbbd
00000340: c0a5 5e3b 5a97 05be 1425 b6bd 55f3 adbd
00000350: c0df 993c c8d1 cf3d c416 0f3e dad4 933d
00000360: 1417 1ebd b8cf a53c e8e9 983d d801 953c
00000370: 2b21 eebd 34b4 ab3d f85f 943c 9be0 a2bd
00000380: 588f c8bd 9bb6 b1bd 946a 343d 3c8f 28bd
00000390: c0fd 20bd 20c7 703d 64bf c5bd e0af 3bbc
000003a0: 8ca0 073d 283a 0c3e 8823 e23d 94cc f23d
000003b0: 2a49 0dbe 56e6 a5bd 6a17 b4bd 041e 0fbe
000003c0: b6b6 29bd 07ba 12be 2cde 833d 08a2 ab3d
000003d0: 66a8 ccbd 30f2 e63d 06d0 8c3d 3a77 eabd
000003e0: 3861 e93d 1a99 bbbd a0dd bb3d 82b6 e4bd
000003f0: f067 833c 7c5e 303d 70b0 3b3c 902e 7abc

fc1.bias f4 [128]
0.02761443 0.12959191 -0.035588242 -0.0037968457 -0.1184825 -0.11159794 0.10970345 -0.05613836
-0.055182144 0.03257966 0.027206019 0.055647075 -0.03793131 0.036449596 0.1177659 -0.03347367
0.1304102 0.101174235 0.07646558 0.13855016 0.02446556 -0.12086772 -0.12154453 0.13893682
0.011163324 -0.049579114 0.046085253 -0.03137929 -0.019518435 0.13319618 0.08095609 0.071017906
0.10811058 0.069492176 0.06807774 0.028225109 -0.11428239 -0.017754123 -0.11022611 0.023020312
0.016153231 0.09165077 0.10053787 -0.1178703 0.004209444 0.0070944875 -0.05557949 0.08448435
-0.14161804 -0.09690927 -0.13033281 0.008297056 -0.049090244 0.014847472 -0.11516694 0.090967044
-0.119004495 -0.03700789 -0.009032056 0.0024408847 -0.12406367 0.049375117 -0.1258893 -0.12445834
-0.0011725128 -0.025271647 -0.07535484 0.12095314 0.14192194 0.09826201 -0.098067224 0.109336525
-0.0900625 0.033063844 -0.13471289 -0.02915337 0.072956115 0.13700753 -0.05147078 0.051488042
0.01312916 0.08091143 -0.13194133 -0.094006464 0.12618613 -0.08838913 -0.020334706 -0.0161933
0.07660963 -0.026042558 -0.06858341 0.060998768 0.0155992955 0.14001334 0.10535836 0.07570073
-0.049993113 0.020077467 -0.048342973 -0.0729519 0.035676464 0.119238615 0.123817354 0.035298795
0.0106443465 -0.116777316 -0.11102832 -0.123785526 -0.07935212 -0.06775519 -0.13528006 -0.006907776
-0.109843925 0.12094483 -0.05839005 -0.039105333 -0.08545636 0.10180348 -0.043228015 0.026640788
-0.02618818 -0.14069717 0.10760525 -0.0049260706 -0.057210125 -0.09733144 -0.050808884 -0.07233171
00000000: a837 e23c beb3 043e fac4 11bd 80d4 78bb
00000010: f4a6 f2bd 768d e4bd 34ac e03d 56f1 65bd
00000020: ac06 62bd 4072 053d 28df de3c 30ee 633d
00000030: dc5d 1bbd 2c4c 153d 402f f13d b01b 09bd
00000040: 408a 053e 7034 cf3d fc99 9c3d 18e0 0d3e
00000050: 006c c83c 7f89 f7bd 57ec f8bd 7445 0e3e
00000060: 60e6 363c 7813 4bbd e4c3 3c3d 9287 00bd
00000070: 20e5 9fbc 9464 083e 4ecc a53d d671 913d
00000080: 1469 dd3d ea51 8e3d 586c 8b3d 5838 e73c
00000090: e30c eabd 1871 91bc 3abe e1bd 1895 bc3c
000000a0: c853 843c 66b3 bb3d cce6 cd3d fc65 f1bd
000000b0: 60ef 893b e078 e83b 52a7 63bd 2206 ad3d
000000c0: 5204 11be 5e78 c6bd f775 05be 60f0 073c
000000d0: da12 49bd d042 733c a5dc ebbd ee4c ba3d
000000e0: a1b8 f3bd 9695 17bd 30fb 13bc 40f7 1f3b
000000f0: 1815 febd 903d 4a3d 20e9 00be 04e4 febd
00000100: 00af 99ba 7c06 cfbc a353 9abd 48b6 f73d
00000110: fc53 113e 983d c93d 78d7 c8bd d4eb df3d
00000120: b072 b8bd f46d 073d 2df2 09be 0cd3 eebc
00000130: 046a 953d b44b 0c3e 06d3 52bd 20e5 523d
00000140: b01b 573c e4b4 a53d a11b 07be 7686 c0bd
00000150: f036 013e 5c05 b5bd f894 a6bc d0a7 84bc
00000160: 82e5 9c3d 3457 d5bc 7575 8cbd d8d9 793d
00000170: 3094 7f3c a85f 0f3e 20c6 d73d fc08 9b3d
00000180: 94c5 4cbd 8079 a43c 4803 46bd ce67 95bd
00000190: 7c21 123d 6033 f43d f493 fd3d 7895 103d
000001a0: a065 2e3c f228 efbd d162 e3bd 4483 fdbd
000001b0: 5d83 a2bd 3cc3 8abd db86 0abe a05a e2bb
000001c0: daf5 e0bd ecb1 f73d 682a 6fbd ea2c 20bd
000001d0: be03 afbd 587e d03d dc0f 31bd c83d da3c
000001e0: 9888 d6bc eb12 10be 2460 dc3d e06a a1bb
000001f0: 2a55 6abd b555 c7bd fa1c 50bd a622 94bd

fc2.weight f4 [64, 128]
0.35190287 0.1951179 -0.55956596 0.05084132 -0.5447371 0.2650365 -0.22248602 -0.1563855
-0.36503026 -0.42983922 -0.7693454 0.076647 -0.24805306 -0.17300372 -0.21778373 -0.045161758
-0.37076786 -0.072418585 0.045268737 0.12295992 0.25260234 -0.06858669 0.12594745 0.1081383
0.14223184 -0.103218555 0.23121461 0.18971448 0.40510142 0.290191 0.061645035 0.0837814
-0.47330165 0.12307059 -0.41456306 0.27387583 -0.041917022 -0.6172592 -0.27212563 0.18945733
-0.390818 -0.4454387 -0.22088662 0.06146595 -1.2988356 0.49354163 0.27693465 0.030783655
-0.00070556725 -0.31813884 0.3665922 -0.19692518 -0.61581105 0.45667943 -0.5087932 -0.017779868
0.017523885 -0.17642027 -0.22398847 0.13207851 0.039975215 -0.6553034 -0.14031859 0.016297407
-0.0032627266 -0.4304152 0.04933814 -0.82937634 0.36636236 -0.0392496 -0.3776382 -0.03931803
-0.16120677 -0.17978427 -0.4138921 -0.004250929 0.0703587 -0.1404834 -0.025738211 -0.55879456
-0.2538942 0.04623028 0.273994 0.086924456 0.28384212 -1.2280988 0.18560806 -0.106990956
0.027789772 -0.24350213 -0.22621275 0.17216602 0.1222073 0.4748998 0.22540443 -0.07744221
-0.25654334 -0.07947725 -0.35413128 -0.39225563 0.37174502 -0.34047836 0.11033287 0.06027734
-0.51949763 -0.18085311 -0.02117832 0.5580689 -0.25821838 0.05840554 -0.10677874 0.103473976
-0.14504977 -0.03943469 0.17226198 -0.073070094 -0.7320005 -0.090023436 0.11489472 -0.1998807
-0.30096832 0.6178743 0.23831888 0.49877894 -0.1307725 0.21524282 -0.2956549 -0.044479582
0.48473904 -0.45391256 0.11973248 -0.41464594 0.20628569 0.061522257 0.063463606 -0.24721524
0.3232898 0.21361807 -0.6770914 0.3289118 -0.07943753 0.28022704 -0.20988373 0.23271485
0.23693588 0.17908597 -0.012427305 -0.3289126 -0.18732062 -0.41858435 -0.056730572 0.11158292
-1.2498195 0.113636166 -0.15698439 0.2602903 -0.48469803 0.25598693 -0.05482313 -0.6734398
0.31825632 -0.36569625 -0.15739009 -0.38991553 -0.31531447 0.33006644 0.34445715 -0.024762608
0.12775542 0.09628736 0.2610628 -0.064982176 0.51993924 -0.23407374 -0.15684527 -0.15926845
-0.20403534 0.06459061 0.05597171 -0.1549358 0.6793689 0.0047423085 -0.2318374 0.5581766
0.121383935 0.22004186 -0.13425678 -0.013344424 -0.16583909 0.1444766 -0.1517868 0.32455546
0.07181779 0.3091835 -0.35222074 0.0153672965 -0.2817045 -0.09999307 -0.57593876 -0.0076593687
-0.5067004 0.14256245 0.3416338 -0.18385696 0.04157845 0.012170952 0.023043633 -0.10141887
-0.1722757 -1.0787781 0.4110662 -0.057061203 -0.1774888 -0.7267357 0.31129733 -0.033887383
-0.56386447 -0.1368387 -0.043412603 0.06887081 -0.4647183 0.011677046 -0.48357302 0.20561148
-0.36922032 0.06257119 0.92577654 -0.26710144 0.23400088 -0.060593773 -0.5705757 0.21774322
-0.384302 -0.7069061 -0.81814766 -0.90302527 0.33700597 -0.34039196 0.86679643 -0.124564424
0.3310719 -0.047490943 -0.009631331 0.05071922 -1.2320684 -0.06820724 0.035545576 -0.5094993
-0.25765896 0.69119966 -0.28439045 0.10070921 0.09789008 -0.22948377 -0.23132458 0.1060977
00000000: 9d2c b43e fdcc 473e b73f 0fbf fd3e 503d
00000010: e473 0bbf ddb2 873e 60d3 63be 8523 20be
00000020: 3fe5 babe e313 dcbe d2f3 44bf 1af9 9c3d
00000030: 9f01 7ebe e327 31be b302 5fbe 89fb 38bd
00000040: 49d5 bdbe 3250 94bd b66b 393d 69d2 fb3d
00000050: 1855 813e 2e77 8cbd 5ef8 003e 9d77 dd3d
00000060: 39a5 113e 4064 d3bd 86c3 6c3e 8344 423e
00000070: 7469 cf3e ea93 943e 817f 7c3d 9595 ab3d
00000080: 9854 f2be 6f0c fc3d 9c41 d4be 7439 8c3e
00000090: 2fb1 2bbd b304 1ebf 0d54 8bbe 1a01 423e
000000a0: 4c19 c8be 8b10 e4be 1a30 62be b8c3 7b3d
000000b0: 3f40 a6bf 7db1 fc3e 61ca 8d3e 012e fc3c
000000c0: d1f5 38ba 18e3 a2be f9b1 bb3e c1a6 49be
000000d0: cba5 1dbf e3d1 e93e 4540 02bf 16a7 91bc
000000e0: 408e 8f3c 84a7 34be 3c5d 65be 973f 073e
000000f0: 0dbd 233d f7c1 27bf adaf 0fbe 2482 853c
00000100: 78d3 55bb 625f dcbe ca16 4a3d 0252 54bf
00000110: d993 bb3e 30c4 20bd cb59 c1be f10b 21bd
00000120: 6313 25be 5e19 38be aae9 d3be 614b 8bbb
00000130: 3918 903d e1da 0fbe f1d8 d2bc 290d 0fbf
00000140: 6cfe 81be f65b 3d3d f148 8c3e 7305 b23d
00000150: c153 913e 5732 9dbf 0a10 3e3e 131e dbbd
00000160: 60a7 e33c 9f58 79be 51a4 67be 4a4c 303e
00000170: d247 fa3d 1126 f33e 6bd0 663e 059a 9ebd
00000180: a659 83be f8c4 a2bd b250 b5be bbd5 c8be
00000190: 5d55 be3e 2e53 aebe 33f6 e13d 5fe5 763d
000001a0: ccfd 04bf 8f31 39be 287e adbc 9add 0e3f
000001b0: 3335 84be a63a 6f3d d0ae dabd 2aea d33d
000001c0: ed87 14be 4586 21bd 7265 303e c6a5 95bd
000001d0: 6364 3bbf 355e b8bd ec4d eb3d 87ad 4cbe
000001e0: 8518 9abe 032d 1e3f dd09 743e f45f ff3e
000001f0: 3ae9 05be 9d68 5c3e 1460 97be 3930 36bd
00000200: b72f f83e 3a67 e8be 4d36 f53d 794c d4be
00000210: 8e3c 533e c3fe 7b3d 35f9 813d fe25 7dbe
00000220: 3e86 a53e b2be 5a3e dd55 2dbf 2167 a83e
00000230: 25b0 a2bd eb79 8f3e c3eb 56be cd4c 6e3e
00000240: 529f 723e 5062 373e e59b 4bbc 3b67 a8be
00000250: fad0 3fbe b050 d6be 515e 68bd 9685 e43d
00000260: 16fa 9fbf 14ba e83d 84c0 20be c544 853e
00000270: 572a f8be b810 833e 388e 60bd 8d66 2cbf
00000280: 7ef2 a23e 8a3c bbbe de2a 21be 02a3 c7be
00000290: e670 a1be 78fe a83e b05c b03e f4da cabc
000002a0: 51d2 023e 4f32 c53d 06aa 853e 6015 85bd
000002b0: bd1a 053f 07b1 6fbe 0c9c 20be 4517 23be
000002c0: a4ee 50be 1548 843d 9742 653d 7ea7 1ebe
000002d0: 1feb 2d3f 5e65 9b3b c966 6dbe a9e4 0e3f
000002e0: 2498 f83d a752 613e 9c7a 09be 92a2 5abc
000002f0: b9d1 29be adf1 133e 006e 1bbe 222c a63e
00000300: 3515 933d 4d4d 9e3e 4756 b4be 1dc7 7b3c
00000310: 923b 90be 2bc9 ccbd b970 13bf 71fb fabb
00000320: 1eb7 01bf e4fb 113e a0ea ae3e 0045 3cbe
00000330: 2a4e 2a3d ac68 473c 00c6 bc3c b2b4 cfbd
00000340: 0b69 30be 6715 8abf 4577 d23e 02b9 69bd
00000350: a0bf 35be 5a0b 3abf 5d62 9f3e 7fcd 0abd
00000360: 6c59 10bf 721f 0cbe 6ad1 31bd 240c 8d3d
00000370: 8fef edbe 1551 3f3c e296 f7be d18b 523e
00000380: 720a bdbe 5325 803d b1ff 6c3f 85c1 88be
00000390: ed9d 6f3e 2d31 78bd 4011 12bf 14f8 5e3e
000003a0: 3bc3 c4be ccf7 34bf 2072 51bf aa2c 67bf
000003b0: 0c8c ac3e db47 aebe 5fe6 5d3f a21b ffbd
000003c0: 4282 a93e dd85 42bd bbcc 1dbc f5be 4f3d
000003d0: 6bb4 9dbf 3db0 8bbd 3d98 113d 8c6e 02bf
000003e0: e0eb 83be 76f2 303f a09b 91be a140 ce3d
000003f0: 987a c83d cbfd 6abe 5ae0 6cbe c049 d93d

fc2.bias f4 [64]
0.19621637 -0.29597688 0.12687653 0.22701082 -0.07962649 0.21511006 0.4771787 -0.088979036
0.04848854 -0.046273075 0.30574274 -0.10290081 -0.009543346 -0.117389694 0.47038478 0.08717875
-0.032516338 -0.050096795 -0.24619077 0.15577526 -0.08987144 0.17445451 0.02146538 0.11660449
0.09869 0.41741246 0.10700888 -0.047873303 0.4628887 0.24572243 0.10827181 0.3792801
-0.04136653 -0.10010831 0.07921603 0.1594004 0.13654348 0.14014317 0.1609485 -0.17534566
0.08293059 0.11679336 -0.02777823 0.3683065 -0.22011407 0.45000893 0.15579025 -0.20434953
0.103324674 0.12486998 0.30046192 0.11291684 -0.09994817 0.22292845 -0.1352877 -0.02497233
0.35662976 -0.09895056 -0.3082391 -0.14695238 -0.12473247 0.39877716 -0.11599214 0.12944941
00000000: f2ec 483e 488a 97be eceb 013e 8675 683e
00000010: 3713 a3bd d045 5c3e c450 f43e a43a b6bd
00000020: eb9b 463d d688 3dbd 508a 9c3e a9bd d2bd
00000030: b25b 1cbc 026a f0bd 46d6 f03e c68a b23d
00000040: da2f 05bd 4c32 4dbd 6f19 7cbe 8d83 1f3e
00000050: 840e b8bd 34a4 323e 2ad8 af3c 56ce ee3d
00000060: fc1d ca3d 16b7 d53e 7927 db3d cc16 44bd
00000070: bfff ec3e a99e 7b3e 9cbd dd3d 0031 c23e
00000080: f36f 29bd 9605 cdbd 043c a23d dc39 233e
00000090: 0ed2 0b3e b181 0f3e afcf 243e d08d 33be
000000a0: 83d7 a93d 5b31 ef3d 2c8f e3bc ab92 bc3e
000000b0: 9565 61be 9267 e63e 7b87 1f3e 0141 51be
000000c0: e39b d33d d5bb ff3d 25d6 993e f240 e73d
000000d0: a0b1 ccbd 5b47 643e dc88 0abe c692 ccbc
000000e0: 2d98 b63e 97a6 cabd 84d1 9dbe af7a 16be
000000f0: bd73 ffbd 852c cc3e 498d edbd 638e 043e

fc3.weight f4 [3, 64]
-0.12916353 0.34330449 0.16896036 0.4536157 0.06320058 0.29565468 0.21163234 0.23872522
-0.45364156 -0.29783818 0.24523294 -0.5001583 0.6328512 -0.46655187 0.40767244 -0.2553097
-0.3143811 -0.2371935 0.5225723 -0.5329636 -0.027873415 0.21894561 0.08214255 0.33603624
0.6325407 0.7108583 0.4595411 -0.09771553 0.39741275 0.40486452 0.081398115 0.61834294
-0.3760146 -0.03450765 0.31435758 0.3600484 -0.44682685 -0.3427025 -0.46443263 -0.076215506
-0.3754201 -0.31846994 -0.51268506 0.71742404 0.23000136 0.33589792 0.059509724 -0.5018011
-0.27630585 -0.27006525 0.8735517 0.03413229 -0.3737502 0.4039077 -0.07812836 -0.34251246
0.67762434 -0.023033787 0.27600676 -0.061446976 -0.56037503 0.5349589 -0.19819514 -0.51252836
-0.3946245 0.026960969 -0.28167567 -0.33151662 0.14624745 -0.036838043 -0.28649694 -0.5021759
0.050670836 0.14352505 -0.036454532 0.12090324 -0.32814094 0.26288158 -0.07528103 -0.35166925
-0.025589084 0.0989775 0.054299276 0.14366409 0.1930246 -0.37460905 0.07335166 -0.21595813
-0.7541195 -0.50542843 -0.35139653 -0.11151179 -0.39860898 -0.3484348 -0.37121028 -0.28728214
-0.32998145 0.03818263 0.050958205 -0.36368975 0.16089907 -0.025245987 0.10907451 0.17191443
-0.01704275 0.14157304 0.016940244 -0.55180776 -0.08099682 -0.2323394 -0.2640321 -0.006765206
-0.4016995 0.22730991 -0.035552327 0.11750594 0.0767008 0.11845172 -0.107023716 0.07424307
-0.25597754 0.1447363 -0.033973705 -0.015220817 0.1299917 -0.53763175 0.08001471 0.0069613126
0.1805293 -0.46619362 -0.26777807 -0.08814809 -0.18189016 -0.34848714 -0.02281078 0.20764802
0.07216409 0.09843523 -0.2840761 0.19350347 -0.35271117 0.16180186 -0.35488334 0.35165837
0.12565675 -0.028405705 -0.7123254 0.17855276 -0.35440588 0.23959862 0.020008966 -0.32811677
-0.3884247 -0.43346438 -0.09083853 -0.04859658 -0.23520857 -0.18088515 0.3554287 -0.5815271
0.39810354 0.032891914 -0.30910757 0.051710904 0.02682907 0.074361525 0.08904164 -0.0057366877
0.3168422 0.0725198 0.19572933 -0.6122053 -0.33988062 -0.08190694 0.10452439 0.17532624
0.49523988 0.034598205 -0.9564421 -0.33332157 0.15922359 -0.6788841 -0.09189229 -0.13722508
-0.52265596 -0.05132366 -0.61538893 -0.010243656 0.0643733 -0.38080016 -0.06686799 0.13734111
00000000: 7243 04be 9bc5 af3e f203 2d3e 5140 e83e
00000010: 4e6f 813d 0d60 973e 26b6 583e 6274 743e
00000020: b543 e8be 3f7e 98be 581e 7b3e 600a 00bf
00000030: 8902 223f e3df eebe 71ba d03e f4b7 82be
00000040: 8ff6 a0be dae2 72be 4cc7 053f 4d70 08bf
00000050: ca56 e4bc 4733 603e 5a3a a83d f10c ac3e
00000060: 30ee 213f cffa 353f f948 eb3e 141f c8bd
00000070: af79 cb3e 674a cf3e 0eb4 a63d b94b 1e3f
00000080: fc84 c0be e557 0dbd 7af3 a03e 4458 b83e
00000090: 7dc6 e4be b476 afbe 1dca edbe e016 9cbd
000000a0: 1037 c0be 7e0e a3be 543f 03bf 1aa9 373f
000000b0: 7a85 6b3e d0fa ab3e 78c0 733d 0976 00bf
000000c0: f677 8dbe fe45 8abe 16a1 5f3f 4dce 0b3d
000000d0: 305c bfbe fdcc ce3e c301 a0bd cb5d afbe
000000e0: ca78 2d3f 5ab1 bcbc c250 8d3e d3af 7bbd
000000f0: bd74 0fbf 11f3 083f abf3 4abe 0f35 03bf
00000100: 390c cabe 40dd dc3c cb37 90be 8cbc a9be
00000110: e4c1 153e 7de3 16bd baaf 92be 9a8e 00bf
00000120: 398c 4f3d 3bf8 123e 5951 15bd 1e9c f73d
00000130: 1702 a8be 6a98 863e f12c 9abd fe0d b4be
00000140: 33a0 d1bc b7b4 ca3d eb68 5e3d ae1c 133e
00000150: 3ea8 453e c2cc bfbe 6539 963d 2124 5dbe
00000160: fa0d 41bf c263 01bf 3fea b3be 4b60 e4bd
00000170: 7a16 ccbe 0c66 b2be 460f bebe a516 93be
00000180: 54f3 a8be 6465 1c3d 8db9 503d 8b35 babe
00000190: bac2 243e acd0 cebc 7562 df3d 560a 303e
000001a0: 3d9d 8bbc 86f8 103e 44c6 8a3c 4643 0dbf
000001b0: a9e1 a5bd 61ea 6dbe 372f 87be a9ae ddbb
000001c0: 8fab cdbe eec3 683e 519f 11bd f4a6 f03d
000001d0: 4f15 9d3d d196 f23d 402f dbbd c00c 983d
000001e0: 7d0f 83be c135 143e 0328 0bbd bc60 79bc
000001f0: 8b1c 053e 3ca2 09bf c1de a33d b91b e43b
00000200: acdc 383e eeb0 eebe 351a 89be fc86 b4bd
00000210: 6a41 3abe e86c b2be acdd babc afa1 543e
00000220: c4ca 933d 6998 c93d 6c72 91be c625 463e
00000230: 8f96 b4be 63af 253e 45b3 b5be 910c b43e
00000240: 2aac 003e 15b3 e8bc f55a 36bf 89d6 363e
00000250: b074 b5be 5759 753e d8e9 a33c ecfe a7be
00000260: 9adf c6be 0bef ddbe 8d09 babd 350d 47bd
00000270: 84da 70be f539 39be c0fa b53e f6de 14bf
00000280: 3ad4 cb3e acb9 063d 5943 9ebe d0ce 533d
00000290: a3c8 db3c db4a 983d 775b b63d d3fa bbbb
000002a0: 2439 a23e 4385 943d 456d 483e 7db9 1cbf
000002b0: d504 aebe d3be a7bd e210 d63d b988 333e
000002c0: 1590 fd3e d9b6 0d3d 64d9 74bf 20a9 aabe
000002d0: 820b 233e 59cb 2dbf 0632 bcbd bb84 0cbe
000002e0: c8cc 05bf c238 52bd 218a 1dbf 02d5 27bc
000002f0: 26d6 833d 3df8 c2be 16f2 88bd 26a3 0c3e

fc3.bias f4 [3]
0.102006905 -0.017655004 -0.123677686
00000000: ffe8 d03d 3aa1 90bc ba4a fdbd
